calvin/data/gridworld/MazeMap_15x15_vr_2_4000_15_500/models/CALVINConv2d_k_60_i_3_h_150_adam_0.005_0.1_0.25_0207_205400_936487/epoch_003/checkpoint.pt (torch, 78251 bytes, 18 tensors)

w_motion f4 [9, 1, 3, 3]
1.2287294 -0.75881106 0.40177736 -1.267742 -0.31762213 0.29375863 0.30141842 1.9975129
0.3204262 0.16203293 -0.06441574 -0.26354563 0.24742992 0.34424743 -0.7652277 -0.55643
0.13574871 1.8504187 0.44406646 -1.3464954 -0.46227637 -2.626856 -0.80856335 0.8401434
0.4819012 -0.2940165 -0.14394896 0.95227236 -0.5639273 1.8191825 0.20062126 -1.0897398
0.116548486 -1.6896832 -1.6045554 -0.5562909 -1.3246617 0.524764 -3.2148 -0.3096344
-0.30635285 -1.0212592 -0.5577977 -1.1756848 -0.80328494 1.5928208 0.036403544 0.09824552
-0.7286696 0.25158364 0.6406992 0.65448993 -2.2968743 -0.43437603 -0.71265036 -1.0666974
0.583189 0.9654738 -0.2899396 0.06975954 -0.42882794 -0.51585144 0.004029725 0.05909336
-0.50112176 -1.6463952 -0.7482123 -0.50104 -0.811966 0.8583661 -0.72435814 -0.76212645
-0.31585515 -0.8313588 -0.1543022 -1.2972783 1.5770175 -0.21078488 -0.051570337 0.6609599
-0.90910006
00000000: 0147 9d3f 7141 42bf c3b5 cd3e 5f45 a2bf
00000010: 5e9f a2be 8867 963e 8453 9a3e 81ae ff3f
00000020: e70e a43e f6eb 253e 66ec 83bd 74ef 86be
00000030: 455e 7d3e 3341 b03e f6e5 43bf 3272 0ebf
00000040: b601 0b3e 85da ec3f ae5c e33e f659 acbf
00000050: 7daf ecbe 691e 28c0 02fe 4ebf a313 573f
00000060: c1bb f63e 5589 96be 5b67 13be 1fc8 733f
00000070: 8a5d 10bf f9da e83f a96f 4d3e 987c 8bbf
00000080: f9b0 ee3d 8a47 d8bf 1262 cdbf 1569 0ebf
00000090: 848e a9bf ef56 063f 48bf 4dc0 6688 9ebe
000000a0: 48da 9cbe 9fb8 82bf d4cb 0ebf d77c 96bf
000000b0: 15a4 4dbf 8de1 cb3f e21b 153d f234 c93d
000000c0: 178a 3abf 92cf 803e dd04 243f a78c 273f
000000d0: fdff 12c0 8966 debe 4170 36bf 8a89 88bf
000000e0: e04b 153f 4a29 773f f772 94be 17de 8e3d
000000f0: 568f dbbe d70e 04bf c90b 843b e10b 723d
00000100: 8449 00bf 14bd d2bf d78a 3fbf 2844 00bf
00000110: 01dd 4fbf e1bd 5b3f 896f 39bf b81a 43bf
00000120: c4b7 a1be eed3 54bf 6501 1ebe 370d a6bf
00000130: b6db c93f fed7 57be 6b3b 53bd ab34 293f
00000140: c8ba 68bf

r_motion f4 [9, 1, 3, 3]
0.24862158 -2.5898719e-09 0.06597517 -1.5959496e-11 -2.1341627e-07 0.00039310896 0.00016808906 -0.60983336
0.0014923771 0.025304738 0.00051445194 6.25655e-05 0.062258754 0.14955637 4.0916618e-07 3.303032e-06
0.019031499 -0.74378735 0.11606529 2.6336497e-07 0.0112632075 7.249285e-13 0.0051511843 0.3409174
0.262317 0.24294677 0.017700689 0.14658393 7.1064125e-07 -0.58484715 0.03448845 3.6946393e-09
0.006581816 9.1633055e-12 2.146628e-11 7.6679186e-07 -3.8031438e-05 -0.71592575 -2.2298165e-13 0.24150683
0.23816179 0.1180017 0.23952453 0.003115514 0.22234692 -0.9260096 0.01610225 0.026519103
5.446655e-07 0.046610627 0.036895726 0.030232498 8.3991536e-14 1.0798051e-05 0.0016498648 5.0406095e-05
0.16653445 0.026877372 0.20621434 0.22964178 0.06513597 0.05775744 0.035651226 0.30222857
0.24944147 6.969357e-08 0.048625614 0.28633773 0.007408389 -0.8772715 0.10577287 0.07235942
0.00037233057 1.9487097e-06 0.003305184 1.8456417e-08 6.7688203 0.0013237542 0.06210577 0.4542185
8.9540777e-07
00000000: a896 7e3e 82f9 31b1 fd1d 873d 9761 8cad
00000010: 6b27 65b4 311a ce39 1041 3039 0a1e 1cbf
00000020: de9b c33a e24b cf3c 49dc 063a 9935 8338
00000030: 0903 7f3d 4e25 193e 5fab db34 a8a9 5d36
00000040: f2e7 9b3c d968 3ebf a4b3 ed3d 9b64 8d34
00000050: 5189 383c 9b0c 4c2b 44cb a83b ba8c ae3e
00000060: 6a4e 863e 0ac7 783e 0901 913c 191a 163e
00000070: e5c2 3e35 8bb8 15bf c343 0d3d c8e4 7d31
00000080: 46ac d73b dc33 212d c4d1 bc2d 89d5 4d35
00000090: f283 1fb8 e946 37bf 160e 7baa 914d 773e
000000a0: afe0 733e e0aa f13d eb45 753e a72d 4c3b
000000b0: e9ae 633e f70e 6dbf dee8 833c 973e d93c
000000c0: 2135 1235 c9ea 3e3d f91f 173d 25aa f73c
000000d0: d321 bd29 4729 3537 4740 d83a 226b 5338
000000e0: 0288 2a3e ef2d dc3c da29 533e 3727 6b3e
000000f0: 0266 853d 1193 6c3d 0507 123d b4bd 9a3e
00000100: 966d 7f3e 72aa 9533 a72b 473d dc9a 923e
00000110: 12c2 f23b dd94 60bf 729f d83d 2d31 943d
00000120: 5d35 c339 94c6 0236 c99b 583b 178a 9e32
00000130: 2d9a d840 d281 ad3a 9f62 7e3d 548f e83e
00000140: f45b 7035

aa_net.0.weight f4 [150, 3, 3, 3]
0.19985513 -0.3196648 0.2661039 0.15094127 -0.21278895 0.10607401 -0.21964875 -0.1406436
-0.033347808 0.011839954 -0.28358227 -0.095620304 -0.22328816 0.033679917 -0.41624635 0.3038787
0.13048649 0.027889457 -0.08792695 1.7357422 0.012438491 -0.35740855 -0.19497561 -0.579475
0.2895951 -0.99078697 -0.4966766 -0.3387349 -0.49662426 -0.14000568 0.18787177 -0.08236872
-0.117264874 -0.19399144 -0.34056973 -0.23016137 -0.0117377415 -0.24659657 -0.29128146 0.07471589
0.15391383 0.12911484 0.026858833 0.30708835 -0.08847107 0.27832314 -0.30271673 -0.05610493
0.14235409 0.16520704 -0.37195602 -0.94362676 0.2949436 -0.93110573 -0.048717685 -0.16724928
-0.06371884 -0.12068477 -0.18123125 -0.274514 -0.0006767701 -0.17772608 -0.11657613 -0.11413037
-0.12334847 0.024295164 -0.12586994 0.08120312 0.017201276 -0.16704588 -0.030780798 0.05060775
-0.07756725 0.04196623 0.0028574748 -0.18215927 -0.1255006 0.053851984 -0.16528021 0.21433823
0.16044375 -0.15529504 0.008968754 0.35977402 0.3226956 0.14233515 0.04295384 -0.037566
0.1451685 0.026607512 0.3922726 0.34908906 -0.43234897 0.1350094 -0.021865666 0.15664706
-0.31637114 0.22523557 -0.42090744 1.8523865 1.6952826 -0.12847386 -0.7840975 0.30537674
1.3047222 -1.1897558 0.6669693 -1.0978042 -0.15147868 0.028006619 -0.01761184 0.45690247
0.23700845 -0.39271998 0.15099429 0.036501493 0.07735923 -0.22347169 0.14542174 -0.0436915
-0.1812535 0.10310693 0.47658157 -0.33783373 0.20722197 -0.331075 -0.6153734 1.1250583
0.7232018 -0.06571868 1.2217355 1.1535051 -0.39902425 0.7220396 0.34010097 0.26836258
-0.011989846 0.14553006 -0.7162625 -0.8316568 -0.981881 0.11022664 -0.039351363 0.27322188
-0.3911489 0.09897997 -0.42908725 0.121853925 -0.11945181 -0.11036536 -0.51197493 -0.001092124
-0.70873225 0.05719566 -1.1764326 0.7758945 -0.2954239 -1.2270908 -1.0165385 0.25585064
0.22503667 -0.010838007 0.5537844 -0.21468809 0.28398424 -0.13076356 -0.20450667 -0.6326997
-0.14143229 0.17584392 -0.71953666 -0.3908007 0.15467973 -0.62427497 0.42742494 -0.01246352
-0.48892933 -0.10802964 -0.838823 0.1296231 -0.14994851 1.0469447 -0.15672195 1.6374692
0.032141734 -0.41183573 0.057434626 -0.19673258 0.76067555 0.20024729 -0.11856193 -0.038435396
0.100296594 0.1352131 -0.100183085 -0.25156868 0.031306453 -0.10125863 -0.32884854 -0.027051881
-0.027376026 -0.04156732 0.25865686 -0.20423426 0.2470166 -0.114480786 -0.16846277 -0.5103346
1.5744637 -0.21655771 -0.35009205 -0.75627583 -0.5595768 0.34382197 -0.83182067 -0.8009025
0.021695327 0.24026497 0.35818756 -0.06755802 0.57924587 -0.05109797 -0.17833504 0.22678305
0.0026184013 -0.10992621 -0.05823552 -0.3214437 0.17902318 -0.10413873 0.066579945 0.25376257
0.11535901 0.35657626 -0.2505965 0.47319558 -0.779017 -0.7415204 0.6607983 0.8866397
1.5569927 -0.71154916 1.7086424 -0.14966916 -0.08442875 -0.16832556 0.15489492 0.9403561
0.057582997 0.06395548 0.24683438 0.17386782 0.30904338 0.23538235 0.23984039 0.18480314
00000000: d3a6 4c3e 1bab a3be c53e 883e 5990 1a3e
00000010: 59e5 59be 553d d93d 9aeb 60be e004 10be
00000020: b697 08bd 5efc 413c b231 91be 94d4 c3bd
00000030: a7a5 64be f4f3 093d 3e1e d5be fd95 9b3e
00000040: 409e 053e 6e78 e43c 0b13 b4bd cd2c de3f
00000050: d0ca 4b3c 41fe b6be b0a7 47be 7958 14bf
00000060: cf45 943e 37a4 7dbf 654c febe a96e adbe
00000070: 8945 febe a65d 0fbe 7561 403e eeb0 a8bd
00000080: 9128 f0bd b1a5 46be 285f aebe 6caf 6bbe
00000090: a84f 40bc d083 7cbe d822 95be a504 993d
000000a0: 969b 1d3e ae36 043e 0e07 dc3c af3a 9d3e
000000b0: 5230 b5bd 5f80 8e3e b0fd 9abe 48ce 65bd
000000c0: 45c5 113e 092c 293e 0571 bebe 8691 71bf
000000d0: d902 973e f25c 6ebf 328c 47bd 6543 2bbe
000000e0: 067f 82bd 9429 f7bd af94 39be 198d 8cbe
000000f0: 4669 31ba d3fd 35be 77bf eebd 2fbd e9bd
00000100: 1f9e fcbd a706 c73c 0de4 00be d24d a63d
00000110: b1e9 8c3c 130e 2bbe 0328 fcbc 124a 4f3d
00000120: 94db 9ebd c8e4 2b3d 7944 3b3b f687 3abe
00000130: 3b83 00be e693 5c3d 373f 29be 7b7b 5b3e
00000140: 5e4b 243e aa05 1fbe aef1 123c 4d34 b83e
00000150: 5c38 a53e 4ec0 113e 5ef0 2f3d cede 19bd
00000160: 0da7 143e fff7 d93c f4d7 c83e cdbb b23e
00000170: d85c ddbe e73f 0a3e a01f b3bc 1668 203e
00000180: 66fb a1be 27a4 663e 2e81 d7be 001b ed3f
00000190: 05ff d83f a78e 03be 9dba 48bf 575a 9c3e
000001a0: 2301 a73f eb49 98bf 80be 2a3f d984 8cbf
000001b0: 3a1d 1bbe 236e e53c b546 90bc 1fef e93e
000001c0: 58b2 723e 9812 c9be 3f9e 1a3e 9782 153d
000001d0: 846e 9e3d c3d5 64be 70e9 143e dcf5 32bd
000001e0: 849a 39be ba29 d33d 8002 f43e 8bf8 acbe
000001f0: ff31 543e aa82 a9be 1c89 1dbf e901 903f
00000200: c123 393f 8497 86bd d461 9c3f 0ea6 933f
00000210: e84c ccbe 96d7 383f b721 ae3e d266 893e
00000220: 0f71 44bc d505 153e fb5c 37bf 76e7 54bf
00000230: 8e5c 7bbf 81be e13d e52e 21bd bde3 8b3e
00000240: ab44 c8be 03b6 ca3d 53b1 dbbe 8d8e f93d
00000250: 27a3 f4bd 3c07 e2bd ca10 03bf 9a25 8fba
00000260: 7a6f 35bf ff45 6a3d 5895 96bf 06a1 463f
00000270: cd41 97be 5011 9dbf ef1d 82bf dbfe 823e
00000280: 0370 663e e591 31bc d0c4 0d3f 32d7 5bbe
00000290: 6266 913e e2e6 05be 326a 51be 9cf8 21bf
000002a0: a0d3 10be 6e10 343e 8e33 38bf 0817 c8be
000002b0: 5d64 1e3e 7cd0 1fbf 71d7 da3e cb33 4cbc
000002c0: f254 fabe a53e ddbd 1bbd 56bf ebbb 043e
000002d0: 1a8c 19be 4902 863f b87b 20be 9798 d13f
000002e0: 0da7 033d 22dc d2be 9240 6b3d 4474 49be
000002f0: a2bb 423f a00d 4d3e 99d0 f2bd 6f6e 1dbd
00000300: 4d68 cd3d 4e75 0a3e ca2c cdbd 9ccd 80be
00000310: 323b 003d af60 cfbd d65e a8be e89b ddbc
00000320: b043 e0bc 7e42 2abd ac6e 843e c922 51be
00000330: ebf1 7c3e e774 eabd 8181 2cbe 4aa5 02bf
00000340: 0788 c93f 4ec1 5dbe 443f b3be 4b9b 41bf
00000350: 6d40 0fbf 6f09 b03e 33f2 54bf f207 4dbf
00000360: 66ba b13c 0508 763e 5c64 b73e dc5b 8abd
00000370: 7549 143f 1b4c 51bd 769d 36be d139 683e
00000380: 7c99 2b3b fe20 e1bd 5e88 6ebd 4594 a4be
00000390: da51 373e b046 d5bd 115b 883d 2bed 813e
000003a0: 5841 ec3d 2a91 b63e 2f4e 80be b146 f23e
000003b0: a86d 47bf 48d4 3dbf 142a 293f d2fa 623f
000003c0: 894b c73f 1628 36bf cbb4 da3f df42 19be
000003d0: fbe8 acbd 895d 2cbe c69c 1e3e 2dbb 703f
000003e0: 26dc 6b3d 17fb 823d 27c2 7c3e 680a 323e
000003f0: ef3a 9e3e 1208 713e b898 753e 093d 3d3e

aa_net.0.bias f4 [150]
0.16163424 0.22850557 -0.25714105 -0.15924703 -0.3072062 0.22429398 0.11602168 -0.077462815
-0.07913311 -0.06905794 -0.1078609 -0.21023867 1.0052588 -0.09293804 -0.13711959 -0.065962195
-0.03907685 -0.112306625 0.114154935 -0.20185544 -0.05001788 -0.09785572 0.2965136 -0.03608347
-0.039416727 -0.15406021 -0.055906884 0.10669023 -0.23051423 -0.04011112 0.20305419 0.052034725
0.007513095 0.14633425 -0.019009814 -0.33135253 -0.32309818 -0.036651436 -0.09502838 0.037276704
0.2409565 0.10952825 0.048878305 0.18586846 0.14038777 -0.20061496 -0.20386626 0.07512007
0.07917686 0.14519083 -0.122296266 -0.120096385 -0.29403475 -0.22537772 -0.2825437 -0.05141132
0.023332674 0.5252646 0.3681083 -0.193832 0.24911548 -0.26149282 -0.19582419 0.5158947
0.043954857 -0.10362592 -0.0708216 -0.065161794 -0.13194421 -0.31029513 0.08117887 -0.2440181
0.24190167 0.047383036 0.26716182 0.17245047 0.26397917 -0.23833656 0.08155839 -0.04370084
-0.01800623 0.08694615 0.155311 0.39353704 0.057072796 -0.012258842 -0.15204209 0.045670167
0.20885828 0.08607011 0.12162054 -0.19741814 -0.42294216 0.028826483 0.008154593 0.052563064
0.14921883 0.0957216 -0.22271322 -0.18534394 -0.05003095 -0.101626955 -0.007224108 -0.19347347
0.047283944 0.295466 0.098635025 0.31937107 0.20171458 -0.10866081 -0.11711953 -0.09406861
0.3564312 0.006892758 -0.026021583 -0.061388906 -0.14734572 0.31901354 0.07702336 -0.1811085
0.12737496 -0.03852878 -0.09997531 0.2404124 -0.10779082 -0.15829247 -0.1923675 0.020440452
-0.061013207 0.229693 -0.3821142 0.118346736 0.064167954 0.10331708 -0.23765191 0.19555919
-0.0146577 0.021367863 0.13077408 -0.022743417 -0.22809942 -0.22041792 -0.42536148 0.1157064
0.2170104 -0.048882265 -0.21696316 -0.087993786 0.25806278 -0.2518787
00000000: 7283 253e 5dfd 693e fea7 83be a711 23be
00000010: 224a 9dbe 52ad 653e c69c ed3d d3a4 9ebd
00000020: 8a10 a2bd 406e 8dbd 2de6 dcbd ce48 57be
00000030: 52ac 803f 4d56 bebd 1469 0cbe 3017 87bd
00000040: 0c0f 20bd 0401 e6bd 10ca e93d 31b3 4ebe
00000050: 8cdf 4cbd 9468 c8bd a1d0 973e 43cc 13bd
00000060: 6f73 21bd f6c1 1dbe 9efe 64bd 6880 da3d
00000070: ec0b 6cbe 8f4b 24bd 70ed 4f3e 5d22 553d
00000080: 6930 f63b a5d8 153e 78ba 9bbc 0aa7 a9be
00000090: 206d a5be d11f 16bd 3d9e c2bd 75af 183d
000000a0: 4dbd 763e 5950 e03d 9e34 483d 4d54 3e3e
000000b0: d0c1 0f3e 026e 4dbe 51c2 50be 8dd8 993d
000000c0: 7a27 a23d e8ac 143e 7776 fabd 18f5 f5bd
000000d0: b98b 96be 6bc9 66be 91a9 90be ad94 52bd
000000e0: 2a24 bf3c be77 063f b178 bc3e e57b 46be
000000f0: 2118 7f3e 63e2 85be 2386 48be ad11 043f
00000100: 020a 343d d439 d4bd ea0a 91bd 8c73 85bd
00000110: 621c 07be 01df 9ebe 1b41 a63d e1df 79be
00000120: 12b5 773e b714 423d 6fc9 883e db96 303e
00000130: 4728 873e 800e 74be 1608 a73d a7ff 32bd
00000140: cd81 93bc d310 b23d d909 1f3e b07d c93e
00000150: 2ac5 693d 4fd9 48bc ecb0 1bbe a410 3b3d
00000160: f2de 553e 8745 b03d 3114 f93d fb27 4abe
00000170: e08b d8be 8425 ec3c d89a 053c 5e4c 573d
00000180: d2cc 183e b009 c43d ef0e 64be cdca 3dbe
00000190: 41ed 4cbd cb21 d0bd 36b8 ecbb e91d 46be
000001a0: cfac 413d 5247 973e 2901 ca3d 9b84 a33e
000001b0: 448e 4e3e 8f89 debd 5ddc efbd 0ba7 c0bd
000001c0: 267e b63e a5dc e13b 372b d5bc ef72 7bbd
000001d0: cce1 16be be55 a33e 6cbe 9d3d 8274 39be
000001e0: 956e 023e 5bd0 1dbd dbbf ccbd ab2e 763e
000001f0: 6fc1 dcbd 6c17 22be fcfb 44be bc72 a73c
00000200: fce8 79bd a434 6b3e 79a4 c3be c65f f23d
00000210: 7d6a 833d e897 d33d 065b 73be ab40 483e
00000220: da26 70bc a80b af3c a4e9 053e 6750 babc
00000230: e592 69be 3cb5 61be fbc8 d9be 7af7 ec3d
00000240: f937 5e3e c538 48bd 972b 5ebe 1636 b4bd
00000250: ce20 843e 3ff6 80be

aa_net.3.weight f4 [10, 150, 1, 1]
-0.08794795 0.023626408 0.02388802 0.12394948 0.008956025 0.23196064 0.043464288 -0.119577706
-0.25805444 -0.11734562 0.042111047 -0.032394957 0.35383815 0.05613802 0.006289821 -0.012682839
0.15634923 0.1381091 -0.14131644 -3.9565184 0.034762565 0.10809795 -0.29384664 0.011448335
0.08282406 -0.032840494 0.14591388 0.0746311 -0.20288742 0.47837216 -0.0002621723 -1.7523023
-0.18660325 2.4280763 0.059952248 0.101871215 -0.13212314 0.06675483 -0.13096197 0.11026964
-0.053624913 0.084419705 0.109417476 0.12131655 -0.04625505 0.3342378 -0.3959123 -0.4997345
0.05556718 -0.5014571 -0.025031125 0.03102336 -0.013155715 0.07571392 -0.23013893 -0.35158053
0.08468537 0.13860722 -0.821105 -0.06634832 -0.34298187 -0.0026956787 0.13887548 -0.1740075
-0.044471018 -0.053474702 0.07332352 -0.12492877 0.15246098 0.09593862 0.056623995 0.30159375
-0.21461396 -0.09691983 -0.04083158 -0.0005382678 -0.2110235 -0.3773711 0.19221057 0.04664752
-0.027031938 0.1374825 -0.13603944 0.07987312 0.19055891 0.02321921 0.093030445 -0.040231667
-0.10856726 -0.14863023 -0.16007534 0.07193723 -0.009878928 -0.033792052 0.19784714 -0.008173613
-0.0098452335 -0.11493879 0.108945206 0.14888766 -0.00020190357 -0.20106234 0.2450913 0.091125704
0.025307652 -0.5538632 -0.21874057 0.25850427 -0.13542458 0.12432815 0.011967991 0.277836
0.5739182 0.071257964 0.016132245 -0.031316947 -0.0191104 -0.3167292 -0.3225988 0.12017017
-0.041388437 -0.014644666 -0.00617926 0.0449477 0.036922827 -0.09332447 0.0833385 -0.07470561
0.16071084 -0.04671065 -0.014242142 -0.2541465 0.12603916 0.10705035 -0.18049899 0.15153146
0.14214055 0.01908412 -0.036881376 -0.0088956775 0.083015524 0.030393457 0.057958122 0.020081336
-0.12346798 -0.3216568 -0.102729455 0.06615836 -0.029460495 0.09743554 0.13086393 0.09801947
-0.108515464 -0.3171071 -0.450487 -0.41923478 0.5223046 -0.024520347 0.18730731 -0.21758889
0.13341157 0.016906047 -0.2724308 0.04948732 0.0020451006 -0.5937475 -0.14314707 -0.28738168
0.12505226 -0.121097095 0.080610536 -0.28723252 0.24846633 -0.036430497 0.20079781 -0.3725135
-0.09704616 -0.9206627 -0.026008252 0.13852824 -0.7196006 -1.1331077 0.0034683456 -0.04721663
0.021601705 -0.19778654 -0.017459478 0.107830316 0.13979761 0.113503516 -0.18296963 -0.35276172
0.20610426 -0.40188742 -0.27532184 -0.54029703 0.21975434 0.0132268835 0.063192725 0.0964703
-0.28567913 0.09056461 -0.18647432 0.19296937 -0.08945467 0.015967472 -0.21409507 0.14302932
-0.04152202 -0.48920017 0.060105365 0.076334335 0.16490676 -0.3186344 0.04746209 0.09738078
0.06331252 0.13489604 -0.0075856857 -0.44907695 -0.040980812 -0.6695629 0.027978256 0.21312574
-0.05535444 -0.27980542 0.15970127 0.018356776 0.37456194 0.04611474 -0.13235365 -0.43487522
0.32685518 -0.1729924 0.2277349 0.35619324 0.07841523 0.18069963 0.07238432 0.16197667
-0.20386547 0.15866847 0.026019488 -0.6391651 -0.43547904 -0.31400472 0.10310192 0.07360021
-0.75097215 -0.055870503 0.10250472 0.1700656 -0.43951324 -0.07489945 -0.18576589 0.10635357
00000000: 0e1e b4bd 2b8c c13c cfb0 c33c 3ad9 fd3d
00000010: 4bbc 123c 1787 6d3e 9c07 323d 28e5 f4bd
00000020: b61f 84be e752 f0bd a27c 2c3d 93b0 04bd
00000030: 462a b53e fbf0 653d d81a ce3b afcb 4fbc
00000040: 031a 203e 796c 0d3e 42b5 10be 9937 7dc0
00000050: 3163 0e3d 7562 dd3d 1173 96be cc91 3b3c
00000060: a99f a93d c183 06bd 736a 153e 31d8 983d
00000070: b8c1 4fbe 32ed f43e 2c74 89b9 714b e0bf
00000080: ec14 3fbe 9a65 1b40 7d90 753d dba1 d03d
00000090: 4a4b 07be c2b6 883d e51a 06be 0dd5 e13d
000000a0: cca5 5bbd 3de4 ac3d 4516 e03d d074 f83d
000000b0: ef75 3dbd 3821 ab3e 04b5 cabe 33dd ffbe
000000c0: 699a 633d 7e5f 00bf 130e cdbc b424 fe3c
000000d0: 118b 57bc e60f 9b3d 8aa9 6bbe 5d02 b4be
000000e0: 866f ad3d 0def 0d3e f033 52bf a1e1 87bd
000000f0: 529b afbe fca9 30bb 6035 0e3e 062f 32be
00000100: 3e27 36bd 4a08 5bbd a42a 963d a8da ffbd
00000110: bb1e 1c3e 787b c43d 90ee 673d 7f6a 9a3e
00000120: c3c3 5bbe e77d c6bd 043f 27bd 8a1a 0dba
00000130: 8b16 58be c936 c1be d9d2 443e 7811 3f3d
00000140: 1572 ddbc 36c8 0c3e ec4d 0bbe 8594 a33d
00000150: e021 433e 3636 be3c bf86 be3d f6c9 24bd
00000160: 8358 debd 8632 18be caea 23be d453 933d
00000170: 3adb 21bc 8969 0abd 7198 4a3e 9eea 05bc
00000180: e74d 21bc 0765 ebbd aa1e df3d 0276 183e
00000190: 14b6 53b9 49e3 4dbe 37f9 7a3e 1da0 ba3d
000001a0: fe51 cf3c fbc9 0dbf 87fd 5fbe ac5a 843e
000001b0: beac 0abe c29f fe3d 6415 443c 8540 8e3e
000001c0: 4eec 123f b2ef 913d c527 843c 3346 00bd
000001d0: 6a8d 9cbc 542a a2be ab2b a5be c71b f63d
000001e0: ec86 29bd 2ef0 6fbc 647b cabb 141b 383d
000001f0: 643c 173d e620 bfbd 60ad aa3d 41ff 98bd
00000200: 6291 243e ab53 3fbd e057 69bc 7d1f 82be
00000210: 6910 013e 373d db3d bad4 38be 102b 1b3e
00000220: 4b8d 113e 4d56 9c3c ed10 17bd 2dbf 11bc
00000230: 0b04 aa3d b3fb f83c 7f65 6d3d 9d81 a43c
00000240: c8dc fcbd 33b0 a4be d263 d2bd 097e 873d
00000250: 2357 f1bc 498c c73d 3201 063e 6fbe c83d
00000260: 5b3d debd dd5b a2be 3ba6 e6be f1a5 d6be
00000270: c1b5 053f e5de c8bc 7dcd 3f3e 9fcf 5ebe
00000280: 0b9d 083e 8d7e 8a3c 0d7c 8bbe 37b3 4a3d
00000290: 1807 063b d6ff 17bf 2595 12be b123 93be
000002a0: b30d 003e c101 f8bd 2317 a53d 2410 93be
000002b0: f56d 7e3e 2538 15bd f19d 4d3e 17ba bebe
000002c0: 23c0 c6bd 8db0 6bbf 420f d5bc 59da 0d3e
000002d0: bf37 38bf ac09 91bf 2f4d 633b 3a66 41bd
000002e0: 0ff6 b03c 8e88 4abe 2e07 8fbc 24d6 dc3d
000002f0: 1b27 0f3e 8874 e83d 645c 3bbe 2f9d b4be
00000300: ff0c 533e 30c4 cdbe fcf6 8cbe e850 0abf
00000310: 4807 613e 92b5 583c 306b 813d 3892 c53d
00000320: 8944 92be f079 b93d 20f3 3ebe c399 453e
00000330: 0334 b7bd 37ce 823c bd3b 5bbe 4776 123e
00000340: fe12 2abd 7278 fabe 0b31 763d 2d55 9c3d
00000350: 51dd 283e 0c24 a3be 9c67 423d 936f c73d
00000360: ffa9 813d 3022 0a3e 5891 f8bb 6aed e5be
00000370: 7fdb 27bd 7968 2bbf a832 e53c a23d 5a3e
00000380: 56bb 62bd a842 8fbe bb88 233e f360 963c
00000390: 95c6 bf3e cfe2 3c3d b787 07be f7a7 debe
000003a0: 9059 a73e eb24 31be 5633 693e f65e b63e
000003b0: 2a98 a03d 5309 393e 3b3e 943d 36dd 253e
000003c0: 1cc2 50be fd79 223e d226 d53c 53a0 23bf
000003d0: 1cf7 debe 3ac5 a0be 1927 d33d b5bb 963d
000003e0: b63f 40bf 78d8 64bd ffed d13d ad25 2e3e
000003f0: e107 e1be e264 99bd 6a39 3ebe e7cf d93d

aa_net.3.bias f4 [10]
0.07564442 -0.04449628 0.14901274 -0.021180058 0.05996196 -0.063463084 0.1157815 0.020021908
-0.4039357 -0.5414727
00000000: 76eb 9a3d bb41 36bd cc96 183e cd81 adbc
00000010: ac9a 753d eff8 81bd da1e ed3d fc04 a43c
00000020: a9d0 cebe f49d 0abf

exp_avg f4 [9, 1, 3, 3]
6.936185e-05 2.1814598e-13 2.6184036e-08 8.2954225e-16 1.4491924e-11 6.639366e-09 4.7448245e-09 -6.939376e-05
6.5910393e-09 3.755879e-09 3.497989e-10 3.569184e-11 8.654104e-09 2.6023075e-08 4.1788052e-13 2.233876e-12
2.9974287e-09 -2.939193e-08 -0.001701479 5.2241923e-11 1.8859177e-08 8.0775775e-17 1.0407565e-08 0.0056088464
-0.0039016702 -1.251341e-06 -4.4673343e-06 1.1050863e-05 3.5119945e-12 -1.1057911e-05 2.0879867e-09 1.7455186e-14
3.330232e-09 3.2897238e-17 1.0259056e-16 3.652549e-12 5.417444e-10 -6.453386e-05 7.593118e-18 2.2693224e-05
3.8446648e-05 3.2737344e-08 2.9864275e-06 7.1435404e-09 3.5054475e-07 -4.469289e-06 2.3455861e-08 1.0875238e-08
5.182939e-12 1.0578372e-07 3.0476485e-06 1.2782995e-06 7.921742e-19 4.320995e-11 1.2624992e-08 8.0788744e-11
0.00023283469 -0.00024842765 5.2711687e-07 1.6350412e-05 -5.792345e-08 -2.6825843e-08 -1.1967005e-06 2.861619e-05
7.605146e-08 1.2973575e-12 1.044073e-08 9.889034e-08 4.394196e-09 -2.8826571e-05 1.2702028e-08 8.775735e-09
3.5681766e-10 2.0586662e-12 1.795821e-09 1.9503977e-14 -6.1497194e-06 1.0206125e-09 5.009793e-09 6.1412416e-06
9.461501e-13
00000000: 5c76 9138 4c9c 752a 4eeb e032 6a19 6f26
00000010: d3f1 7e2d 7b20 e431 eb07 a331 7e87 91b8
00000020: 6577 e231 100d 8131 d24d c02f 70f9 1c2e
00000030: 27ad 1432 5989 df32 ee3e eb2a ef31 1d2c
00000040: 53fb 4d31 8a79 fcb2 2904 dfba 2dc3 652e
00000050: c5ff a132 9a41 ba24 f4cc 3232 6aca b73b
00000060: 2ab3 7fbb c0f3 a7b5 1ce6 95b6 1867 3937
00000070: 7822 772c 5e85 39b7 407c 0f31 eb38 9d28
00000080: 10da 6431 34b6 1724 c78e ec24 3d83 802c
00000090: e0e9 1430 5a56 87b8 7c11 0c23 545d be37
000000a0: c641 2138 179b 0c33 6f6a 4836 3f73 f531
000000b0: 8132 bc34 e6f6 95b6 fc7b c932 cdd5 3a32
000000c0: c45b b62c 372b e333 3486 4c36 0992 ab35
000000d0: fece 6921 140a 3e2e 4de5 5832 05a8 b12e
000000e0: 1625 7439 653f 82b9 327f 0d35 3e28 8937
000000f0: 82c7 78b3 a76e e6b2 519e a0b5 cd0c f037
00000100: bb51 a333 3b96 b62b d15e 3332 8a5d d433
00000110: c2fb 9631 97d0 f1b7 1c38 5a32 17c4 1632
00000120: 9f29 c42f a2dd 102c d6d0 f630 1cad af28
00000130: b059 ceb6 9c45 8c30 9b22 ac31 dd10 ce36
00000140: a628 852b

exp_avg_sq f4 [9, 1, 3, 3]
1.6747219e-05 1.2467924e-25 4.956981e-13 9.007045e-30 5.0629113e-22 1.8424917e-15 5.894328e-16 1.6752718e-05
3.971238e-15 1.7676798e-14 2.8683381e-18 3.78359e-20 2.4934495e-13 4.5890436e-12 2.1261787e-24 3.2238531e-22
4.207169e-15 7.0715604e-12 5.1886473e-05 2.8362834e-20 2.8352028e-12 3.0511305e-32 2.1480336e-15 0.00017490126
7.3244344e-05 5.4496786e-11 9.245072e-12 1.404928e-06 9.266307e-23 1.405538e-06 7.05493e-14 1.4440829e-27
9.086432e-16 1.8987462e-32 9.432381e-32 1.0974705e-22 8.43552e-18 4.0146126e-05 3.4996499e-34 5.267323e-06
1.4993665e-05 2.10187e-12 5.4766208e-08 6.9444694e-14 4.199503e-10 1.1014702e-06 1.1526174e-12 2.7205304e-12
3.4024088e-22 1.4808191e-10 2.8947616e-07 2.5224745e-07 8.068637e-36 1.2062326e-19 5.303336e-16 2.436879e-19
4.086296e-05 4.242019e-05 8.887077e-10 8.984654e-07 9.5385295e-14 3.828399e-14 2.419405e-10 5.4042757e-06
7.8057e-11 9.093751e-24 2.5766292e-13 1.05290464e-10 1.940398e-15 5.4916127e-06 5.2202464e-13 5.709635e-14
7.1153415e-19 2.0532339e-23 4.4847827e-17 1.8422202e-27 4.2060944e-07 8.121448e-18 3.5370852e-14 4.2036598e-07
4.3356774e-24
00000000: 617c 8c37 6e58 1a16 d086 0b2b 40af 360f
00000010: 6104 191c f9c3 0427 77e4 2926 3088 8c37
00000020: 3514 8f27 ec37 9f28 60a5 5322 ccac 321f
00000030: 655e 8c2a 6e76 a12c 4f81 2418 b6de c21b
00000040: 4994 9727 f4ce f82c ada0 5938 90f0 051f
00000050: 7982 472c 7b6c 1e0b 3ac8 1a27 b365 3739
00000060: c29a 9938 edad 6f2e 1aa4 222d f590 bc35
00000070: aa0b e01a eba5 bc35 e7dc 9e29 f6d2 e412
00000080: 04f3 8226 552d c50a ede0 f40b 11ad 041b
00000090: 9e9b 1b23 9362 2838 7597 e807 f6bd b036
000000a0: 4d8d 7b37 ece7 132c 1538 6b33 2460 9c29
000000b0: c0de e62f 3ad6 9335 6b37 a22b b870 3f2c
000000c0: baa9 cd1b 5ad1 222f 4d69 9b34 a06c 8734
000000d0: d799 2b05 2568 0e20 b6db 1826 13d9 8f20
000000e0: 4564 2b38 55ec 3138 3f49 7430 122e 7135
000000f0: e1c9 d629 6f6a 2c29 1902 852f 6056 b536
00000100: 2fa6 ab2e 13e6 2f19 240d 912a 4389 e72e
00000110: 06d2 0b27 9844 b836 d7ef 122b ce91 8029
00000120: 0002 5221 9c93 c619 f8d2 4e24 aaf4 1113
00000130: 1fd0 e134 74d0 1523 d14b 1f29 a9ae e134
00000140: 78ba a718

exp_avg f4 [9, 1, 3, 3]
-4.750434e-07 -1.1021674e-15 -1.2150644e-10 -6.791836e-18 -9.084627e-14 -4.1172416e-11 -4.4392278e-11 -0.0010235548
-5.37344e-11 -5.8389977e-12 -6.054531e-13 -8.263507e-14 -1.37467485e-11 -3.620235e-11 -5.474889e-16 -4.417433e-15
-4.487578e-12 -0.00012473766 -4.1777024e-05 -7.065403e-13 -4.98575e-09 -1.9435425e-18 -1.5347627e-10 -0.002319655
-5.787532e-05 -2.5896053e-08 -1.0334143e-07 3.963028e-08 1.0279219e-14 0.00022928588 2.1503202e-11 5.3503872e-17
9.285576e-12 1.3269821e-19 3.1086502e-19 1.1094955e-14 -2.3818968e-12 -0.00025737204 -1.472861e-20 -6.108168e-08
-6.254491e-08 -4.9408817e-11 -5.089478e-09 -1.0530278e-11 -4.3639178e-10 0.0002731957 4.7476835e-11 8.79117e-11
2.2565754e-14 4.084278e-10 1.9931198e-08 2.2885772e-08 3.489974e-21 4.2810124e-13 -9.489138e-11 -2.7508163e-12
-4.075343e-05 -0.0018212395 -6.4969856e-09 -2.3704195e-07 -1.6127333e-09 -6.775034e-10 -1.1958019e-07 -4.796203e-08
-1.7723069e-10 -1.8848143e-15 -1.4976796e-11 -1.7690487e-10 -7.92694e-12 -0.00014272965 -1.8976532e-11 -1.30309e-11
-1.4350767e-12 -8.279853e-15 -7.2224483e-12 -7.8444046e-17 -0.00023781147 -4.1046784e-12 -2.0191604e-11 -2.5137332e-08
-3.8053688e-15
00000000: 7809 ffb4 cdd6 9ea6 0699 05af 1493 faa2
00000010: 4f91 cca9 0514 35ae 433d 43ae cd28 86ba
00000020: 8e53 6cae 0471 cdac 7e6b 2aab e013 baa9
00000030: dad5 71ad 3938 1fae 8dcd 1da6 a127 9fa7
00000040: 82e4 9dac 03cc 02b9 bd39 2fb8 98df 46ab
00000050: 1f4f abb1 7b68 0fa2 bbbf 28af 5a05 18bb
00000060: 27bf 72b8 0672 deb2 8dec ddb3 f435 2a33
00000070: 882c 3928 766c 7039 e824 bd2d 39be 7624
00000080: 845a 232d 93a9 1c20 9880 b720 73de 4728
00000090: 709c 27ac e4ef 86b9 981b 8b9e 022c 83b3
000000a0: 6e50 86b3 624d 59ae 86df aeb1 2840 39ad
000000b0: afe8 efaf b53b 8f39 2ace 502e e351 c12e
000000c0: 1641 cb28 1a89 e02f 2b35 ab32 5896 c432
000000d0: f5d8 831d e4ff f02a 19ab d0ae 4d92 41ac
000000e0: aaee 2ab8 a8b6 eeba 173c dfb1 9885 7eb4
000000f0: 02a7 ddb0 103b 3ab0 f465 00b4 cffe 4db3
00000100: 01de 42af b0d0 07a7 bfbc 83ad 4b82 42af
00000110: c473 0bad b3a9 15b9 5aeb a6ad f53d 65ad
00000120: 16f8 c9ab 1528 15a8 081e feac 31e1 b4a4
00000130: 085d 79b9 a86b 90ac 739b b1ad 94ed d7b2
00000140: 551a 89a7

exp_avg_sq f4 [9, 1, 3, 3]
4.4268555e-07 5.224858e-29 2.9366586e-15 1.9840638e-33 3.5604076e-25 8.761012e-19 4.8826734e-19 1.387744e-05
4.869413e-18 1.2188382e-16 3.317991e-20 4.9110764e-22 1.4302196e-15 9.368349e-14 2.1016543e-26 1.3696035e-24
6.1007105e-17 2.8641327e-06 2.4822043e-08 5.1688e-24 2.8206968e-15 3.9111478e-35 8.847117e-18 5.0386607e-05
5.9264753e-08 1.3860533e-13 1.0381444e-14 8.102175e-09 1.0602266e-25 2.2527245e-06 2.9732347e-16 2.8672468e-30
5.904529e-18 1.7636922e-35 9.679069e-35 1.2345665e-25 4.088836e-21 8.597298e-06 1.2751924e-37 4.5754472e-08
1.7574641e-07 1.0896698e-14 3.096312e-10 6.21971e-17 2.458335e-12 2.1642911e-06 1.3040114e-15 3.9201367e-15
2.2362308e-25 1.8719602e-13 3.5242348e-10 3.0398975e-10 5.330751e-39 8.481604e-23 4.0385483e-19 3.6267866e-22
1.47784975e-08 4.8976886e-05 1.2144957e-10 1.3650771e-07 1.3901232e-15 8.976931e-16 4.9185387e-14 9.545997e-08
3.0737086e-13 5.5719923e-27 4.1990023e-16 1.593039e-12 1.23685314e-17 2.2751606e-06 3.4284588e-15 1.1342207e-15
1.3689613e-21 3.6360054e-26 1.3243894e-19 3.26102e-30 2.1952998e-07 1.862051e-20 1.6689887e-16 1.8871524e-09
7.675903e-27
00000000: 3daa ed34 4477 8410 ca9b 5327 5fd4 2409
00000010: e960 dc16 2b4a 8121 701c 1021 27d3 6837
00000020: 4ea6 b322 c185 0c25 0db0 1c1f 9d6d 141c
00000030: ca1d ce26 dbf4 d229 4423 d014 96ef d317
00000040: 3dac 8c24 6d35 4036 4038 d532 51f5 c718
00000050: ac40 4b27 c9f3 4f06 5433 2323 3556 5338
00000060: 498a 7e33 440e 1c2a f603 3b28 be31 0b32
00000070: ec3f 0316 832d 1736 3365 ab25 639e 680e
00000080: b3d6 d922 458c bb05 2aa8 0007 f9d4 1816
00000090: cc78 9a1d 1d3d 1037 f891 2d02 9383 4433
000000a0: ceb4 3c34 264c 4428 b838 aa2f b06a 8f24
000000b0: 6dfd 2c2c 3d3e 1136 87ed bb26 e13c 8d27
000000c0: 7e6a 8a16 94c3 522a 32bf c12f c11e a72f
000000d0: f70b 3a00 9612 cd1a d164 ee20 ce39 db1b
000000e0: 85e4 7d32 886c 4d38 0489 052f f492 1234
000000f0: 7e56 c826 085f 8126 e482 5d29 acff cc33
00000100: cf08 ad2a b7ba dc13 560e f225 4733 e02b
00000110: bd28 6423 f6ae 1836 e70b 7727 5c75 a326
00000120: 20df ce1c d80b 3415 375b 1c20 5e48 840e
00000130: f1b7 6b34 a1dd af1e da6b 4025 23af 0131
00000140: 7409 1814

exp_avg f4 [150, 3, 3, 3]
0.00016010074 2.3404738e-05 -0.00038141312 -7.583115e-05 3.858367e-06 -0.0003420492 -8.564933e-05 3.6970647e-05
-0.00016357502 -0.0004057786 -0.0003008103 -5.959954e-05 -0.00013724511 -0.0003142265 2.1734098e-05 -5.2068463e-05
-0.00013905106 0.00011750151 6.47588e-08 -1.4462775e-07 -1.8442618e-08 -2.802791e-11 -7.1264935e-07 -6e-45
-1.3515715e-06 -3.3003285e-08 2.6383564e-06 5.072024e-05 2.4340264e-07 -0.00032782299 -0.000128076 6.0296284e-06
-0.00019786673 -2.688687e-05 7.433335e-06 -3.2619013e-05 -0.00017194281 -0.00017195288 -1.9257293e-05 -3.898331e-06
-0.0002148165 -2.0612399e-05 -2.0505064e-05 -0.0001166807 -7.7410514e-05 1.0337308e-06 -6.1626057e-13 7.0120414e-08
-5.29393e-09 -1.8249947e-06 -1.4796155e-10 2.9277707e-15 -3.2581588e-07 1.07e-42 6e-45 6e-45
6e-45 -6e-45 6e-45 6e-45 6e-45 -6e-45 6e-45 0.0
6e-45 6e-45 6e-45 6e-45 6e-45 0.0 6e-45 6e-45
0.0 6e-45 0.0 0.0 6e-45 6e-45 0.0 -6e-45
6e-45 -0.0005637008 -0.0002772633 -0.0002537201 -0.00024887768 -2.553261e-06 -0.000252348 -0.0006310937
6.683661e-05 -0.00021538675 8.2378225e-05 -0.00021255651 -8.598689e-05 -0.0001952581 -0.00033470738 -0.0002932284
0.00014725648 -0.00047313533 -0.00046213245 1.6740094e-10 -1.4827624e-07 -5.232472e-07 -3.279624e-09 1.0654621e-06
-1.0723296e-06 4.0373558e-07 3.872799e-08 7.918456e-09 -6.734391e-05 4.287399e-05 -2.1428788e-05 -0.00015382885
-1.0684016e-06 -4.9721068e-05 -0.00019260697 3.6870454e-06 -6.86984e-05 -3.1433952e-05 -0.00010336226 -1.8712006e-05
-2.5548452e-05 -5.1780236e-05 5.7563087e-05 5.8347825e-07 -0.00011771742 -2.4038136e-06 -8.873127e-13 -1.0278439e-07
-1.5261188e-06 -1.294191e-07 -1.9998533e-08 -3.9614704e-07 -1.0348927e-08 1.0669764e-07 -6.4143446e-06 0.0007752895
0.0007041467 0.00042664137 5.2567884e-05 -1.1676944e-09 3.3767712e-05 0.00056298624 0.00037359103 0.0005929819
-8.487416e-05 -5.2176256e-06 0.00010446918 0.0008177982 0.00075197197 0.0005300897 0.00014667555 0.00022016623
1.9042674e-05 2.844257e-07 -1.2511096e-17 -7.1186497e-07 1.3630091e-06 2.2572297e-36 4.5706336e-08 -2.4110324e-07
4.2361496e-08 6.0129985e-09 0.00020368153 0.00011393822 -0.00022228104 1.2282663e-05 1.7735101e-06 -0.000111870686
-0.0004152947 -0.00063056865 -0.00011346361 -0.00032491423 -0.00011795127 2.2152377e-05 -0.0001058975 -0.000101739504
0.00014366498 -8.902831e-05 7.595344e-06 -9.411247e-05 -5.8683525e-10 -1.1787019e-07 -1.513671e-08 5.9451192e-08
1.9341957e-08 2.4640713e-07 -7.7220017e-07 -3.961016e-15 1.3367289e-05 0.000101514954 2.3125098e-05 1.5565787e-05
4.925779e-05 -9.1773296e-07 5.1147537e-05 1.5023417e-05 2.7492244e-05 -7.692675e-05 -8.68844e-07 5.672847e-05
-7.4845148e-06 3.6310048e-05 7.786983e-05 5.6100134e-06 6.1682884e-05 5.2945772e-05 0.00013921733 6e-45
-2.1363748e-07 -3.5783785e-08 3.8943906e-09 3.4147473e-20 -4.9170126e-29 -1.1036989e-06 5.9760447e-22 9.867813e-31
0.000319368 -0.0002124362 0.00023809214 0.00041888686 -1.263093e-06 0.00033516006 7.446588e-05 -0.00028782827
0.00031202534 -0.00014647399 0.00029297307 -0.0001585055 -0.00021274545 8.9297675e-05 -0.00023220327 5.9841143e-05
0.00032874374 -0.0002644302 -2.820039e-07 -3.555176e-07 3.1162608e-07 1.6351038e-07 2.2662402e-06 -3.3307825e-07
-1.8481343e-06 6.411277e-09 -1.8616583e-07 -0.00045175364 -0.00018260462 0.0003715143 0.0007179943 -7.797709e-06
0.00079420826 0.00045282856 -0.00015150863 4.1993582e-05 0.0010989766 0.0007308434 0.0001702956 -0.00011430679
00000000: b7e0 2739 4b55 c437 67f8 c7b9 8a07 9fb8
00000010: 1f77 8136 1155 b3b9 a29e b3b8 ee10 1b38
00000020: 5685 2bb9 afbe d4b9 13b6 9db9 85fa 79b8
00000030: 74e9 0fb9 c4be a4b9 9f51 b637 1664 5ab8
00000040: 3cce 11b9 256b f638 8711 8b33 f94a 1bb4
00000050: bf6b 9eb2 3e89 f6ad e44c 3fb5 0400 0080
00000060: a567 b5b5 7fbf 0db3 9e0e 3136 71bc 5438
00000070: 01ad 8234 a8df abb9 244c 06b9 1d52 ca36
00000080: 727a 4fb9 1d8b e1b7 dd6b f936 66d0 08b8
00000090: 8c4b 34b9 404e 34b9 b98a a1b7 69ce 82b6
000000a0: 5d40 61b9 cae8 acb7 4a02 acb7 79b2 f4b8
000000b0: 7457 a2b8 b8be 8a35 4176 2dab 1b95 9633
000000c0: e7e5 b5b1 57f2 f4b5 79af 22af d6f7 5227
000000d0: cbeb aeb4 fc02 0000 0400 0000 0400 0000
000000e0: 0400 0000 0400 0080 0400 0000 0400 0000
000000f0: 0400 0000 0400 0080 0400 0000 0000 0000
00000100: 0400 0000 0400 0000 0400 0000 0400 0000
00000110: 0400 0000 0000 0000 0400 0000 0400 0000
00000120: 0000 0000 0400 0000 0000 0000 0000 0000
00000130: 0400 0000 0400 0000 0000 0000 0400 0080
00000140: 0400 0000 52c5 13ba a65d 91b9 bc05 85b9
00000150: cc7b 82b9 b158 2bb6 934d 84b9 fb6f 25ba
00000160: a22a 8c38 71d9 61b9 79c2 ac38 b4e1 5eb9
00000170: dc53 b4b8 32be 4cb9 aa7b afb9 73bc 99b9
00000180: dc68 1a39 260f f8b9 5e4a f2b9 2d0f 382f
00000190: dd35 1fb4 4675 0cb5 c15f 61b1 0001 8f35
000001a0: f7ec 8fb5 ffc0 d834 e055 2633 bd09 0832
000001b0: fd3a 8db8 99d3 3338 f9c1 b3b7 1e4d 21b9
000001c0: 0066 8fb5 978b 50b8 8af6 49b9 f56e 7736
000001d0: 2c12 90b8 f3d7 03b8 31c4 d8b8 baf7 9cb7
000001e0: e250 d6b7 9b2e 59b8 e56f 7138 52a0 1c35
000001f0: 0fdf f6b8 3451 21b6 9ec1 79ab 51ba dcb3
00000200: 0bd5 ccb5 74f6 0ab4 3dc9 abb2 09ae d4b4
00000210: 10cb 31b2 a621 e533 cd3a d7b6 cc3c 4b3a
00000220: 7c96 383a d6ae df39 567c 5c38 987c a0b0
00000230: cea1 0d38 5e95 133a 8ade c339 5772 1b3a
00000240: 78fe b1b8 1013 afb6 7716 db38 8261 563a
00000250: fc1f 453a b8f5 0a3a ebcc 1939 6cdc 6639
00000260: d5bd 9f37 2cb3 9834 fbc9 66a3 fd16 3fb5
00000270: a3f0 b635 1c06 4004 a64e 4433 fa70 81b4
00000280: f5f0 3533 e59a ce31 5893 5539 1ef2 ee38
00000290: 1d14 69b9 a311 4e37 5809 ee35 1e9c eab8
000002a0: e9bb d9b9 bf4c 25ba 50f3 edb8 4059 aab9
000002b0: 9b5c f7b8 ded3 b937 4a15 deb8 fb5c d5b8
000002c0: c6a4 1639 b6b4 bab8 82db fe36 3f5e c5b8
000002d0: dc4e 21b0 d21f fdb3 fa05 82b2 4757 7f33
000002e0: 6a25 a632 f049 8434 3149 4fb5 edb5 8ea7
000002f0: 1244 6037 6de4 d438 c5fc c137 4693 8237
00000300: 269a 4e38 215a 76b5 4087 5638 160d 7c37
00000310: 259f e637 bc53 a1b8 813a 69b5 bbef 6d38
00000320: 7e23 fbb6 9e4b 1838 0c4e a338 a63d bc36
00000330: bf5b 8138 1712 5e38 defa 1139 0400 0000
00000340: 3964 65b4 b0b0 19b3 6ccf 8531 c341 211f
00000350: 7952 7990 ce22 94b5 689d 341c 4b1d a00d
00000360: d970 a739 69c1 5eb9 5fa8 7939 0b9e db39
00000370: 8c87 a9b5 6cb8 af39 912a 9c38 a8e7 96b9
00000380: 5597 a339 d096 19b9 2e9a 9939 7f34 26b9
00000390: 6c14 5fb9 5345 bb38 977b 73b9 f0fd 7a38
000003a0: 3d5b ac39 38a3 8ab9 5266 97b4 f8dd beb4
000003b0: 904d a734 6491 2f34 b615 1836 edd1 b2b4
000003c0: 690d f8b5 304a dc31 e0e4 47b4 59d9 ecb9
000003d0: 8e79 3fb9 cec7 c239 c837 3c3a e8d2 02b7
000003e0: 6a32 503a 9f69 ed39 4ade 1eb9 4422 3038
000003f0: 890b 903a 1296 3f3a 6191 3239 feb7 efb8

exp_avg_sq f4 [150, 3, 3, 3]
1.3580834e-06 4.1260535e-07 1.3167422e-06 2.4364679e-06 6.993288e-10 2.4611786e-06 1.2697336e-06 4.755507e-07
1.4250727e-06 6.171732e-07 1.4978498e-06 6.379682e-07 4.841171e-07 3.1504057e-06 4.222967e-07 1.7272918e-06
2.8919683e-06 1.4698392e-06 6.6070656e-11 1.6047507e-11 4.0185938e-11 3.008723e-12 3.1727013e-10 7.142965e-12
1.2878649e-09 5.7838365e-12 5.9293775e-10 3.8828807e-07 1.4660166e-07 7.42786e-07 1.9306842e-06 1.2265905e-09
1.8637762e-06 7.930666e-07 1.3715722e-07 6.1490687e-07 7.3292915e-07 1.0491865e-06 3.7924306e-07 1.316715e-07
1.8860486e-06 1.14281676e-07 1.0028427e-06 2.115678e-06 1.2687501e-06 2.2737612e-10 8.0837545e-11 4.8356256e-11
1.6486909e-10 1.6346648e-09 2.1506921e-11 9.830827e-12 1.2466139e-10 5.976039e-11 1.1520966e-12 2.1891428e-13
1.0823526e-12 5.120014e-13 1.0699989e-17 1.2417431e-12 2.2264184e-11 1.8066842e-14 2.5643194e-11 0.0
5.3964076e-13 3.3312772e-14 1.2261877e-12 1.9455728e-12 6.530555e-13 0.0 2.6149116e-11 2.73559e-13
0.0 2.1582638e-14 0.0 0.0 7.49231e-15 3.177258e-17 0.0 1.7595178e-14
3.2134847e-16 1.6782942e-06 3.653939e-06 4.5028987e-06 3.3148992e-06 1.5238262e-10 3.2470407e-06 3.486233e-06
3.6647448e-06 3.688231e-06 5.1231086e-06 3.3003744e-06 2.5182455e-06 3.310522e-06 6.80706e-06 3.6696908e-06
2.784649e-06 3.277381e-06 2.5201434e-06 6.732771e-11 9.965379e-12 6.066053e-10 9.642323e-12 6.1810596e-10
6.636022e-11 1.9709727e-11 5.3580473e-12 4.260389e-12 8.9981785e-07 1.3307274e-06 1.0377846e-06 4.2152678e-07
2.1635271e-10 3.582491e-07 7.3461393e-07 1.3023224e-06 1.3482148e-06 5.924931e-07 4.0282382e-07 7.719163e-07
9.840763e-07 1.6949251e-06 1.3928027e-06 8.328797e-07 4.21775e-07 6.225385e-07 5.9370577e-12 1.6911306e-11
4.175165e-10 2.0372098e-11 5.009451e-10 4.0097377e-11 2.1043518e-12 1.1789485e-11 7.7465956e-10 3.681775e-06
5.9477707e-06 3.7423563e-06 2.0030488e-07 2.0204508e-11 1.3217408e-07 3.826832e-06 6.2155086e-06 4.7020294e-06
1.2499704e-06 5.2750516e-07 6.247448e-07 6.0635953e-06 6.075895e-06 5.003033e-06 1.0085848e-06 6.5472966e-07
9.821739e-08 8.521559e-11 1.0086691e-11 7.335264e-11 3.5367106e-10 4.860906e-10 1.0753005e-10 1.0174234e-10
1.3136285e-10 5.8091943e-12 3.071203e-06 4.8223224e-06 2.5760642e-06 3.608761e-07 3.7587325e-10 2.2977984e-07
2.024965e-06 4.532805e-06 5.11786e-07 2.0510086e-06 7.6916376e-07 7.046761e-08 5.6325084e-06 4.167811e-06
1.381241e-06 2.9374314e-06 2.9920675e-09 1.1288251e-06 6.3590136e-12 1.2921712e-10 4.9164856e-12 6.079161e-10
3.398328e-09 1.7891928e-11 3.507312e-10 2.9705397e-13 4.03505e-09 9.158557e-07 5.151571e-07 8.994516e-07
1.3378356e-06 2.4482633e-10 1.364937e-06 3.6685708e-07 5.345195e-07 9.1674787e-07 5.381008e-07 1.0027649e-06
5.8402117e-07 5.1351856e-07 1.9281695e-06 4.588861e-07 1.5552729e-06 1.4320146e-06 8.143744e-07 2.9822794e-12
2.1110372e-11 1.6687098e-11 4.6653957e-12 1.0945344e-10 3.5222845e-12 8.1447055e-10 5.332519e-12 4.588124e-12
3.3102087e-06 3.8864378e-06 3.464896e-06 3.1513002e-06 1.0135609e-09 3.10755e-06 2.03727e-06 3.925358e-06
2.2072695e-06 2.062253e-06 3.6195122e-06 3.3784074e-06 3.2583753e-06 6.3995653e-06 3.9033566e-06 4.0752443e-06
2.607438e-06 3.8435837e-06 6.570876e-11 9.3347385e-11 1.1169134e-10 2.6115663e-11 9.641634e-10 4.2003578e-11
8.68341e-11 2.3058893e-11 3.8540095e-11 1.2677336e-06 3.198992e-06 1.5369255e-06 2.2550475e-06 7.009313e-10
2.2089787e-06 2.4009883e-06 3.1877075e-06 2.33355e-06 3.8009175e-06 2.2937654e-06 3.4584527e-06 2.6832868e-06
00000000: 6447 b635 0c84 dd34 ebba b035 3382 2336
00000010: e43a 4030 ba2a 2536 b76b aa35 314f ff34
00000020: 2045 bf35 d2ab 2535 ba09 c935 d740 2b35
00000030: 46f4 0135 8f6b 5336 04b8 e234 4bd5 e735
00000040: a313 4236 4a47 c535 794a 912e c627 8d2d
00000050: 58bd 302e 56b8 532c cd6b ae2f 1c52 fb2c
00000060: b800 b130 2b80 cb2c 49fc 2230 e875 d034
00000070: 8f69 1d34 de63 4735 e790 0136 d194 a830
00000080: dd26 fa35 1fe3 5435 7d45 1334 1410 2535
00000090: 82be 4435 c6d1 8c35 c59a cb34 9661 0d34
000000a0: 2324 fd35 046b f533 6a99 8635 12fb 0d36
000000b0: ec49 aa35 b000 7a2f 7ec3 b12e 4eac 542e
000000c0: 8646 352f a8aa e030 482d bd2d 1cf2 2c2d
000000d0: 1011 092f 1c6a 832e a824 a22b bf79 762a
000000e0: dd53 982b 971d 102b 4561 4523 83c2 ae2b
000000f0: 7cd6 c32d 4dbb a228 578f e12d 0000 0000
00000100: 37e5 172b 0307 1629 1192 ac2b 53e8 082c
00000110: 9cd1 372b 0000 0000 9302 e62d 0200 9a2a
00000120: 0000 0000 2d66 c228 0000 0000 0000 0000
00000130: 2ef8 0628 7186 1224 0000 0000 b87b 9e28
00000140: aa3e b925 c041 e135 3236 7536 9b17 9736
00000150: 8975 5e36 e58b 272f bce7 5936 07f5 6936
00000160: d6ef 7536 5383 7736 2be7 ab36 007c 5d36
00000170: 21ff 2836 562a 5e36 3368 e436 cf44 7636
00000180: e8df 3a36 faf0 5b36 bc1f 2936 220e 942e
00000190: 1450 2f2d 0ebe 2630 2aa1 292d 57e7 2930
000001a0: 7ced 912e 5c5e ad2d 0085 bc2c 2ce6 952c
000001b0: 038b 7135 729b b235 024a 8b35 334e e234
000001c0: e0e1 6d2f 6255 c034 4932 4535 75cb ae35
000001d0: 4ff4 b435 d10b 1f35 af43 d834 af35 4f35
000001e0: 9b14 8435 2f7d e335 56f0 ba35 0f93 5f35
000001f0: 5170 e234 851c 2735 43e4 d02c e0c0 942d
00000200: 3988 e52f e331 b32d e1b2 0930 a259 302e
00000210: a214 142c 1f67 4f2d d2ef 5430 6a14 7736
00000220: f692 c736 3125 7b36 6313 5734 82b8 b12d
00000230: bceb 0d34 3d68 8036 d08e d036 20c6 9d36
00000240: a8c4 a735 e199 0d35 23b4 2735 e375 cb36
00000250: 8adf cb36 badf a736 b65e 8735 aec0 2f35
00000260: 95eb d233 1d64 bb2e 6b72 312d de4d a12e
00000270: c76e c22f 969d 0530 0976 ec2e d8bb df2e
00000280: 5b6f 102f 9264 cc2c de1a 4e36 6fcf a136
00000290: 72e0 2c36 6fbe c134 75a3 ce2f 67b9 7634
000002a0: a2e4 0736 8018 9836 ab61 0935 0fa4 0936
000002b0: 8878 4e35 fa53 9733 e1fe bc36 39d9 8b36
000002c0: 1463 b935 b020 4536 029d 4d31 2382 9735
000002d0: e7bc df2c 6313 0e2f c4fb ac2c 4b1a 2730
000002e0: 0588 6931 0a61 9d2d 07d1 c02f fd39 a72a
000002f0: ada4 8a31 20d9 7535 5449 0a35 d871 7135
00000300: ae8f b335 3e98 862f e132 b735 74f4 c434
00000310: e67b 0f35 6f16 7635 0172 1035 bd96 8635
00000320: a1c5 1c35 bad8 0935 b365 0136 d35c f634
00000330: c5be d035 a633 c035 629b 5a35 f8db 512c
00000340: 55b0 b92d 01c8 922d 2626 a42c cfb0 f02e
00000350: d6db 772c 45e1 5f30 109f bb2c 266e a12c
00000360: f424 5e36 3f68 8236 7686 6836 ed7a 5336
00000370: 814d 8b30 4d8b 5036 08b8 0836 92b6 8336
00000380: 9a20 1436 3d65 0a36 bfe6 7236 99b8 6236
00000390: 76aa 5a36 d9bb d636 94f9 8236 15be 8836
000003a0: 72fb 2e36 22f8 8036 be7e 902e e845 cd2e
000003b0: a29c f52e 3fb7 e52d 7c83 8430 d3bb 382e
000003c0: 41f3 be2e 03d4 ca2d 4a80 292e ff26 aa35
000003d0: 44ae 5636 5c48 ce35 6c55 1736 a8ab 4030
000003e0: f73d 1436 aa20 2136 66ec 5536 159a 1c36
000003f0: 4413 7f36 97ee 1936 c417 6836 8412 3436

exp_avg f4 [150]
-0.000145516 -0.0001079153 6e-45 -0.0005285777 -0.00010298381 0.00054534397 -0.0005687229 6.5529995e-05
0.00017147094 0.00062765426 -0.00011295888 0.00019782549 -0.0012005285 0.00030219436 -9.88984e-06 0.00011957623
0.00054622075 -7.129041e-05 9.253083e-06 0.00013942407 1.8350482e-05 -0.0005948304 0.00041472187 0.0002612786
-4.827883e-05 -0.00016195237 3.7030244e-05 0.00022887357 0.00023643607 0.00023533883 0.0006467758 0.0003446767
8.338919e-05 -0.00033716194 -0.00048113678 -0.00039784925 -7.362382e-05 -3.5104484e-05 -9.626906e-05 -0.00012666556
2.4837798e-05 0.0006990345 -0.0002210518 1.0894007e-06 4.70739e-05 4.0293657e-05 -0.00047266996 -2.5364016e-05
9.223744e-05 0.00018935895 -1.5675134e-05 -0.00024371828 0.00055188814 -0.0003113622 6.744428e-05 0.00019054906
-4.269697e-05 -0.00032229192 0.00070207514 -5.758426e-05 0.00013348088 -0.00033362143 -0.00016380717 -0.00024078508
0.00018368941 0.00018384683 3.7059766e-05 -6.8125155e-05 -4.868447e-05 -5.429623e-05 -0.00019380226 0.00014344334
0.00097202417 -9.19712e-06 0.00015241641 0.0003099213 0.00010387564 0.00025088462 -0.00039909867 -8.1354505e-05
-3.0650157e-05 -0.0006766644 -0.00011293883 0.0002799381 -0.0010432573 -0.0001362778 0.00012712552 -7.234185e-07
0.00034016618 0.000116288764 2.5579297e-05 -0.000775792 -8.920432e-05 -0.00013129709 -5.5393073e-05 -0.0004100187
-0.0002962274 2.2836584e-05 -0.0007563306 -0.00037822756 -3.006915e-05 0.0003022529 0.00027593767 -0.0001574653
0.00021699228 0.0007486501 4.6290374e-05 -0.0010106858 8.047974e-05 -0.0003755472 -5.3737767e-05 -7.8496465e-05
-0.00039181818 -0.00012017592 0.0001725328 0.0001407929 -2.0616104e-05 0.0010732185 0.0004961428 0.00049671007
0.00039117454 -8.588188e-06 -0.0005669057 -6.620452e-05 2.3415778e-05 -0.0001947314 -0.00016914908 0.00027228484
-0.00027679393 -0.00025019853 -8.463469e-08 0.00024248325 -0.00022979619 -0.00025568984 -2.3209117e-05 -0.0004557917
0.00031856334 0.00015266122 -0.00016667177 -2.650456e-05 -0.00020457119 -1.15422745e-05 0.00020837398 9.53993e-05
4.2613832e-05 0.00034149908 -2.3589588e-05 -0.00027123562 -0.00047675497 -5.706865e-06
00000000: a795 18b9 9650 e2b8 0400 0000 4090 0aba
00000010: 03f9 d7b8 6af5 0e3a 5916 15ba 266d 8938
00000020: e1cc 3339 2a89 243a 56e4 ecb8 606f 4f39
00000030: 0d5b 9dba d76f 9e39 8aec 25b7 00c5 fa38
00000040: 4130 0f3a bf81 95b8 b03d 1b37 5d32 1239
00000050: 5cef 9937 64ee 1bba 076f d939 38fc 8839
00000060: 007f 4ab8 c2d1 29b9 ec50 1b38 c8fd 6f39
00000070: d3eb 7739 49c5 7639 648c 293a b9b5 b439
00000080: 3be1 ae38 1cc5 b0b9 1641 fcb9 6c96 d0b9
00000090: 7d66 9ab8 273d 13b8 0fe4 c9b8 87d1 04b9
000000a0: c45a d037 693f 373a 24ca 67b9 8637 9235
000000b0: 3771 4538 fc00 2938 b0d0 f7b9 cfc4 d4b7
000000c0: 996f c138 a88e 4639 187e 83b7 a18e 7fb9
000000d0: 96ac 103a 543e a3b9 df70 8d38 20ce 4739
000000e0: 8615 33b8 4af9 a8b9 770b 383a a186 71b8
000000f0: 00f7 0b39 e9e9 aeb9 a7c3 2bb9 417b 7cb9
00000100: c09c 4039 02c7 4039 9f70 1b38 6ade 8eb8
00000110: 8d32 4cb8 22bc 63b8 6637 4bb9 4769 1639
00000120: 70cf 7e3a 544d 1ab7 f8d1 1f39 ef7c a239
00000130: cfd7 d938 2a89 8339 1e3e d1b9 de9c aab8
00000140: 5b8e 00b8 2e62 31ba 93d9 ecb8 a8c4 9239
00000150: e8bd 88ba cbe5 0eb9 ff4c 0539 f130 42b5
00000160: 5558 b239 0ee0 f338 1f93 d637 855e 4bba
00000170: 3413 bbb8 cbac 09b9 dc55 68b8 c7f7 d6b9
00000180: f84e 9bb9 3191 bf37 7d44 46ba d84c c6b9
00000190: 023d fcb7 b377 9e39 baab 9039 451d 25b9
000001a0: 6c88 6339 0f41 443a e927 4238 fd78 84ba
000001b0: 3bc7 a838 18e5 c4b9 7d64 61b8 789e a4b8
000001c0: f26c cdb9 f506 fcb8 ece9 3439 cea1 1339
000001d0: bff0 acb7 3dab 8c3a 940f 023a a635 023a
000001e0: 8f16 cd39 fd15 10b7 669c 14ba 48d7 8ab8
000001f0: 006d c437 d030 4cb9 9c5d 31b9 74c1 8e39
00000200: a71e 91b9 142d 83b9 6ac0 b5b3 1a43 7e39
00000210: 72f5 70b9 1c0e 86b9 33b1 c2b7 54f7 eeb9
00000220: d904 a739 af13 2039 9dc4 2eb9 1c56 deb7
00000230: 2982 56b9 b1a5 41b7 f77e 5a39 1c11 c838
00000240: 41bc 3238 3b0b b339 41e2 c5b7 a134 8eb9
00000250: f8f4 f9b9 997d bfb6

exp_avg_sq f4 [150]
3.413156e-06 2.209011e-06 2.3477375e-11 6.822709e-06 1.8088534e-06 6.385791e-06 5.6291547e-06 1.9209033e-06
6.2202353e-06 5.102872e-06 1.8215551e-06 4.964523e-06 1.6362417e-05 2.2994273e-06 3.5836823e-07 1.5174946e-06
2.7348667e-06 4.9237583e-06 8.698326e-07 3.6703946e-06 1.5367435e-06 5.9558715e-06 3.6118313e-06 9.3130956e-07
1.1621015e-06 2.6174718e-07 1.7793544e-06 4.7048408e-07 3.5406674e-06 2.1251658e-06 4.838239e-06 8.821481e-07
1.2703946e-06 2.6949417e-06 4.634953e-06 1.8266384e-06 1.9444458e-06 3.2194782e-07 2.0893797e-06 1.5460809e-06
3.228747e-06 4.033403e-06 4.6155346e-06 4.6264754e-06 2.2425779e-07 1.0804455e-06 3.153692e-06 3.2599687e-07
2.0655905e-06 2.7070778e-06 5.740828e-08 4.3477053e-06 2.1172102e-06 1.4677712e-06 1.4196986e-06 5.5511526e-07
3.2899238e-06 4.704963e-06 7.616579e-06 5.1464554e-06 2.4903186e-06 3.713872e-06 6.361497e-07 1.0632345e-05
5.753918e-07 9.049809e-07 1.16497e-06 1.7038354e-06 1.0647195e-06 1.4996704e-06 5.717253e-07 7.7769164e-07
6.6744383e-06 2.2127472e-06 1.2332721e-06 8.639005e-06 1.6882879e-06 1.3731832e-06 6.4994465e-06 1.2533342e-06
6.282321e-08 3.3207727e-06 5.867677e-06 3.5569758e-06 7.0912674e-06 6.1444844e-06 4.923046e-07 4.3499884e-07
3.046624e-06 1.8721556e-06 8.752787e-07 6.2470967e-06 2.2889388e-07 4.7368889e-07 4.4590947e-06 1.6218845e-06
2.1462993e-06 2.0697992e-07 3.9089023e-06 1.8242588e-06 1.5387689e-06 2.577248e-06 2.605511e-06 1.0532325e-06
3.95879e-06 4.7894614e-06 2.3400412e-07 9.110939e-06 4.6667324e-06 3.455733e-06 1.0782584e-06 1.0498882e-06
7.3343676e-06 1.3078851e-06 1.2455391e-06 2.505379e-06 1.380049e-07 2.8428915e-06 2.2257432e-06 4.0430364e-06
3.0094163e-06 1.5770124e-06 4.9459672e-06 2.2256847e-06 4.7983203e-06 1.4656126e-06 4.434084e-06 2.612016e-06
2.973761e-06 7.806818e-07 7.451345e-07 2.0493826e-06 1.819914e-06 1.9025518e-06 3.447273e-07 3.3019176e-06
7.5947987e-06 1.0029137e-06 2.8287202e-06 6.5378504e-07 6.831999e-07 4.81087e-07 4.9525755e-07 2.0007266e-07
1.5287648e-06 1.4934152e-06 9.644156e-07 7.6449606e-07 1.6883632e-06 3.4102663e-07
00000000: 930d 6536 853e 1436 5982 ce2d a0ee e436
00000010: bbc7 f235 8745 d636 12e2 bc36 dee8 0036
00000020: 6ab7 d036 5639 ab36 287c f435 ee94 a636
00000030: 0642 8937 dc4f 1a36 c165 c034 b8ac cb35
00000040: a788 3736 c336 a536 717e 6935 e650 7636
00000050: 1b42 ce35 8cd8 c736 ca62 7236 1bff 7935
00000060: 81f9 9b35 4286 8c34 27d2 ee35 d796 fc34
00000070: 349c 6d36 129e 0e36 2858 a236 c1cc 6c35
00000080: 6d82 aa35 bfda 3436 f185 9b36 d12a f535
00000090: 537d 0236 2cd8 ac34 4537 0c36 ef82 cf35
000000a0: 73ad 5836 ab56 8736 24df 9a36 1f3d 9b36
000000b0: 83cb 7034 d303 9135 04a4 5336 ab04 af34
000000c0: 939e 0a36 3eab 3536 1291 7633 81e2 9136
000000d0: 6515 0e36 3c00 c535 798c be35 3b03 1535
000000e0: 76c8 5c36 53df 9d36 ea91 ff36 b7af ac36
000000f0: 591f 2736 d63b 7936 e0c3 2a35 9361 3237
00000100: a074 1a35 d0ed 7235 105c 9c35 57af e435
00000110: 7ce7 8e35 4848 c935 aa78 1935 90c2 5035
00000120: fdf4 df36 b57e 1436 e886 a535 3ef0 1037
00000130: 2199 e235 374e b835 d215 da36 3c38 a835
00000140: 6de9 8633 71da 5e36 f6e2 c436 61b4 6e36
00000150: 86f1 ed36 b82c ce36 ea26 0435 c989 e934
00000160: 9a74 4c36 c746 fb35 b2f4 6a35 279e d136
00000170: dfc5 7534 4e4f fe34 559f 9536 87af d935
00000180: 2409 1036 353e 5e34 3729 8336 0ed9 f435
00000190: b287 ce35 c9f4 2c36 57da 2e36 cb5c 8d35
000001a0: bfd5 8436 29b5 a036 9042 7b34 2fdb 1837
000001b0: ed96 9c36 0ae9 6736 adb8 9035 e2e9 8c35
000001c0: bd19 f636 978a af35 662c a735 1522 2836
000001d0: 802e 1434 81c8 3e36 fa5d 1536 6ba9 8736
000001e0: 61f5 4936 bca9 d335 89f5 a536 f95c 1536
000001f0: 4201 a136 11b6 c435 7ec8 9436 184a 2f36
00000200: d390 4736 0b90 5135 4105 4835 2088 0936
00000210: c543 f435 2f5b ff35 f612 b934 8396 5d36
00000220: d3d6 fe36 da9b 8635 0bd5 3d36 c47f 2f35
00000230: 2465 3735 0c24 0135 d7f1 0435 8ed3 5634
00000240: f52f cd35 5b71 c835 1171 8135 c537 4d35
00000250: b89b e235 5816 b734
