calvin/data/gridworld/MazeMap_15x15_vr_2_4000_15_500/models/CALVINConv2d_k_60_i_3_h_150_adam_0.005_0.1_0.25_0207_205400_936487/epoch_004/checkpoint.pt (torch, 78251 bytes, 18 tensors)

w_motion f4 [9, 1, 3, 3]
1.1969367 -0.75881106 0.38436663 -1.267742 -0.31766063 0.28530192 0.29233015 2.029313
0.3095848 0.15181126 -0.06544886 -0.26367062 0.23281144 0.32239377 -0.7652277 -0.55643
0.12721491 1.8791087 0.45565316 -1.3464699 -0.4200347 -2.626856 -0.8397286 0.85022813
0.45941707 -0.32738003 0.011396604 0.92711 -0.56392753 1.8443706 0.18924722 -1.0897398
0.107297435 -1.6896832 -1.6045554 -0.5562909 -1.3266236 0.5524411 -3.2148 -0.334981
-0.33470544 -1.0406296 -0.5862932 -1.1901592 -0.83187616 1.6222031 0.014461549 0.076422215
-0.72869724 0.22547154 0.60960287 0.62738174 -2.2968743 -0.43476507 -0.709359 -1.0667155
0.60627306 0.94917 -0.34120828 0.016634101 -0.3173629 -0.5004988 0.23902541 0.031423584
-0.5262961 -1.6463952 -0.7659641 -0.52792025 -0.82276255 0.8860944 -0.7439656 -0.7769191
-0.31682593 -0.8313588 -0.15907292 -1.2972783 1.6030393 -0.21353313 -0.062692575 0.63497746
-0.90910006
00000000: 3935 993f 7141 42bf b4cb c43e 5f45 a2bf
00000010: 6aa4 a2be 1813 923e 4cac 953e 44e0 0140
00000020: e681 9e3e 6974 1b3e 0d0a 86bd d6ff 86be
00000030: 1f66 6e3e cc10 a53e f6e5 43bf 3272 0ebf
00000040: a044 023e a286 f03f 5f4b e93e 2059 acbf
00000050: ca0e d7be 691e 28c0 74f8 56bf 8da8 593f
00000060: b738 eb3e 5b9e a7be d2b8 3a3c 1557 6d3f
00000070: 8e5d 10bf 5614 ec3f 06ca 413e 987c 8bbf
00000080: c2be db3d 8a47 d8bf 1262 cdbf 1569 0ebf
00000090: cdce a9bf c86c 0d3f 48bf 4dc0 a182 abbe
000000a0: 835e abbe 5a33 85bf 5017 16bf 2357 98bf
000000b0: d6f5 54bf 5aa4 cf3f 22f0 6c3c 4083 9c3d
000000c0: e78b 3abf 03e2 663e ef0e 1c3f 179c 203f
000000d0: fdff 12c0 8799 debe 8d98 35bf 228a 88bf
000000e0: b634 1b3f cefc 723f dab2 aebe 3d44 883c
000000f0: 647d a2be b020 00bf 14c3 743e 04b6 003d
00000100: 57bb 06bf 14bd d2bf 3916 44bf c825 07bf
00000110: 91a0 52bf 15d7 623f 8874 3ebf 2ce4 46bf
00000120: 0237 a2be eed3 54bf 03e4 22be 370d a6bf
00000130: 6430 cd3f 6ea8 5abe f764 80bd e28d 223f
00000140: c8ba 68bf

r_motion f4 [9, 1, 3, 3]
0.24825062 -3.1805942e-09 0.06591838 -1.9599697e-11 -2.6209835e-07 0.00037210723 0.00014518316 -0.76572967
0.0014652264 0.025303021 0.000514283 6.25426e-05 0.06225473 0.14954777 4.090149e-07 3.301812e-06
0.019030172 -0.75502914 0.10168224 2.400836e-07 0.011183733 6.608812e-13 0.0051458934 0.33410287
0.25427338 0.24242546 0.058243155 0.1463036 7.038051e-07 -0.6866486 0.034474753 3.6590593e-09
0.0065757786 9.075061e-12 2.125955e-11 7.594133e-07 -4.132877e-05 -0.84825224 -2.4361765e-13 0.24111305
0.237953 0.117945366 0.23915268 0.0031019808 0.22212794 -0.9466816 0.016095601 0.026507314
5.4173995e-07 0.046569988 0.03677561 0.030089453 8.353918e-14 1.0742426e-05 0.001670497 5.0975552e-05
0.2636711 0.0371401 0.20630686 0.22975275 0.06584673 0.057913553 0.11127208 0.30212823
0.2493669 6.8418146e-08 0.048615832 0.28628588 0.007403114 -0.94051874 0.10576094 0.072351
0.00037485344 1.9633299e-06 0.0033176509 1.8594934e-08 7.8433766 0.0013309101 0.06213922 0.4552106
9.0212643e-07
00000000: 6935 7e3e 9b91 5ab1 3700 873d 9866 acad
00000010: 86b6 8cb4 6317 c339 4f3c 1839 dc06 44bf
00000020: d70c c03a 4848 cf3c f3d0 063a 4d29 8338
00000030: d1fe 7e3d 0d23 193e 9496 db34 b394 5d36
00000040: 2ae5 9b3c 9749 41bf c73e d03d d7e4 8034
00000050: fa3b 373c 8205 3a2b e29e a83b 880f ab3e
00000060: 1f30 823e 613e 783e 6090 6e3d 9cd0 153e
00000070: 1eed 3c35 34c8 2fbf 6635 0d3d da72 7b31
00000080: a179 d73b 71a6 1f2d 4000 bb2d 7cda 4b35
00000090: 6e58 2db8 0f27 59bf 0125 89aa 57e6 763e
000000a0: f4a9 733e 578d f13d 71e4 743e 9a4a 4b3b
000000b0: 8275 633e ba59 72bf ecda 833c de25 d93c
000000c0: 166c 1135 2cc0 3e3d 06a2 163d 287e f63c
000000d0: 0f1d bc29 5e3a 3437 94f4 da3a 95ce 5538
000000e0: e6ff 863e 3820 183d 1b42 533e 4e44 6b3e
000000f0: a6da 863d c336 6d3d 9ee2 e33d 8db0 9a3e
00000100: 095a 7f3e 46ed 9233 6521 473d 1094 923e
00000110: d295 f23b d6c5 70bf 3199 d83d c32c 943d
00000120: fa87 c439 c0c1 0336 f26c 593b b1ba 9f32
00000130: f1fc fa40 ef71 ae3a b285 7e3d 5d11 e93e
00000140: a829 7235

aa_net.0.weight f4 [150, 3, 3, 3]
0.15676467 -0.25369856 0.23057482 0.14971456 -0.29611704 0.10315527 -0.23493281 -0.1459248
-0.08441447 0.041635245 -0.3420694 -0.0760515 -0.18012623 0.04347988 -0.44335833 0.32774976
0.108542055 0.051977605 -0.010054911 1.8895471 -0.040912077 -0.3582518 -0.28679278 -0.579475
0.3390181 -1.0008706 -0.7149845 -0.41857234 -0.5198163 -0.10536508 0.17963749 -0.027455535
-0.11232906 -0.21350907 -0.3656781 -0.24331611 -0.01853061 -0.26600868 -0.35065413 0.07057433
0.15599313 0.12549546 -0.008902331 0.2701088 -0.12309367 0.31346023 -0.3002166 -0.09414365
0.1450822 0.19790255 -0.37209964 -0.9441749 0.33621144 -0.93110573 -0.048717685 -0.16724928
-0.06371884 -0.12068477 -0.18123125 -0.274514 -0.0006767701 -0.17772608 -0.11657613 -0.11413037
-0.12334847 0.024295164 -0.12586994 0.08120312 0.017201276 -0.16704588 -0.030780798 0.05060775
-0.07756725 0.04196623 0.0028574748 -0.18215927 -0.1255006 0.053851984 -0.16528021 0.21433823
0.16044375 -0.15988706 0.036069587 0.37856123 0.31923327 -0.037517395 0.01862936 -0.04734692
0.16940892 0.027831333 0.39404956 0.35040477 -0.44827583 0.17337278 -0.025415517 0.20862664
-0.29664484 0.20623659 -0.40786663 2.2698622 1.8556991 -0.09172103 -0.8326163 0.35615072
1.4874965 -1.2588168 0.6416793 -1.1354275 -0.21682152 -0.015421619 -0.022147777 0.5663249
0.26151553 -0.42972818 0.18573713 0.003983864 0.09074121 -0.14210595 0.20000885 -0.110343345
-0.19112313 0.060289536 0.43529844 -0.351799 0.22797406 -0.40765816 -0.6153646 1.2224398
0.7308321 -0.049870364 1.378115 1.2491928 -0.40351427 0.73720026 0.20651042 0.21522324
0.015401853 0.16769563 -0.883905 -0.7131669 -0.9242057 0.12585905 0.0045823315 0.31557113
-0.41469824 0.013822516 -0.48732322 0.112464055 -0.09035516 -0.07100562 -0.613096 -0.01815653
-0.84088856 -0.0038435573 -1.1764326 1.0616899 -0.34195778 -1.2270908 -1.0319386 0.21002686
0.22028446 -0.033467185 0.576963 -0.21481179 0.3057783 -0.11204359 -0.3750063 -0.70195955
-0.23748577 0.20129757 -0.7653454 -0.38983628 0.09029227 -0.76551247 0.41880554 0.037886564
-0.5888186 -0.067424364 -0.8922755 0.07973876 0.013147027 1.0920366 -0.06028013 1.8189304
-0.15410395 -0.4527396 0.3334567 -0.19673201 0.89619195 0.19097337 -0.12538612 -0.059714723
0.09542754 0.17774333 -0.099154696 -0.25836402 -0.0006369739 -0.10533262 -0.33922896 -0.042046152
0.038342174 -0.052732963 0.24411343 -0.20410888 0.25447813 -0.10405043 -0.1497805 -0.5103346
1.728218 -0.20200999 -0.3500356 -0.75627583 -0.5595768 0.38804808 -0.83182067 -0.8009025
0.03324684 0.1978151 0.38166177 -0.07653577 0.52856565 -0.03449024 -0.20586222 0.17518006
-0.010005525 -0.17209701 -0.04688462 -0.39518252 0.11486934 -0.1476636 -0.009340431 0.23154503
0.15752135 0.3564246 -0.22105248 0.544457 -0.8705032 -0.81212854 0.75578606 0.98961
1.7562789 -0.7414664 2.0067616 -0.15367015 -0.13760011 -0.20569727 0.10214617 1.1288699
-0.00014518364 0.05018426 0.2319525 0.16983996 0.2565006 0.19428931 0.19200964 0.17042334
00000000: eb86 203e c7e4 81be ce1b 6c3e c64e 193e
00000010: a79c 97be 1243 d33d 3a92 70be 506d 15be
00000020: 7ee1 acbd b889 2a3d b823 afbe e4c0 9bbd
00000030: 0373 38be f517 323d ddff e2be d1ce a73e
00000040: 4c4b de3d 78e6 543d 5abd 24bc aedc f13f
00000050: 6c93 27bd c86c b7be 81d6 92be 7958 14bf
00000060: c893 ad3e 871c 80bf 3909 37bf 1d4f d6be
00000070: ae12 05bf a6c9 d7bd e4f2 373e 6eea e0bc
00000080: c70c e6bd 1fa2 5abe 293a bbbe dc27 79be
00000090: 81cd 97bc 4a32 88be f088 b3be 4689 903d
000000a0: aabc 1f3e e281 003e 15db 11bc b34b 8a3e
000000b0: 8918 fcbd dc7d a03e fdb5 99be 63ce c0bd
000000c0: 6e90 143e f7a6 4a3e d883 bebe 72b5 71bf
000000d0: e823 ac3e f25c 6ebf 328c 47bd 6543 2bbe
000000e0: 067f 82bd 9429 f7bd af94 39be 198d 8cbe
000000f0: 4669 31ba d3fd 35be 77bf eebd 2fbd e9bd
00000100: 1f9e fcbd a706 c73c 0de4 00be d24d a63d
00000110: b1e9 8c3c 130e 2bbe 0328 fcbc 124a 4f3d
00000120: 94db 9ebd c8e4 2b3d 7944 3b3b f687 3abe
00000130: 3b83 00be e693 5c3d 373f 29be 7b7b 5b3e
00000140: 5e4b 243e 6fb9 23be b4bd 133d c7d2 c13e
00000150: 8b72 a33e d7ab 19bd 999c 983c d8ee 41bd
00000160: 8879 2d3e 89fe e33c ddc0 c93e 4168 b33e
00000170: 6984 e5be a288 313e 3434 d0bc 39a2 553e
00000180: d5e1 97be af2f 533e e5d3 d0be 6c45 1140
00000190: 8c87 ed3f 3cd8 bbbd 5826 55bf 6359 b63e
000001a0: 4966 be3f e920 a1bf 1845 243f b055 91bf
000001b0: 7606 5ebe f5aa 7cbc 416f b5bc abfa 103f
000001c0: 5de5 853e 5505 dcbe e031 3e3e 138b 823b
000001d0: 87d6 b93d 3984 11be 1fcf 4c3e b1fb e1bd
000001e0: c8b5 43be 29f2 763d 70df de3e 001f b4be
000001f0: 0872 693e 92b8 d0be 8988 1dbf e878 9c3f
00000200: d017 3b3f de44 4cbd 1366 b03f 8de5 9f3f
00000210: 6c99 cebe 28b9 3c3f 7877 533e 7b63 5c3e
00000220: 0e58 7c3c 67b8 2b3e 9947 62bf 1b92 36bf
00000230: bf98 6cbf 32e1 003e 6227 963b 8a92 a13e
00000240: 5453 d4be d677 623c 6e82 f9be 8e53 e63d
00000250: 200c b9bd 656b 91bd dcf3 1cbf 01bd 94bc
00000260: 7944 57bf 31e4 7bbb 5895 96bf 74e5 873f
00000270: 1715 afbe 5011 9dbf 9016 84bf 4811 573e
00000280: 4092 613e e314 09bd d9b3 133f 9ff7 5bbe
00000290: f98e 9c3e 1c77 e5bd d300 c0be 9fb3 33bf
000002a0: 782f 73be f320 4e3e aded 43bf 9f98 c7be
000002b0: 27eb b83d a0f8 43bf ae6d d63e f12e 1b3d
000002c0: d1bc 16bf c915 8abd 2b6c 64bf 134e a33d
000002d0: a166 573c dbc7 8b3f 4ce8 76bd b6d2 e83f
000002e0: 6dcd 1dbe 7ccd e7be d6ba aa3e 1e74 49be
000002f0: d66c 653f 868e 433e 3865 00be 6d97 74bd
00000300: 846f c33d 5902 363e 9e11 cbbd 4a48 84be
00000310: 98fa 26ba a1b8 d7bd 6baf adbe 9638 2cbd
00000320: af0c 1d3d 85fe 57bd dff8 793e eb01 51be
00000330: f54a 823e 6418 d5bd 0f60 19be 4aa5 02bf
00000340: 3f36 dd3f b5db 4ebe de37 b3be 4b9b 41bf
00000350: 6d40 0fbf 3dae c63e 33f2 54bf f207 4dbf
00000360: d72d 083d 0b90 4a3e 2c69 c33e c9be 9cbd
00000370: 1450 073f a345 0dbd 8ccd 52be 6762 333e
00000380: 37ee 23bc 333a 30be 160a 40bd 5d55 cabe
00000390: 9e40 eb3d 2035 17be 9b08 19bc 241a 6d3e
000003a0: 474d 213e 497d b63e 955b 62be 8961 0b3f
000003b0: 4cd9 5ebf a8e7 4fbf 327b 413f 1557 7d3f
000003c0: bfcd e03f bed0 3dbf c86e 0040 b55b 1dbe
000003d0: 0be7 0cbe 4ea2 52be 0332 d13d cf7e 903f
000003e0: 703c 18b9 038e 4d3d f584 6d3e 87ea 2d3e
000003f0: 0c54 833e c7f3 463e 2d9e 443e 7583 2e3e

aa_net.0.bias f4 [150]
0.15561998 0.2018767 -0.25714105 -0.17462774 -0.33125982 0.20534483 0.12078426 -0.07984149
-0.10927588 -0.13211843 -0.14481252 -0.24277581 1.0979072 -0.14619361 -0.15392572 -0.07519365
-0.048123404 -0.11513134 0.094319716 -0.23181036 -0.086522356 -0.14058827 0.28062212 -0.08173596
-0.055484038 -0.12594 -0.052925624 0.013283197 -0.24073954 -0.018862482 0.18604702 0.02322317
0.013224162 0.19201367 -0.029039582 -0.33342388 -0.31470934 -0.033211194 -0.13065875 0.027975688
0.26424447 0.07588527 0.038388368 0.14222126 0.14315607 -0.25403458 -0.20658147 0.0058329636
0.10720137 0.13849328 -0.17393552 -0.10739768 -0.3323125 -0.22751673 -0.29807082 -0.053974006
-0.014435678 0.5323397 0.372503 -0.2357901 0.27116466 -0.25980055 -0.20992246 0.5163874
0.020685315 -0.09698625 -0.07635035 -0.08190099 -0.12986268 -0.35387173 0.031327188 -0.27655047
0.23869051 0.0689077 0.30915394 0.16007039 0.2908573 -0.26132312 0.06550558 -0.10039252
0.01912724 0.09408463 0.1336226 0.40835333 0.03850536 -0.018169533 -0.18734345 0.012261882
0.19046731 0.059924617 0.06937438 -0.20456123 -0.43249708 0.0077231107 0.009241295 -0.0019907993
0.072888516 0.04792994 -0.24818249 -0.25809658 -0.05685306 -0.13229729 -0.021845855 -0.22253965
0.012414686 0.3037225 0.1090867 0.34633672 0.19371733 -0.12382678 -0.12500484 -0.14550973
0.29944634 -0.09410949 0.0403096 -0.080214955 -0.17374805 0.28479147 0.04464934 -0.23407395
0.1293678 -0.05045399 -0.14475903 0.22220777 -0.15230994 -0.16158353 -0.22148982 0.010210592
-0.067656696 0.1707633 -0.43548137 0.15086745 0.031104714 0.08294075 -0.24224798 0.19816963
-0.019521784 0.015727561 0.11072928 -0.009490679 -0.30244696 -0.26891968 -0.47184986 0.1272913
0.17301108 -0.039310843 -0.2297098 -0.13683985 0.19902305 -0.2928043
00000000: d85a 1f3e c4b8 4e3e fea7 83be 9dd1 32be
00000010: e39a a9be ea45 523e bd5d f73d ef83 a3bd
00000020: 08cc dfbd 0e4a 07be bc49 14be 399a 78be
00000030: 3988 8c3f c7b3 15be b49e 1dbe 21ff 99bd
00000040: 0c1d 45bd fbc9 ebbd b22a c13d b25f 6dbe
00000050: a232 b1bd 5ff6 0fbe b4ad 8f3e 2f65 a7bd
00000060: 3b43 63bd 6af6 00be 8ac8 58bd c4a1 593c
00000070: 6d84 76be 7e85 9abc 1c83 3e3e 843e be3c
00000080: 28aa 583c 3b9f 443e 6be4 edbc 89b6 aabe
00000090: 9521 a1be 7608 08bd 68cb 05be 452d e53c
000000a0: 0d4b 873e bd69 9b3d 1f3d 1d3d 73a2 113e
000000b0: 8197 123e d210 82be 188a 53be 7222 bf3b
000000c0: 648c db3d 2fd1 0d3e 271c 32be 51f3 dbbd
000000d0: dd24 aabe 25fa 68be bd9c 98be d913 5dbd
000000e0: 9f83 6cbc 6a47 083f b7b8 be3e f672 71be
000000f0: 18d6 8a3e 9404 85be eaf5 56be f731 043f
00000100: 4074 a93c baa0 c6bd 935d 9cbd b5bb a7bd
00000110: b9fa 04be ad2e b5be f050 003d 0698 8dbe
00000120: 496b 743e 7b1f 8d3d 6d49 9e3e 7ee9 233e
00000130: 3feb 943e 25cc 85be ca27 863d 989a cdbd
00000140: bbb0 9c3c 71af c03d 5dd4 083e b013 d13e
00000150: ccb7 1d3d 46d8 94bc f6d6 3fbe 10e6 483c
00000160: dd09 433e 8473 753d 2814 8e3d 8078 51be
00000170: 4270 ddbe 2612 fd3b cd68 173c 1278 02bb
00000180: 9346 953d 2f52 443d 8d23 7ebe 3c25 84be
00000190: c1de 68bd f178 07be 14f6 b2bc 6fe1 63be
000001a0: f866 4b3c 8481 9b3e d968 df3d 0c53 b13e
000001b0: d65d 463e e598 fdbd 4501 00be 8100 15be
000001c0: 0851 993e 7abc c0bd ae1b 253d bd47 a4bd
000001d0: 02eb 31be 30d0 913e 3ae2 363d 15b1 6fbe
000001e0: fe78 043e d8a8 4ebd b63b 14be 6f8a 633e
000001f0: 23f7 1bbe 2776 25be 3ace 62be 544a 273c
00000200: 988f 8abd 93dc 2e3e 6af7 debe ff7c 1a3e
00000210: 50cf fe3c d7dc a93d db0f 78be fbec 4a3e
00000220: 26ec 9fbc 16d7 803c 08c6 e23d cb7e 1bbc
00000230: 54da 9abe d7af 89be 4e96 f1be a758 023e
00000240: d129 313e 6804 21bd 0c39 6bbe bf1f 0cbe
00000250: b3cc 4b3e 72ea 95be

aa_net.3.weight f4 [10, 150, 1, 1]
-0.08800988 -0.047251698 0.02388802 0.123985134 0.029309262 0.106611915 -0.11908975 -0.12743652
-0.29341117 -0.07411458 0.019090055 -0.017591162 0.45960742 0.065738425 0.007871746 0.016184803
0.17536059 0.15518019 -0.1642838 -4.6993694 0.03948176 0.07949472 -0.31017134 0.008554954
0.076706775 -0.028259661 0.16359955 0.05636634 -0.18158382 0.71421725 0.019755768 -1.9468852
-0.19270724 2.7768383 0.06632216 0.13042565 -0.113853894 0.08792065 -0.11529996 0.08860829
-0.034460254 0.07859099 0.1004009 0.12018358 -0.08530625 0.2703994 -0.43423668 -0.448549
0.096277654 -0.5324562 0.030715462 0.03139806 0.0045815026 0.061089277 -0.2740421 -0.41017655
0.08444619 0.13149798 -0.9897237 -0.05125729 -0.4422897 -0.029714271 0.13081875 -0.13676904
-0.044775616 -0.052616622 0.05444842 -0.1545987 0.15116644 0.085839905 0.060971037 0.22095682
-0.18246174 -0.11397732 -0.17685321 0.03287456 -0.40557012 -0.36892796 0.20862828 0.047371965
-0.041949097 0.13841558 -0.15287448 0.061455637 0.17918009 -0.009036389 0.087541066 -0.11501403
-0.081834696 -0.18635444 -0.1359052 0.07146686 -0.03476489 0.016546095 0.23954213 0.008545128
-0.042149335 -0.119604655 0.13436083 0.16082524 -0.017175049 -0.22321405 0.17377397 0.0695717
-0.011440554 -0.5700056 -0.41874617 0.2562023 -0.15332787 0.10980226 -0.0039957515 0.26522303
0.7125129 0.0733786 0.044515967 -0.03064306 -0.035900135 -0.31464744 -0.29720664 0.116278686
-0.04627172 -0.06055167 0.012640147 0.04688869 0.027970403 -0.10942108 0.08607402 -0.09697125
0.18409644 -0.07182888 -0.01556548 -0.3619082 0.13734783 0.111065984 -0.19974303 0.14442685
0.1218115 0.028053565 -0.057371054 -0.034922365 0.045302365 0.057246506 0.14213914 0.026550235
-0.10758009 -0.3333955 -0.07152542 0.0555589 -0.01932833 0.048285767 0.12626041 0.09118707
-0.108515464 -0.29421416 -0.62746555 -0.42614177 0.6603316 -0.013840911 0.20861216 -0.2232697
0.17326456 0.042558186 -0.07366444 0.052934024 -0.015595131 -0.7207253 -0.13042109 -0.31652758
0.14984389 -0.083227485 0.06144471 -0.26041448 0.23459743 -0.015995346 0.23396365 -0.39603618
-0.030799868 -1.2738676 -0.016578212 0.21706416 -1.0894114 -1.7984374 -0.019871285 0.17788424
0.037702486 -0.21581726 0.039933395 0.13125539 0.11663334 0.15845603 -0.15234858 -0.34474194
0.20777272 -0.49859473 -0.24665013 -0.66123986 0.21820864 0.047929667 0.064292744 0.099760905
-0.26345456 0.10009627 -0.18250118 0.17585038 -0.10597325 -0.006879982 -0.1892125 -0.015346578
0.006062482 -0.5078721 0.10002824 0.03508274 0.19727014 -0.48654523 0.057432864 0.10489014
0.08170158 0.12344411 0.014639532 -0.49821046 -0.06632529 -1.0305524 0.0077068466 0.22412121
0.011814109 -0.23548217 0.17272888 0.06776782 0.41026992 0.034490697 -0.11887253 -0.55558544
0.33387008 0.09717881 0.2144606 0.37435892 0.094131984 0.051678225 0.02826697 0.14286825
-0.1738458 0.16693275 0.03399202 -0.7092163 -0.4689937 -0.35915774 0.05960734 0.06476101
-1.007313 -0.013942084 0.065899424 0.16828011 -0.6278798 -0.02913763 -0.16804712 0.103238784
00000000: 863e b4bd ff8a 41bd cfb0 c33c ebeb fd3d
00000010: fa19 f03c 5957 da3d 54e5 f3bd b87e 02be
00000020: fd39 96be 63c9 97bd bf62 9c3c 571b 90bc
00000030: aa51 eb3e dea1 863d 7ff8 003c fe95 843c
00000040: ba91 333e 8ee7 1e3e 033a 28be 3c61 96c0
00000050: a0b7 213d 21ce a23d c7ce 9ebe 142a 0c3c
00000060: 7118 9d3d ce80 e7bc a486 273e 64e0 663d
00000070: 1cf1 39be f1d6 363f d9d6 a13c 8933 f9bf
00000080: 0c55 45be b8b7 3140 ead3 873d 4d8e 053e
00000090: 3b2c e9bd be0f b43d 6322 ecbd 4378 b53d
000000a0: 3226 0dbd 50f4 a03d fd9e cd3d cf22 f63d
000000b0: 0bb5 aebd ca71 8a3e 4554 debe 37a8 e5be
000000c0: 382d c53d 0d4f 08bf fe9e fb3c 419b 003d
000000d0: 6e20 963b c038 7a3d 3f4f 8cbe a902 d2be
000000e0: 20f2 ac3d 68a7 063e 885e 7dbf 2af3 51bd
000000f0: cc73 e2be 586b f3bc 5af5 053e 2f0d 0cbe
00000100: a366 37bd 8784 57bd 4e05 5f3d 1f4f 1ebe
00000110: 60cb 1a3e d5cc af3d c4bc 793d 8142 623e
00000120: 40d7 3abe f16c e9bd 0219 35be 7aa7 063d
00000130: e3a6 cfbe 20e4 bcbe a7a2 553e 1b09 423d
00000140: d1d2 2bbd d0bc 0d3e 218b 1cbe e8b8 7b3d
00000150: fc7a 373e 5d0d 14bc bb48 b33d 7a8c ebbd
00000160: f398 a7bd b3d3 3ebe bc2a 0bbe 385d 923d
00000170: a165 0ebd ad8b 873c 884a 753e dd00 0c3c
00000180: c8a4 2cbd 49f3 f4bd e395 093e 5faf 243e
00000190: b0b2 8cbc 3992 64be cef1 313e 9c7b 8e3d
000001a0: 2971 3bbc e3eb 11bf e665 d6be f32c 833e
000001b0: fb01 1dbe 02e0 e03d cbee 82bb 50cb 873e
000001c0: 3f67 363f 8547 963d 6056 363d 2807 fbbc
000001d0: 050c 13bd 7819 a1be 782b 98be 8523 ee3d
000001e0: 6a87 3dbd 0705 78bd 9e18 4f3c 5b0e 403d
000001f0: 3022 e53c 2918 e0bd 9347 b03d dd98 c6bd
00000200: c783 3c3e 051b 93bd 5b06 7fbc 084c b9be
00000210: e9a4 0c3e 9076 e33d 7089 4cbe a2e4 133e
00000220: 4f78 f93d 97d0 e53c e9fd 6abd c10a 0fbd
00000230: f98e 393d 507b 6a3d ec8c 113e e17f d93c
00000240: f352 dcbd d1b2 aabe eb7b 92bd bb91 633d
00000250: 7256 9ebc 4cc7 453d 694a 013e 49c0 ba3d
00000260: 5b3d debd 3da3 96be 95a1 20bf 412f dabe
00000270: 7e0b 293f fdc4 62bc 6d9e 553e d0a0 64be
00000280: 446c 313e 7e51 2e3d 62dd 96bd 59d1 583d
00000290: b882 7fbc 7481 38bf 1b8d 05be e70f a2be
000002a0: ad70 193e 2c73 aabd 73ad 7b3d 0c55 85be
000002b0: 4f3a 703e ac08 83bc 2b94 6f3e 41c5 cabe
000002c0: 0150 fcbc 180e a3bf 08cf 87bc 1146 5e3e
000002d0: d571 8bbf 3233 e6bf 1bc9 a2bc 4927 363e
000002e0: ec6d 1a3d 33ff 5cbe 3391 233d d067 063e
000002f0: 76dd ee3d 4c42 223e 4401 1cbe 0482 b0be
00000300: 5fc2 543e cf47 ffbe da91 7cbe 0447 29bf
00000310: 1672 5f3e e651 443d eaab 833d 724f cc3d
00000320: 84e3 86be 46ff cc3d 97e1 3abe 1f12 343e
00000330: 8108 d9bd 7971 e1bb ecc0 41be 3770 7bbc
00000340: c9a7 c63b e803 02bf 9bdb cc3d ebb2 0f3d
00000350: 2f01 4a3e 751c f9be b93e 6b3d a4d0 d63d
00000360: 2853 a73d 44d0 fc3d a6da 6f3c 7115 ffbe
00000370: 8ed5 87bd 24e9 83bf b789 fc3b 0880 653e
00000380: f78f 413c 3d22 71be d7df 303e dbc9 8a3d
00000390: e60e d23e 1e46 0d3d 7173 f3bd d93a 0ebf
000003a0: 05f1 aa3e af05 c73d 8f9b 5b3e f9ab bf3e
000003b0: 45c8 c03d 8cac 533d 2290 e73c 0e4c 123e
000003c0: a204 32be 6bf0 2a3e 373b 0b3d 338f 35bf
000003d0: f11f f0be 86e3 b7be d326 743d 6ca1 843d
000003e0: a2ef 80bf 576d 64bc 47f6 863d 9f51 2c3e
000003f0: bbbc 20bf 0ab2 eebc 8b14 2cbe db6e d33d

aa_net.3.bias f4 [10]
0.06504789 -0.01730706 0.13866645 -0.014746197 0.047306996 -0.034837447 0.10461164 0.042901997
-0.49986672 -0.5701084
00000000: d437 853d 89c7 8dbc 94fe 0d3e 089a 71bc
00000010: fbc4 413d b6b1 0ebd a13e d63d 01ba 2f3d
00000020: 88ee ffbe a0f2 11bf

exp_avg f4 [9, 1, 3, 3]
5.8527226e-06 1.0254948e-13 -1.3760225e-09 4.374624e-17 9.343894e-12 -2.9269769e-09 2.0144637e-09 -5.843395e-06
-3.278185e-10 4.3939474e-09 2.8248653e-10 4.2495e-11 7.743145e-09 1.639623e-08 5.171703e-13 1.5070643e-12
1.988688e-09 -2.3249923e-08 0.00045778637 -8.494446e-12 -2.7731204e-07 9.2520145e-17 8.785915e-09 -0.0002891806
-0.00016579125 3.7289095e-07 -2.9131263e-06 7.4882923e-06 1.7907043e-12 -7.498001e-06 4.015249e-09 1.6738318e-14
2.6140554e-09 4.0010233e-17 1.2197477e-17 1.9440348e-12 1.8963484e-10 -2.6911897e-05 1.3986294e-18 1.6088441e-06
2.4228902e-05 5.4051887e-09 1.0007436e-06 4.7140416e-09 6.088488e-08 -6.2139866e-06 1.20189485e-08 1.4529658e-08
5.3478285e-12 8.02493e-08 3.3485514e-06 2.7590033e-06 1.1476581e-18 1.0469887e-10 -2.2491617e-09 9.347439e-11
0.0018561628 -0.0018207222 4.3342865e-07 1.2793916e-05 -2.7195478e-07 -5.040944e-08 -4.8336762e-05 1.2468576e-05
4.2932747e-08 1.1659565e-12 8.9179295e-09 6.25077e-08 3.668925e-09 -1.2600094e-05 6.6209207e-09 6.669188e-09
2.6657918e-10 1.5530252e-12 1.29168e-09 1.4713494e-14 -3.617065e-06 7.490777e-10 3.3856424e-09 3.6089268e-06
7.1376065e-13
00000000: 8162 c436 c0eb e629 7d1e bdb0 72be 4924
00000010: 2861 242d ec23 49b1 d26e 0a31 6112 c4b6
00000020: 5a38 b4af 92f9 9631 724c 9b2f 1ee5 3a2e
00000030: b606 0532 b1d7 8c32 0c92 112b b719 d42b
00000040: 5fa9 0831 1fb7 c7b2 0c03 f039 956f 15ad
00000050: 7ae1 94b4 4156 d524 ddf0 1632 2a9d 97b9
00000060: 40d8 2db9 be31 c834 217f 43b6 f143 fb36
00000070: ec04 fc2b 5797 fbb6 81f6 8931 efc3 9628
00000080: f3a2 3331 bf83 3824 f500 6123 9ecc 082c
00000090: 7681 502f dcc0 e1b7 ba66 ce21 76ef d735
000000a0: 2c3f cb37 8bb8 b931 4a51 8635 26f9 a131
000000b0: d1bf 8233 bd81 d0b6 e57b 4e32 1d9e 7932
000000c0: f528 bc2c 8555 ac33 adb7 6036 5127 3936
000000d0: 4c5d a921 393c e62e ac8f 1ab1 678d cd2e
000000e0: 7d4a f33a 4da5 eeba fbb1 e834 73a5 5637
000000f0: 2e01 92b4 c481 58b3 34bd 4ab8 2030 5137
00000100: 0e65 3833 0318 a42b 7835 1932 f93b 8633
00000110: 6920 7c31 fe64 53b7 3c7e e331 cc26 e531
00000120: af8d 922f a191 da2b f386 b130 0287 8428
00000130: b4bc 72b6 a8e7 4d30 daa8 6831 e430 7236
00000140: e0e7 482b

exp_avg_sq f4 [9, 1, 3, 3]
8.826961e-06 8.528382e-26 2.618179e-13 6.326917e-30 3.4632433e-22 1.0795772e-15 3.4103391e-16 8.829866e-06
2.1872803e-15 9.325132e-15 1.71292e-18 2.3000187e-20 1.313874e-13 2.416801e-12 1.2936643e-24 1.7770402e-22
2.2214464e-15 3.7245155e-12 6.813991e-05 3.9561225e-20 2.3482884e-12 4.785967e-32 1.1882822e-15 0.00024329954
0.0001077859 3.73649e-11 2.4191371e-09 7.3999604e-07 6.51015e-23 7.4031766e-07 3.7216788e-14 9.3287405e-28
4.917267e-16 1.3069584e-32 6.4613745e-32 7.7882836e-23 5.4602014e-18 2.1143687e-05 2.2865948e-34 2.7750123e-06
7.896128e-06 1.1077864e-12 2.88512e-08 3.6590783e-14 2.2124538e-10 5.8016457e-07 6.071592e-13 1.4332196e-12
2.2273827e-22 7.798492e-11 1.5247797e-07 1.3286527e-07 5.5465662e-36 8.399451e-20 7.3538935e-16 3.3084146e-19
6.6436645e-05 6.772583e-05 4.680968e-10 4.7344122e-07 1.648456e-13 2.927633e-14 3.9717094e-08 2.8464133e-06
4.1114185e-11 6.2619092e-24 1.3576386e-13 5.5449773e-11 1.0471289e-15 2.8924128e-06 2.7501008e-13 3.0127607e-14
4.234687e-19 1.2453271e-23 2.4801904e-17 1.117403e-27 2.2150417e-07 4.6680896e-18 1.8634928e-14 2.2137593e-07
2.629783e-24
00000000: 8217 1437 0b27 d315 f063 932a 3b53 000f
00000010: 1857 d11b 5e95 9b26 b997 c425 fc23 1437
00000020: 339c 1d27 95fc 2728 4ac8 fc21 0a3b d91e
00000030: d7ed 132a 3711 2a2c 532f c817 bbd4 561b
00000040: 7412 2027 740b 832c 56e6 8e38 96d2 3a1f
00000050: 013f 252c 6a80 780b e03f ab26 391e 7f39
00000060: 1d0b e238 2355 242e e93d 2631 24a4 4635
00000070: e067 9d1a 3eba 4635 099c 2729 ded1 9312
00000080: 07bb 0d26 eab8 870a 33bf a70b 244f bc1a
00000090: 2572 c922 b95d b137 65f8 9707 593a 3a36
000000a0: 9d79 0437 36e8 9b2b 76d4 f732 4dca 2429
000000b0: 0a43 732f 9bbc 1b35 6ee6 2a2b 2eb5 c92b
000000c0: 14a3 861b 9b7d ab2e d3b8 2334 baa9 0e34
000000d0: c2ec eb04 9153 c61f 28f6 5326 594b c320
000000e0: e753 8b38 0708 8e38 62ab 0030 442d fe34
000000f0: 8299 392a 4fd9 0329 6895 2a33 0205 3f36
00000100: 75d2 342e f23e f218 45db 182a e5de 732e
00000110: 3de8 9626 461b 4236 21d1 9a2a c4ae 0729
00000120: c8f8 f920 9ce1 7019 d7c1 e423 400f b112
00000130: 9ad6 6d34 dc38 ac22 38d9 a728 5ab3 6d34
00000140: 3878 4b18

exp_avg f4 [9, 1, 3, 3]
4.4632182e-07 1.4312325e-15 1.3194654e-10 8.8196354e-18 1.1792417e-13 4.8979192e-11 5.258909e-11 0.0018371512
6.2466456e-11 -9.299312e-12 -1.0585286e-12 -1.4582027e-13 -2.0909078e-11 -5.1204277e-11 -9.673408e-16 -7.80506e-15
-7.2695465e-12 -0.0002947309 1.1524004e-05 1.429929e-13 1.7302334e-09 3.9323272e-19 2.2468577e-11 0.0003993497
1.1303376e-05 3.679099e-09 1.03160055e-07 3.1831036e-08 1.06668e-14 0.00030746651 1.9893316e-11 5.552148e-17
8.769341e-12 1.3770175e-19 3.2258573e-19 1.15132945e-14 4.4219108e-12 0.0006381055 2.7881405e-20 8.957131e-08
9.027778e-08 7.72551e-11 7.268743e-09 1.7344876e-11 6.2319583e-10 -0.00012270053 -1.31289875e-11 -2.4458756e-11
-7.704411e-15 -1.0850758e-10 -5.0856666e-09 -6.080909e-09 -1.191881e-21 -1.4566358e-13 1.7209581e-11 4.7755447e-13
8.908218e-06 0.00027556138 6.515743e-10 2.3141801e-08 7.908776e-10 1.3537212e-10 2.1966474e-07 6.2462973e-09
2.3540883e-11 3.3080586e-16 2.1718374e-12 2.3489431e-11 1.2359471e-12 3.3757147e-05 2.7059414e-12 1.9455282e-12
-5.0742445e-13 -2.9560065e-15 -2.4591362e-12 -2.8005457e-17 -0.00010989414 -1.4259598e-12 -6.454331e-12 -6.9360375e-09
-1.358562e-15
00000000: 019e ef34 2943 ce26 a613 112f 8db1 2223
00000010: 54c5 042a ab69 572e 0d4a 672e 91cc f03a
00000020: 7d5d 892e 6198 23ad 83f9 94ab d52d 24aa
00000030: 0feb b7ad e432 61ae 9468 8ba6 7c9a 0ca8
00000040: 41c6 ffac 1d86 9ab9 3857 4137 e6fe 202a
00000050: 2dcd ed30 a61f e820 bda2 c52d cf5f d139
00000060: a1a3 3d37 65d3 7c31 d788 dd33 98b6 0833
00000070: ef27 4028 7533 a139 c4fb ae2d 1906 8024
00000080: 9a45 1a2d cd91 2220 c76b be20 b367 4f28
00000090: 0895 9b2c 8946 273a 8daa 031f 595a c033
000000a0: bcde c133 c1e2 a92e 8ac0 f931 3091 982d
000000b0: 824d 2b30 2ca9 00b9 b4f7 66ad 3924 d7ad
000000c0: 53ca 0aa8 569c eeae ffbd aeb1 3ef0 d0b1
000000d0: aa1c b49c ab00 24aa 8860 972d 6d6b 062b
000000e0: 8174 1537 3979 9039 771a 3330 5cc9 c632
000000f0: 1065 5930 ddd7 142f fcdc 6b34 039f d631
00000100: 5b11 cf2d 54b2 be25 58d4 182c 7f9d ce2d
00000110: b0f1 ad2b 7696 0d38 e869 3e2c 85e7 082c
00000120: c9d3 0eab b200 55a7 dc0b 2dac 0227 01a4
00000130: f876 e6b8 9eaf c8ab 7217 e3ac 0852 eeb1
00000140: 17ca c3a6

exp_avg_sq f4 [9, 1, 3, 3]
2.3311885e-07 3.5245343e-29 1.5465221e-15 1.33839105e-33 2.39997e-25 4.712091e-19 2.6870262e-19 1.631436e-05
2.5806689e-18 6.41861e-17 1.749825e-20 2.5910047e-22 7.5316333e-16 4.9333804e-14 1.108856e-26 7.2261725e-25
3.212761e-17 3.006559e-06 3.0638866e-08 6.786786e-24 1.895157e-15 5.134312e-35 4.795127e-18 6.499912e-05
6.206081e-08 7.720691e-14 1.6960381e-12 4.266623e-09 5.8515754e-26 2.9623166e-06 1.5658076e-16 1.5826143e-30
3.111301e-18 9.734939e-36 5.3424927e-35 6.813955e-26 2.5230313e-21 1.0500897e-05 8.1607996e-38 2.4094396e-08
9.254819e-08 5.7383204e-15 1.6305261e-10 3.275945e-17 1.2945638e-12 2.780877e-06 6.8672063e-16 2.0644412e-15
1.2598138e-25 9.857928e-14 1.855906e-10 1.600874e-10 3.00388e-39 4.7612328e-23 3.1323603e-19 2.7053936e-22
2.5923471e-08 6.4659005e-05 6.3955494e-11 7.1885125e-08 8.249763e-16 4.7815513e-16 1.239785e-11 5.026927e-08
1.6186237e-13 3.1478591e-27 2.2113038e-16 8.3889644e-13 6.51665e-18 2.848356e-06 1.8054401e-15 5.9728835e-16
7.2185054e-22 1.917933e-26 6.976561e-20 1.7201366e-30 1.5052495e-07 9.813229e-21 8.788912e-17 9.937758e-10
4.0489137e-27
00000000: 394f 7a34 12b7 3210 98e0 de26 dc60 de08
00000010: 0b8d 9416 8e13 0b21 319d 9e20 d2da 8837
00000020: 756b 3e22 c900 9424 2c44 a51e db9d 9c1b
00000030: a515 5926 012e 5e29 aea1 5b14 a3a3 5f17
00000040: 9629 1424 4ac4 4936 ca97 0333 8946 0319
00000050: 7a8f 0827 517e 8806 b2e8 b022 2350 8838
00000060: 4b46 8533 c1da ad29 36b2 ee2b 9d99 9231
00000070: c4e0 9015 36cc 4636 7c86 3425 9d65 000e
00000080: d092 6522 0d0a 4f05 1f07 8e06 92b4 a815
00000090: 86a2 3e1d 022d 3037 7928 de01 23f8 ce32
000000a0: e8be c633 aabe ce27 3b47 332f 8813 1724
000000b0: 9431 b62b 1a9f 3a36 0aef 4526 38c2 1427
000000c0: 18f5 1b16 16fb dd29 1c0f 4c2f 9904 302f
000000d0: 98b5 2000 353d 661a e4e6 b820 f087 a31b
000000e0: 51ae de32 8a99 8738 bea3 8c2e 445f 9a33
000000f0: 82c8 6d26 9fd1 0926 f41a 5a2d a6e7 5733
00000100: a73d 362a 2b66 7913 2bf2 7e25 dc20 6c2b
00000110: 056c f022 6226 3f36 7e18 0227 1a28 2c26
00000120: 7b2a 5a1c 61f1 bd14 b9ba a41f d78d 0b0e
00000130: fc9f 2134 dd5d 391e 94a8 ca24 6195 8830
00000140: dd64 a013

exp_avg f4 [150, 3, 3, 3]
-7.090779e-05 -0.0001293805 -6.683195e-05 -6.8812406e-05 3.0418419e-06 -0.0002185176 -0.00014455325 -6.3857195e-05
-0.00019048838 0.00017353638 7.754028e-05 8.112385e-05 -7.2275085e-05 -0.000228694 -2.5619677e-06 -0.00010993391
-0.00021591046 -9.602141e-05 -3.6173014e-07 -1.7142616e-08 -1.5112988e-08 1.3503086e-11 1.6094202e-07 -6e-45
-1.9898348e-06 1.173737e-10 2.6787984e-06 0.0001233463 2.2539801e-07 0.00022490995 0.00021432708 7.8973085e-07
7.2122544e-05 3.611458e-05 -2.9896798e-06 5.0914154e-05 0.00023515311 0.000246656 9.902308e-05 -3.8915826e-07
0.00015377032 4.595321e-06 0.00011171971 0.00011366081 -3.221291e-05 -3.7883936e-07 -1.7191606e-10 -2.0582505e-09
-2.7934857e-09 -3.293528e-07 5.5125352e-11 2.1178011e-25 6.783229e-08 6e-45 6e-45 6e-45
6e-45 -6e-45 6e-45 6e-45 6e-45 -6e-45 6e-45 0.0
6e-45 6e-45 6e-45 6e-45 6e-45 0.0 6e-45 6e-45
0.0 6e-45 0.0 0.0 6e-45 6e-45 0.0 -6e-45
6e-45 0.00028604353 -1.2829325e-05 0.00019478239 0.00019715299 -8.0527815e-07 0.00039025568 -0.00032657795
-0.00012809776 -0.00023825909 1.9605977e-05 0.00037312173 9.686722e-05 -0.00012545519 0.00033487956 -0.00026628093
0.0004678584 0.00038230026 0.00033477438 -1.8288723e-06 -1.100724e-07 1.6981592e-05 2.6396606e-07 1.7364775e-06
-6.332146e-08 2.4420931e-08 -1.0006893e-07 2.1863171e-09 -4.1508047e-05 2.144075e-06 -3.2227475e-05 -0.00023105532
-2.094579e-06 -5.1788513e-05 -0.00013598289 -7.0906586e-05 -9.879838e-05 -7.1501665e-05 -9.774853e-05 -6.506449e-05
8.660263e-06 -0.00011798549 -6.450959e-05 -1.2940316e-06 -6.045633e-05 4.4173466e-06 -2.5346298e-12 -1.4606307e-07
5.000984e-06 -7.220088e-09 8.148722e-08 -1.8620762e-08 6.786045e-08 -1.4564326e-07 3.2552734e-07 -3.0575655e-05
-0.0005290447 0.0002243773 2.4920703e-06 -1.3086867e-08 2.234959e-05 -0.00020237523 0.00014702934 6.936369e-05
2.2856831e-05 0.00043837994 0.00017627885 -0.00040894846 -0.00022872108 9.337577e-05 -0.00016838533 -0.00023058984
1.2693732e-06 7.804286e-08 -6e-45 -5.7346864e-07 9.1885966e-09 6e-45 1.879935e-10 -3.034559e-07
6.3314985e-07 1.368855e-10 -0.00043510477 -0.000532519 7.944868e-05 0.00011298136 2.1917722e-06 -3.7622514e-05
7.5370066e-05 0.00010756135 -0.00015212072 -0.0002617968 0.00020083017 -4.3937547e-05 -0.00073358795 -0.0002581358
0.0005466479 -0.00021877416 -3.3753302e-06 0.00067809643 -1.709525e-07 -1.217557e-07 -1.4002849e-07 -1.2941742e-06
8.399423e-07 4.4739917e-08 4.2395795e-06 -2.3694903e-22 2.3699956e-06 1.03874e-06 -5.5455654e-05 -4.9170692e-05
-4.2669373e-05 5.187012e-07 -0.000117571726 -8.777262e-07 -2.0227666e-05 -6.097054e-05 -2.1002586e-07 -1.1080409e-05
-1.3013049e-05 -5.0950715e-05 -9.070265e-05 -1.824883e-05 -0.00014155594 -8.8725246e-05 -6.404693e-05 6e-45
-1.8323993e-07 -1.5886172e-08 1.1661865e-10 6e-45 -6e-45 -1.0036351e-06 6e-45 6e-45
-0.0005959268 0.00022939341 -0.00027964497 -9.774972e-05 9.15368e-07 -8.870151e-05 2.8129827e-05 -2.599618e-05
-0.0002508487 0.00011015467 -0.00048090977 -9.0218855e-05 -2.0459042e-06 5.8699752e-05 2.6382198e-05 -0.0001908855
3.707876e-05 0.00025426998 3.9485937e-07 -2.3532266e-07 7.3559874e-09 3.026093e-08 2.4759902e-07 -2.226365e-08
-9.51903e-07 9.6967945e-08 -4.0720155e-07 4.7529782e-05 -0.00024450492 -0.00019256731 -6.4978165e-05 -3.5496787e-06
-1.5731157e-05 -0.00016512413 -0.0004001714 -0.00020901446 -0.00033816192 -8.165576e-05 -0.00019813661 -0.00026630086
00000000: 54b4 94b8 50aa 07b9 2128 8cb8 614f 90b8
00000010: 7222 4c36 df21 65b9 3893 17b9 12eb 85b8
00000020: d6bd 47b9 51f7 3539 1f9d a238 0921 aa38
00000030: 6492 97b8 94cd 6fb9 45ee 2bb6 528c e6b8
00000040: 0666 62b9 1a5f c9b8 d033 c2b4 0341 93b2
00000050: d0d1 81b2 7e8c 6d2d 68cf 2c34 0400 0080
00000060: 1a89 05b6 c20d 012f 68c5 3336 8556 0139
00000070: ef04 7234 ced5 6b39 fdbc 6039 e4fd 5335
00000080: 7f40 9738 bc79 1738 4fa2 48b6 a88c 5538
00000090: 6f93 7639 9c51 8139 9caa cf38 81ed d0b4
000000a0: 683d 2139 8231 9a36 104b ea38 2f5d ee38
000000b0: 591c 07b8 4963 cbb4 1206 3daf 2071 0db1
000000c0: 85f7 3fb1 e7d1 b0b4 a171 722e e615 8316
000000d0: 32ab 9133 0400 0000 0400 0000 0400 0000
000000e0: 0400 0000 0400 0080 0400 0000 0400 0000
000000f0: 0400 0000 0400 0080 0400 0000 0000 0000
00000100: 0400 0000 0400 0000 0400 0000 0400 0000
00000110: 0400 0000 0000 0000 0400 0000 0400 0000
00000120: 0000 0000 0400 0000 0000 0000 0000 0000
00000130: 0400 0000 0400 0000 0000 0000 0400 0080
00000140: 0400 0000 1df8 9539 883d 57b7 803e 4c39
00000150: daba 4e39 4b2a 58b5 3b9b cc39 8d38 abb9
00000160: fb51 06b9 30d5 79b9 8477 a437 8d9f c339
00000170: 3125 cb38 9f8c 03b9 c692 af39 9f9b 8bb9
00000180: e44a f539 796f c839 a884 af39 9377 f5b5
00000190: f160 ecb3 b173 8e37 38b7 8d34 ea10 e935
000001a0: 57fb 87b3 32c6 d132 7ae5 d6b3 193e 1631
000001b0: ed18 2eb8 eee2 0f36 fd2b 07b8 7147 72b9
000001c0: 9890 0cb6 7e37 59b8 a196 0eb9 afb3 94b8
000001d0: fa31 cfb8 2af3 95b8 58fe ccb8 3b73 88b8
000001e0: 8c4b 1137 fa6e f7b8 5349 87b8 96ae adb5
000001f0: 7d92 7db8 b838 9436 d55b 32ac 83d5 1cb4
00000200: 20ce a736 9114 f8b1 13fe ae33 7df3 9fb2
00000210: adba 9133 1d62 1cb4 23c4 ae34 5c3e 00b8
00000220: 97af 0aba d346 6b39 713d 2736 a6d4 60b2
00000230: 617b bb37 b034 54b9 e32b 1a39 5977 9138
00000240: acbc bf37 5cd6 e539 7ed7 3839 2268 d6b9
00000250: d9d4 6fb9 bcd2 c338 9890 30b9 7dca 71b9
00000260: 555f aa35 8498 a733 0400 0080 77f0 19b5
00000270: e0db 1d32 0400 0000 77b3 4e2f a9ea a2b4
00000280: baf5 2935 d881 162f c61e e4b9 bf98 0bba
00000290: af9d a638 68f0 ec38 5c16 1336 decc 1db8
000002a0: ff0f 9e38 8f92 e138 9882 1fb9 c641 89b9
000002b0: f095 5239 9549 38b8 414e 40ba 6756 87b9
000002c0: eb4c 0f3a be66 65b9 bb83 62b6 48c2 313a
000002d0: 118f 37b4 f4bb 02b4 bd5a 16b4 7db3 adb5
000002e0: 6578 6135 0f28 4033 b641 8e36 163a 8f9b
000002f0: 370c 1f36 d66a 8b35 0e99 68b8 a13c 4eb8
00000300: e4f7 32b8 e03c 0b35 d790 f6b8 e39c 6bb5
00000310: 95ae a9b7 9eba 7fb8 7883 61b4 ffe5 39b7
00000320: 9f52 5ab7 eab3 55b8 9d37 beb8 1015 99b7
00000330: a26e 14b9 0112 bab8 ef50 86b8 0400 0000
00000340: 9cc0 44b4 1076 88b2 3b39 002f 0400 0000
00000350: 0400 0080 a4b4 86b5 0400 0000 0400 0000
00000360: f837 1cba 5389 7039 509d 92b9 fbfe ccb8
00000370: 9cb7 7535 4305 bab8 58f8 eb37 5f12 dab7
00000380: 5884 83b9 d702 e738 9e22 fcb9 e133 bdb8
00000390: 5e4c 09b6 6134 7638 574f dd37 7028 48b9
000003a0: 0485 1b38 8a4f 8539 0ffd d334 00ad 7cb4
000003b0: f3bf fc31 3ff8 0133 c0ed 8434 493e bfb2
000003c0: 4786 7fb5 b13c d033 5b9d dab4 b75a 4738
000003d0: e530 80b9 e5eb 49b9 e344 88b8 0437 6eb6
000003e0: 67f6 83b7 2c25 2db9 19ce d1b9 e42a 5bb9
000003f0: 534b b1b9 9a3e abb8 e4c2 4fb9 4c9e 8bb9

exp_avg_sq f4 [150, 3, 3, 3]
1.2621741e-06 2.921217e-07 1.2635294e-06 2.4588915e-06 5.456806e-10 2.5650631e-06 1.1873071e-06 3.2373202e-07
1.2979744e-06 6.419122e-07 1.6023274e-06 7.1136276e-07 3.5545852e-07 2.9734908e-06 2.6040928e-07 1.7164126e-06
2.8282514e-06 1.5140887e-06 5.831534e-11 8.631694e-12 3.3482352e-11 1.5844393e-12 1.7235464e-10 3.761494e-12
1.603609e-09 3.0537988e-12 6.7460026e-10 2.5359168e-07 7.863452e-08 5.6760285e-07 1.530667e-06 8.1684765e-10
1.467586e-06 6.3030694e-07 7.2542946e-08 4.8345373e-07 5.4442603e-07 7.276023e-07 2.582183e-07 7.1131744e-08
1.4894338e-06 6.349028e-08 8.725111e-07 1.7718118e-06 1.0630522e-06 1.8426997e-10 4.256986e-11 2.5893484e-11
8.6823417e-11 8.732127e-10 1.1325605e-11 5.177041e-12 6.583164e-11 3.146988e-11 6.0669503e-13 1.1528037e-13
5.699685e-13 2.6962026e-13 5.634624e-18 6.539029e-13 1.172434e-11 9.51401e-15 1.3503727e-11 0.0
2.841754e-13 1.7542549e-14 6.4571173e-13 1.0245409e-12 3.4389942e-13 0.0 1.37701526e-11 1.440564e-13
0.0 1.1365431e-14 0.0 0.0 3.9454587e-15 1.6731467e-17 0.0 9.265629e-15
1.692225e-16 2.0268799e-06 4.2924207e-06 5.1247707e-06 3.9285806e-06 3.1844127e-10 3.931508e-06 4.543484e-06
4.219895e-06 4.610387e-06 5.9735953e-06 4.0320374e-06 3.058072e-06 3.9511783e-06 7.95057e-06 4.3140985e-06
2.9994496e-06 3.892693e-06 2.8037887e-06 4.5229348e-11 5.4050206e-12 6.9624756e-10 5.2138896e-12 3.574315e-10
3.8312343e-11 1.054598e-11 2.8461036e-12 2.2862576e-12 7.021137e-07 9.071844e-07 7.5649774e-07 3.9271748e-07
1.9245425e-10 2.828758e-07 5.960005e-07 8.46101e-07 1.0109303e-06 3.8049546e-07 3.573781e-07 5.429354e-07
5.62173e-07 1.151157e-06 9.716929e-07 4.4694815e-07 3.274776e-07 3.6635703e-07 3.1264628e-12 9.068345e-12
2.9198294e-10 1.0745033e-11 2.7045247e-10 2.1656768e-11 1.1173098e-12 6.2512534e-12 1.1328999e-09 4.395079e-06
6.404352e-06 4.2386478e-06 1.334501e-07 2.9256528e-11 1.3395022e-07 4.791283e-06 6.711644e-06 5.3328918e-06
1.3651825e-06 6.7330944e-07 6.6142536e-07 6.7072397e-06 6.578889e-06 5.4549737e-06 8.920068e-07 6.3576186e-07
8.115774e-08 4.5387583e-11 5.31166e-12 1.8143452e-10 1.8953443e-10 2.5597585e-10 5.6735252e-11 6.9177955e-11
6.9599465e-11 3.0906597e-12 4.1287462e-06 7.1635063e-06 4.834548e-06 4.0564754e-07 3.8458073e-10 2.4126558e-07
2.9957691e-06 7.2972034e-06 1.0121242e-06 2.794725e-06 1.0315212e-06 2.3772341e-07 7.7523455e-06 6.6318385e-06
3.4432303e-06 4.157217e-06 2.7935187e-09 2.9339108e-06 3.5577135e-11 6.9219436e-11 6.4403123e-12 3.4042857e-10
2.008605e-09 9.510702e-12 3.4895142e-10 1.5642874e-13 5.653424e-09 6.9750575e-07 3.4528767e-07 6.1574195e-07
9.154944e-07 1.6060273e-10 9.193126e-07 1.9638786e-07 3.6326014e-07 5.917568e-07 2.859807e-07 6.7634676e-07
3.9433732e-07 3.4136158e-07 1.2850448e-06 3.1886808e-07 1.0725843e-06 9.5004685e-07 5.9389833e-07 1.5704694e-12
1.1184492e-11 9.038172e-12 2.456824e-12 5.763828e-11 1.8548353e-12 6.6834827e-10 2.8081081e-12 2.4161103e-12
3.626331e-06 4.013906e-06 3.4180946e-06 2.8147274e-06 1.0564221e-09 2.7713381e-06 2.3489433e-06 4.0485374e-06
2.3973214e-06 1.9255176e-06 3.3021458e-06 3.4856719e-06 3.4963673e-06 6.503405e-06 3.982851e-06 4.099622e-06
2.6202006e-06 4.1168178e-06 4.7296674e-11 4.9837613e-11 6.551991e-11 1.3822537e-11 5.2584304e-10 2.2773566e-11
8.4665906e-11 1.2177447e-11 3.8853802e-11 1.13244e-06 2.8553015e-06 1.2937694e-06 1.8947511e-06 5.7309313e-10
1.8454087e-06 2.165597e-06 2.8935244e-06 2.3537887e-06 3.3929512e-06 1.938655e-06 3.2477878e-06 2.4186224e-06
00000000: f967 a935 e7d4 9c34 8a96 a935 6f03 2536
00000010: dcfe 1530 7323 2c36 905b 9f35 64cd ad34
00000020: 1036 ae35 df4f 2c35 8d0f d735 7af4 3e35
00000030: d9d5 be34 2f8c 4736 61ce 8b34 7d5f e635
00000040: fdcc 3d36 b137 cb35 9e3c 802e b2d9 172d
00000050: c741 132e 71fd de2b 8581 3d2f 8758 842c
00000060: fa65 dc30 59e4 562c c66e 3930 6025 8834
00000070: c9dd a833 5f5d 1835 5171 cd35 8b88 6030
00000080: dff9 c435 5d32 2935 e8c8 9b33 b0c6 0135
00000090: ac24 1235 7350 4335 41a1 8a34 17c1 9833
000000a0: 8ee8 c735 2758 8833 8236 6a35 fdce ed35
000000b0: 32ae 8e35 639b 4a2f 6739 3b2e f1c2 e32d
000000c0: 3ded be2e e206 7030 fe3d 472d a426 b62c
000000d0: ebc3 902e ef67 0a2e fcc4 2a2b 4ecb 012a
000000e0: 8f6e 202b 60c8 972a 85e1 cf22 ab0e 382b
000000f0: bc41 4e2d a063 2b28 618f 6d2d 0000 0000
00000100: fef9 9f2a 5d02 9e28 6fc0 352b fa30 902b
00000110: 2199 c12a 0000 0000 413f 722d 6e31 222a
00000120: 0000 0000 cdbd 4c28 0000 0000 0000 0000
00000130: 6f26 8e27 0f52 9a23 0000 0000 2cea 2628
00000140: ab19 4325 8805 0836 9d07 9036 72f5 ab36
00000150: 40d2 8336 a010 af2f 66eb 8336 3b74 9836
00000160: 9f98 8d36 ecb2 9a36 cb70 c836 f04a 8736
00000170: 4739 4d36 5d94 8436 7063 0537 d3c1 9036
00000180: 274a 4936 fa9d 8236 b928 3c36 b8eb 462e
00000190: 192c be2c 1162 3f30 8b72 b72c 0380 c42f
000001a0: dd7f 282e df86 392d d846 482c 8ee1 202c
000001b0: e378 3c35 3d85 7335 2112 4b35 aed6 d234
000001c0: 0e9b 532f 27de 9734 d8fc 1f35 9e1f 6335
000001d0: 4daf 8735 e646 cc34 acdd bf34 3dbe 1135
000001e0: 3ce8 1635 7481 9a35 1d6b 8235 16f4 ef34
000001f0: 2ed0 af34 baaf c434 5901 5c2c 3288 1f2d
00000200: f284 a02f 5407 3d2d cdae 942f b57e be2d
00000210: 543f 9d2b 49f2 db2c 5fb4 9b30 7179 9336
00000220: f7e4 d636 b539 8e36 7c4a 0f34 ecab 002e
00000230: f5d3 0f34 cfc4 a036 9534 e136 31f1 b236
00000240: 503b b735 79bd 3435 ce8c 3135 c00e e136
00000250: 3ac0 dc36 de09 b736 3e72 6f35 39a9 2a35
00000260: f048 ae33 e09d 472e 2ee3 ba2c 477d 472f
00000270: 3365 502f 66b9 8c2f 3786 792e ba1f 982e
00000280: 040d 992e 607c 592c a989 8a36 0d5e f036
00000290: 7338 a236 c6c7 d934 ed6c d32f 4a87 8134
000002a0: ec0a 4936 80da f436 53d8 8735 038d 3b36
000002b0: cc72 8a35 ea40 7f34 1210 0237 0f87 de36
000002c0: 3f12 6736 397e 8b36 1af8 3f31 34e4 4436
000002d0: 4b78 1c2e 1437 982e 2d99 e22c 1027 bb2f
000002e0: c107 0a31 6550 272d 8cd6 bf2f 841f 302a
000002f0: 0b40 c231 3b3c 3b35 fa5f b934 7749 2535
00000300: 4cc0 7535 a695 302f aec6 7635 afde 5234
00000310: 1806 c334 38d9 1e35 e388 9934 328e 3535
00000320: 4fb5 d334 6144 b734 ce79 ac35 e530 ab34
00000330: b7f5 8f35 b906 7f35 626c 1f35 2006 dd2b
00000340: 79c2 442d 4f00 1f2d 35e2 2c2c ef7e 7d2e
00000350: be85 022c d4b6 3730 619a 452c c604 2a2c
00000360: e45b 7336 31af 8636 6b62 6536 a6e4 3c36
00000370: 8c31 9130 3afb 3936 8aa2 1d36 acd8 8736
00000380: abe1 2036 2438 0136 6f9a 5d36 63eb 6936
00000390: 22a3 6a36 d337 da36 6ea4 8536 7c8f 8936
000003a0: b4d6 2f36 3223 8a36 5203 502e 2a30 5b2e
000003b0: 6e14 902e 2c2b 732d ea8a 1030 8351 c82d
000003c0: ab2e ba2e 593a 562d 7ee1 2a2e 58fe 9735
000003d0: b59d 3f36 94a5 ad35 274f fe35 d887 1d30
000003e0: c3af f735 ac54 1136 5f2e 4236 c8f5 1d36
000003f0: 75b2 6336 d719 0236 92f4 5936 9e4f 2236

exp_avg f4 [150]
-0.00012759124 0.00014697715 6e-45 0.00026829293 -0.00017251885 -4.1379175e-05 -0.0003417932 -0.000121760684
-0.00020221347 -0.00040525434 0.00025918783 -0.00026705663 0.0025169128 0.0003515771 -3.0164872e-05 -3.4202516e-05
0.00053831213 0.00010761447 -0.00012742823 0.00016911053 0.00034282744 -2.177951e-06 -0.00037065038 -0.00036023665
0.00021491483 0.00023604915 0.0005002323 -0.00010292876 0.00084397796 -0.00010931645 -0.00054324174 4.048358e-05
-0.00036830438 -0.0005645032 0.0009182142 0.00012227177 -0.00019372987 -6.350459e-05 -0.00011365536 0.0002210923
-0.0003319278 0.0007870054 0.00015027348 7.841642e-05 8.9230125e-05 0.0005056123 8.8925204e-05 -7.0209186e-05
-0.00051748776 -0.0006393551 0.000116861214 0.00031900418 -0.00013043264 -1.1326557e-05 -0.00026515505 -7.163319e-05
5.2961754e-05 0.0013591924 -0.0010938471 0.00012671971 -0.00019966642 0.0003534426 6.363788e-05 -0.00044151983
-1.0889081e-05 0.00019099897 -5.378084e-05 -9.038122e-05 8.716547e-05 2.4408902e-05 -1.643513e-05 7.608966e-05
-0.0004772143 5.643141e-05 -0.00024201682 -0.0006956872 -0.0004942164 8.529652e-05 0.0012790934 3.5103328e-06
4.2387386e-05 0.00089671154 -0.0001923216 0.00018191234 -8.581218e-05 0.00092591764 2.7561378e-05 2.0702444e-05
-0.00030971284 -0.00049313507 7.714876e-05 0.00027341503 0.00016810941 0.00026562143 -0.00020880907 -0.00039337587
1.4110247e-05 6.135209e-05 -0.0002660731 -0.00029566928 0.00028328106 0.0001921879 0.00020357412 4.7037345e-05
-0.00015807754 -0.00012910887 0.00017386979 0.001271539 -0.00015946993 -0.00011150899 2.3393995e-05 0.00018029717
1.8693901e-05 0.00016468893 0.000336692 -0.00013027458 -8.130202e-06 -0.00023395773 -5.349325e-05 -0.00026258026
-0.000543343 -7.0715825e-05 9.1169735e-05 3.4387092e-05 0.00022340001 -0.00018833767 -0.00039014008 -0.00016125703
0.00087737234 -7.48906e-05 5.2708718e-05 -0.0005047404 3.8407758e-05 0.0021714873 1.7430542e-05 0.00016962882
-0.0002372446 -0.00013512337 2.3968825e-05 -5.6802994e-05 3.6666042e-06 2.5191704e-05 -0.00021497035 -1.6995334e-06
-0.00013798724 0.000102482496 0.00017496242 0.00013954917 0.00056002196 -8.4469815e-05
00000000: 03ca 05b9 e11d 1a39 0400 0000 aba9 8c39
00000010: 2de6 34b9 8d8e 2db8 b532 b3b9 c559 ffb8
00000020: 4409 54b9 5178 d4b9 9ae3 8739 bc03 8cb9
00000030: caf2 243b e153 b839 920a fdb7 ac74 0fb8
00000040: 841d 0d3a 14af e138 419e 05b9 4353 3139
00000050: 85bd b339 ea28 12b6 da53 c2b9 25de bcb9
00000060: c35a 6139 f683 7739 0522 033a 75db d7b8
00000070: 673e 5d3a d240 e5b8 5668 0eba eacc 2938
00000080: fa18 c1b9 2bfb 13ba 50b4 703a 1436 0039
00000090: f723 4bb9 c42d 85b8 425a eeb8 03d5 6739
000000a0: 9806 aeb9 0a4f 4e3a bb92 1d39 7f73 a438
000000b0: 0f21 bb38 118b 043a 5b7d ba38 453d 93b8
000000c0: 04a8 07ba 659a 27ba 6313 f538 0440 a739
000000d0: bfc4 08b9 3107 3eb7 8204 8bb9 c739 96b8
000000e0: 4023 5e38 ee26 b23a 6b5f 8fba 10e0 0439
000000f0: 8c5d 51b9 434e b939 5475 8538 ca7b e7b9
00000100: 3fb0 36b7 e546 4839 bd92 61b8 0c8b bdb8
00000110: 9bcc b638 b8c1 cc37 2cde 89b7 5392 9f38
00000120: 9e32 fab9 c4b0 6c38 e5c5 7db9 c75e 36ba
00000130: 4d8e 01ba 38e1 b238 41a7 a73a 0f93 6b36
00000140: 1cc9 3138 4b11 6b3a f0a9 49b9 b9bf 3e39
00000150: 10f6 b3b8 48b9 723a 9c33 e737 29aa ad37
00000160: f460 a2b9 bc45 01ba edca a138 2559 8f39
00000170: 8746 3039 1b43 8b39 c2f3 5ab9 043e ceb9
00000180: 0dbb 6c37 27aa 8038 ba7f 8bb9 0f04 9bb9
00000190: 5785 9439 0c86 4939 8376 5539 f749 4538
000001a0: 9ec1 25b9 6661 07b9 d150 3639 c5a9 a63a
000001b0: 6237 27b9 efd9 e9b8 393e c437 270e 3d39
000001c0: d9d0 9c37 59b0 2c39 0986 b039 519a 08b9
000001d0: f466 08b7 8d52 75b9 f15d 60b8 edaa 89b9
000001e0: 226f 0eba 454d 94b8 6132 bf38 dc3a 1038
000001f0: 7c40 6a39 827c 45b9 b78b ccb9 1b17 29b9
00000200: 76ff 653a 960e 9db8 8e13 5d38 8e50 04ba
00000210: 0418 2138 834f 0e3b ce37 9237 64de 3139
00000220: ddc4 78b9 e7af 0db9 a910 c937 c03f 6eb8
00000230: c80f 7636 c652 d337 aa69 61b9 861b e4b5
00000240: abb0 10b9 dfeb d638 1e76 3739 f253 1239
00000250: 70ce 123a 6325 b1b8

exp_avg_sq f4 [150]
3.0721874e-06 1.8215577e-06 1.2363184e-11 7.966703e-06 1.3495878e-06 7.188435e-06 8.0435875e-06 1.2870937e-06
6.295198e-06 4.6991763e-06 1.4403311e-06 4.0519426e-06 3.1341013e-05 1.9289712e-06 2.1915068e-07 1.3863777e-06
3.077961e-06 5.2907026e-06 5.406588e-07 3.8274816e-06 1.2070326e-06 6.373493e-06 3.1531108e-06 2.624893e-06
9.886784e-07 1.9339309e-07 1.6672798e-06 4.442476e-07 3.902238e-06 2.075308e-06 4.8660363e-06 1.1715085e-06
9.935379e-07 3.1242678e-06 7.3633746e-06 1.9317247e-06 1.5021334e-06 1.9005148e-07 1.960287e-06 1.2427931e-06
3.5849123e-06 4.404095e-06 3.867822e-06 6.033603e-06 2.3655576e-07 1.3130691e-06 3.022032e-06 7.004712e-07
3.5436897e-06 2.738985e-06 6.2791834e-08 3.7006657e-06 1.5793499e-06 1.3486316e-06 8.978057e-07 5.353239e-07
2.6736996e-06 5.520006e-06 8.573644e-06 5.316788e-06 2.595674e-06 3.4392558e-06 4.760401e-07 1.1633935e-05
4.0435964e-07 8.218955e-07 7.0963614e-07 1.7936921e-06 7.9459846e-07 9.1128277e-07 3.7961632e-07 1.1655591e-06
6.181779e-06 1.7479043e-06 1.2696099e-06 9.413958e-06 1.4288702e-06 1.241029e-06 7.861584e-06 7.4934667e-07
1.060369e-07 3.221905e-06 6.227097e-06 3.1182344e-06 8.161149e-06 6.4609917e-06 3.5225972e-07 7.7851763e-07
2.2365732e-06 2.1532649e-06 6.860422e-07 6.762339e-06 1.4317968e-07 6.434122e-07 4.9059645e-06 1.7251075e-06
1.385603e-06 1.9417996e-07 3.5098249e-06 1.9149768e-06 1.2277856e-06 2.7956744e-06 3.002548e-06 6.841464e-07
3.4604352e-06 5.0701574e-06 2.3124701e-07 9.0981375e-06 4.6523173e-06 4.268942e-06 6.2705163e-07 1.6879696e-06
7.544232e-06 1.8155116e-06 1.5570307e-06 2.4264368e-06 8.981704e-08 2.2871254e-06 1.5606026e-06 3.6193767e-06
2.5918605e-06 1.2595747e-06 5.2921073e-06 1.9934178e-06 3.9925108e-06 9.700112e-07 4.0749696e-06 2.0737593e-06
3.2155708e-06 8.144216e-07 6.181066e-07 1.4679634e-06 1.266117e-06 2.9839794e-06 1.9997073e-07 3.7581895e-06
9.353776e-06 8.5641864e-07 3.1055597e-06 5.106316e-07 4.7225555e-07 4.1544843e-07 7.566463e-07 2.2000003e-07
9.58627e-07 1.8425364e-06 6.5784184e-07 7.2063233e-07 2.0685925e-06 2.9616228e-07
00000000: c72b 4e36 3f7c f435 d57e 592d bba8 0537
00000010: 7c23 b535 3034 f136 f2f2 0637 34c0 ac35
00000020: 573b d336 9ead 9d36 6651 c135 ecf5 8736
00000030: 2874 0338 7973 0136 ae4f 6b34 9313 ba35
00000040: f88e 4e36 ca86 b136 ca21 1135 d16d 8036
00000050: 5301 a235 e3db d536 089a 5336 5227 3036
00000060: bbb2 8435 7da7 4f34 4cc7 df35 ed80 ee34
00000070: f8ef 8236 8545 0b36 ef46 a336 ba3c 9d35
00000080: b459 8535 83aa 5136 e812 f736 c7a2 0136
00000090: e99c c935 f410 4c34 798d 0336 0cce a635
000000a0: 5394 7036 e3c6 9336 57c8 8136 4174 ca36
000000b0: f4ff 7d34 b63c b035 1dce 4a36 0408 3c35
000000c0: 20d0 6d36 67cf 3736 2dd8 8633 f458 7836
000000d0: 0dfa d335 a102 b535 bd00 7135 2eb3 0f35
000000e0: cf6d 3336 7e38 b936 85d7 0f37 dc66 b236
000000f0: 5731 2e36 f7cd 6636 7492 ff34 5f2f 4337
00000100: c416 d934 3ba0 5c35 d37d 3e35 cbbe f035
00000110: 644c 5535 e09e 7435 12ce cb34 4e70 9c35
00000120: 146d cf36 8999 ea35 7767 aa35 a4f0 1d37
00000130: 9bc7 bf35 6f91 a635 3fe5 0337 b626 4935
00000140: 67b6 e333 e837 5836 5bf2 d036 dc42 5136
00000150: deeb 0837 7fcb d836 351e bd34 53fb 5035
00000160: 0918 1636 cf80 1036 7628 3835 0de8 e236
00000170: eebc 1934 f3b6 2c35 ea9d a436 3e8a e735
00000180: f5f8 b935 c87f 5034 558a 6b36 0d83 0036
00000190: 64ca a435 529d 3b36 627f 4936 2fa6 3735
000001a0: d339 6836 5220 aa36 b24c 7834 34a4 1837
000001b0: 1a1b 9c36 ef3d 8f36 a952 2835 328e e235
000001c0: 7624 fd36 81ac f335 2bfb d035 ded5 2236
000001d0: 71e1 c033 847c 1936 e675 d135 6be4 7236
000001e0: d3ef 2d36 a80e a935 db92 b136 a8c6 0536
000001f0: 68f7 8536 5531 8235 b9bb 8836 ea2a 0b36
00000200: 16cb 5736 a09e 5a35 f6eb 2535 d706 c535
00000210: 73ef a935 6040 4836 89b7 5634 3435 7c36
00000220: 29ee 1c37 a4e4 6535 1c69 5036 5612 0935
00000230: 4f8a fd34 cc0a df34 561c 4b35 2639 6c34
00000240: 2caa 8035 124d f735 8c96 3035 7a71 4135
00000250: 26d2 0a36 3c00 9f34
