calvin/data/gridworld/MazeMap_15x15_vr_2_4000_15_500/models/CALVINConv2d_k_60_i_3_h_150_adam_0.005_0.1_0.25_0207_205400_936487/epoch_002/checkpoint.pt (torch, 78251 bytes, 18 tensors)

w_motion f4 [9, 1, 3, 3]
00000000: 090a a13f 7141 42bf e7d3 d93e 5f45 a2bf
00000010: 5499 a2be 0b07 9d3e 4521 9f3e 21eb fb3f
00000020: 4aed ab3e 2746 333e 3476 81bd d0db 86be
00000030: e8d9 873e 8f16 be3e f6e5 43bf 3272 0ebf
00000040: 826d 163e d950 e83f 04ec f13e ee59 acbf
00000050: 3103 e1be 691e 28c0 9d88 45bf 1984 563f
00000060: a99a eb3e 5eea 8cbe 7bce d9be 45fb 7b3f
00000070: 605d 10bf f4c0 e43f 0a6c 5f3e 987c 8bbf
00000080: 4bc3 033e 8a47 d8bf 1262 cdbf 0b69 0ebf
00000090: f733 a9bf a599 fb3e 48bf 4dc0 f860 8ebe
000000a0: 33a8 8bbe 00a0 7fbf 1300 06bf 6bdf 93bf
000000b0: 81d7 44bf f45d c73f 9b2f 833d 74b2 013e
000000c0: cb87 3abf cf27 913e f255 2d3f a525 303f
000000d0: fdff 12c0 2d28 debe aee6 36bf e787 88bf
000000e0: 92f0 0d3f 41a6 7a3f 17bc 6ebe b380 0c3e
000000f0: c844 e3be 4b77 03bf cb6e 6cbe 39d8 bd3d
00000100: 2da3 f0be 14bd d2bf 43c0 39bf 24f3 efbe
00000110: d5d5 4bbf dd1f 533f 3914 33bf 6c92 3dbf
00000120: 9114 a1be eed3 54bf 2b78 17be 370d a6bf
00000130: d5ed c53f ad29 54be 1c18 15bd bc0e 313f
00000140: c8ba 68bf
1.2581187 -0.75881106 0.4254448 -1.267742 -0.31757605 0.30669436 0.3108007 1.9681131
0.33579475 0.1750723 -0.063213736 -0.2633958 0.26533437 0.37126586 -0.7652277 -0.55643
0.14690211 1.8149673 0.47250378 -1.3464944 -0.43947747 -2.626856 -0.7716158 0.83795315
0.46016434 -0.27522558 -0.42540345 0.9843028 -0.5639248 1.7871385 0.21818557 -1.0897398
0.12867467 -1.6896832 -1.6045554 -0.5562903 -1.3218983 0.4914066 -3.2148 -0.27808356
-0.27276763 -0.99853516 -0.52343863 -1.1552557 -0.7689133 1.5575547 0.064055644 0.1266573
-0.72863454 0.28350684 0.6770927 0.6880744 -2.2968743 -0.43390027 -0.7144574 -1.0666474
0.55445206 0.97909933 -0.23313938 0.1372097 -0.44388413 -0.513539 -0.23089139 0.09269757
-0.46999493 -1.6463952 -0.72558993 -0.4686519 -0.79623157 0.82470495 -0.6995273 -0.7405155
-0.31461003 -0.8313588 -0.14791934 -1.2972783 1.5463206 -0.20719023 -0.036399946 0.6916311
-0.90910006

r_motion f4 [9, 1, 3, 3]
00000000: 44f6 7e3e 5f0c 07b1 d043 873d 5f0b 55ad
00000010: fbda 2db4 d610 db39 5806 4c39 7b14 eebe
00000020: a2e4 c73a c47a cf3c 9470 073a abd6 8338
00000030: b739 7f3d d941 193e 55bc dc34 06bd 5e36
00000040: bb0b 9c3c 3eee 08bf 79ee 193e 280a a934
00000050: ab3f 3e3c d8ea 732b b73f a93b d8d3 ae3e
00000060: dabf 983e 951d 7b3e 6dec 973c 9461 163e
00000070: 7c9c 4035 3166 fcbe 4853 0d3d ef2d 8031
00000080: 28e2 d73b 8cc4 222d 20a7 be2d b6d4 4f35
00000090: d208 08b8 dcca 0bbf 87a8 54aa a8ed 773e
000000a0: 0637 743e cee6 f13d cfe4 753e 71f5 4d3b
000000b0: b119 643e b16b 4dbf c840 843c f1dc d93c
000000c0: 42f4 1635 63ef 3f3d 8e40 1a3d 8644 ff3c
000000d0: ec49 c329 c6cd 3a37 17b7 d73a 85ed 5238
000000e0: 6a21 f13d 27c4 3e3d cd23 533e 751f 6b3e
000000f0: 2f40 853d 9a71 6c3d 0385 863c d1d8 9a3e
00000100: 289b 7f3e a763 9b33 5844 473d fda9 923e
00000110: 4528 f33b e908 43bf 93ae d83d 9f3b 943d
00000120: 0fc1 c039 a7f9 0036 a705 573b 1f5b 9c32
00000130: 21c2 b240 e0ba ab3a 5c19 7e3d 4fae e73e
00000140: 980c 6d35
0.2489863 -1.9652118e-09 0.06604731 -1.2110173e-11 -1.6191545e-07 0.0004178348 0.0001945732 -0.465
0.0015250633 0.025327094 0.0005166617 6.286552e-05 0.0623109 0.14966525 4.1115223e-07 3.3190604e-06
0.019048562 -0.5348853 0.15032376 3.1486093e-07 0.011611859 8.6656854e-13 0.005165066 0.34146
0.2983387 0.24523003 0.018545354 0.1468566 7.175329e-07 -0.49296716 0.03450325 3.7305123e-09
0.006588239 9.252276e-12 2.1674718e-11 7.7423044e-07 -3.243314e-05 -0.54606414 -1.8887852e-13 0.24211752
0.23849115 0.118116006 0.24013065 0.0031426812 0.22275425 -0.8024245 0.016144171 0.02659461
5.6234796e-07 0.046859156 0.03765922 0.031160604 8.672563e-14 1.1134374e-05 0.0016457763 5.028911e-05
0.11773951 0.046573784 0.20619126 0.22961219 0.06506383 0.057725526 0.016420847 0.30243543
0.24961531 7.2358766e-08 0.048649162 0.28645316 0.007420572 -0.7618547 0.105801724 0.07237934
0.00036764934 1.9218803e-06 0.0032809766 1.8202227e-08 5.5861974 0.0013101958 0.062035903 0.45250174
8.8307706e-07

aa_net.0.weight f4 [150, 3, 3, 3]
00000000: bc51 603e 853c 9bbe 7384 833e d359 253e
00000010: cc08 d5bd acbf e33d ea48 47be d038 d0bd
00000020: 234c a4bd e25e bc3b 83a7 73be 63b0 38bd
00000030: d5dd 74be 7ba4 383d 6697 bdbe 23eb 973e
00000040: f0a8 1c3e e1e9 ec3d 36a9 48be ea80 c33f
00000050: 7275 07be 36c7 b4be 4997 b3bd 7958 14bf
00000060: 0905 5c3e 9f3e 79bf b289 b5be d335 94be
00000070: edaa eabe 62dc 27be a601 353e 9624 56bd
00000080: 539f 24be 12cc 24be 7b5d a9be a923 97be
00000090: acff 47bd 3a74 80be 4e50 8fbe 546d 863d
000000a0: 812d fd3d 28ce 2f3e f646 6f3c 5801 933e
000000b0: 4c6b 59bd 1c93 673e 0b9d 9cbe 25a9 b7bd
000000c0: 4a43 0c3e 3815 0f3e 4277 bebe 1806 71bf
000000d0: 9d6d 653e f25c 6ebf 328c 47bd 6543 2bbe
000000e0: 067f 82bd 9429 f7bd af94 39be 198d 8cbe
000000f0: 4669 31ba d3fd 35be 77bf eebd 2fbd e9bd
00000100: 1f9e fcbd a706 c73c 0de4 00be d24d a63d
00000110: b1e9 8c3c 130e 2bbe 0328 fcbc 124a 4f3d
00000120: 94db 9ebd c8e4 2b3d 7944 3b3b f687 3abe
00000130: 3b83 00be e693 5c3d 373f 29be 7b7b 5b3e
00000140: 5e4b 243e 04f6 f7bd 0072 1c3c 89e4 aa3e
00000150: 4a7c ab3e cc39 553e 03ec 563d a550 1ebd
00000160: 22e6 0f3e 4139 933c 8591 cf3e 3cfa a53e
00000170: a6ad bbbe e411 073e 216b a0bc 188a 203e
00000180: 0988 a0be 3045 543e 788c cbbe 63fc b93f
00000190: a65c bf3f 6aa4 1abe a0a6 2ebf 8dc3 8a3e
000001a0: 7a81 933f 73a1 8cbf d4ef 2d3f aefc 84bf
000001b0: 1317 d0bd 15b1 a23d 705a 963d 749a e33e
000001c0: d44f 903e eefa 97be d8ff 263e 67ff 863d
000001d0: 19e3 023e 0009 4abe 4c10 383e 3c47 23bc
000001e0: ebe6 e6bd 2efb 203e 7fca 043f 3e3b 69be
000001f0: 5eba 593e 45ea 89be ef54 1dbf f713 883f
00000200: 8555 2b3f 3592 59bd 2edc 8a3f eecf 843f
00000210: 899e c9be 9d90 283f 4c74 503e 8866 8c3e
00000220: 6b37 e2bc 193e d33d 9234 3bbf 6126 56bf
00000230: 43bf 5fbf 9890 ca3d 554b 4bbd 73db 9f3e
00000240: 4c40 b5be 3797 f13d 01b7 99be 3a98 183e
00000250: 0091 bbbd ce78 c3bd 436b d5be e8f3 2c3d
00000260: 04e5 0bbf 5085 003e 2795 96bf 1075 563e
00000270: eb4f 67be 2bfc 9cbf 3e45 6bbf 9ff5 923e
00000280: 5c2f 923e 52ae 34bb e941 ec3e 15c3 3fbe
00000290: 1346 8c3e 882e adbd 1c9d 2cbe 8346 ffbe
000002a0: 8490 3dbe 6bd6 033e 6b71 32bf bb26 9fbe
000002b0: db6f 413e b4e4 13bf c8d9 c43e 3f7e 37bd
000002c0: 7e63 ebbe eaf4 bebd c325 4bbf b59e a23d
000002d0: 316e 23be a69e 7f3f 2ebd 20be fe28 b43f
000002e0: 7c48 733e f2e3 c0be 4391 4abe 465a 4dbe
000002f0: 638a 2b3f ed8a 6d3e d560 c7bd 1a33 a93b
00000300: 09d6 1a3e 3dd6 f13c b2b5 34bd 1cb5 75be
00000310: 1a5d 5e3d 0d2b 6cbd 7bd1 98be 584e 543d
00000320: 74b7 a03b 3476 08bd 8e8b a13e fd73 2cbe
00000330: bd23 913e 3edf 92bd 17a1 19be 4aa5 02bf
00000340: 9689 b13f d851 79be 8346 c3be 4237 33bf
00000350: ee16 0fbf ab18 8a3e 3907 54bf d23e 4bbf
00000360: d14a 3cbc 5df8 4e3e 58c3 bf3e 0d33 1dbd
00000370: 49b1 fc3e a351 66bc 3c6a 72be bc3c 633e
00000380: 3080 91bc 5e27 63bd 3a33 11bd 310b aebe
00000390: 127f 1a3e d4a5 b6bd 51f4 303d d6b0 8b3e
000003a0: 264b e03d 395a b63e 44db 08be 703b c93e
000003b0: 3acb 4cbf ec36 22bf 871d 113f 792b 4d3f
000003c0: fe50 b03f 695c 20bf 775a ae3f cc7f 1ebe
000003d0: 8c35 60bd 6a6b 15be 779e 183e a533 323f
000003e0: 1497 363d 9773 b53d ec57 803e 4870 213e
000003f0: 42cc 9d3e 9f0d 613e c27d 6b3e 1155 403e
0.21906179 -0.3031961 0.25686988 0.16147546 -0.104020685 0.11120543 -0.19461408 -0.10167086
-0.080223344 0.0057486156 -0.2379437 -0.04509009 -0.23912747 0.045078736 -0.3702957 0.29671583
0.1529882 0.11568046 -0.19595799 1.5273716 -0.13228396 -0.35308236 -0.0876909 -0.579475
0.21486296 -0.9736118 -0.35456616 -0.28947315 -0.4583353 -0.16392663 0.1767641 -0.052280985
-0.16076402 -0.16093472 -0.33079132 -0.29519394 -0.048827812 -0.25088674 -0.27990955 0.065638214
0.12362195 0.17168486 0.014604321 0.28711963 -0.053080842 0.22614712 -0.30588564 -0.08967809
0.13697544 0.13972938 -0.37200361 -0.94149923 0.22405095 -0.93110573 -0.048717685 -0.16724928
-0.06371884 -0.12068477 -0.18123125 -0.274514 -0.0006767701 -0.17772608 -0.11657613 -0.11413037
-0.12334847 0.024295164 -0.12586994 0.08120312 0.017201276 -0.16704588 -0.030780798 0.05060775
-0.07756725 0.04196623 0.0028574748 -0.18215927 -0.1255006 0.053851984 -0.16528021 0.21433823
0.16044375 -0.12107471 0.009548664 0.33377483 0.33493263 0.20822829 0.052471172 -0.038651127
0.14052632 0.017971637 0.4054071 0.32417476 -0.3665592 0.13190418 -0.019582333 0.15677679
-0.31353787 0.20729518 -0.39755607 1.4530147 1.4950149 -0.15101781 -0.68223 0.27102318
1.1523888 -1.098677 0.67944074 -1.0389612 -0.10160651 0.07943932 0.07341468 0.44453776
0.28185904 -0.29683632 0.16308534 0.06591683 0.12781943 -0.19729996 0.17974967 -0.009965714
-0.11274513 0.15720817 0.51871485 -0.22776505 0.212625 -0.26936546 -0.61457723 1.0631093
0.6692737 -0.05311795 1.0848444 1.0375955 -0.39378765 0.6584566 0.20356864 0.27421975
-0.027614316 0.103145786 -0.7312709 -0.8365231 -0.8740122 0.0989086 -0.04963239 0.31222114
-0.35400617 0.1179642 -0.30022433 0.1490182 -0.09158516 -0.09544526 -0.41683397 0.042224795
-0.54646325 0.12550855 -1.1764268 0.20943093 -0.2258908 -1.2264456 -0.9190253 0.2870302
0.28551757 -0.0027569723 0.46144035 -0.18726762 0.27397212 -0.08456141 -0.16856807 -0.49858484
-0.1851216 0.12874763 -0.6970431 -0.31084237 0.18890326 -0.5777085 0.38447404 -0.044798132
-0.45974344 -0.093240574 -0.79354495 0.07940427 -0.15960003 0.99851453 -0.15697166 1.407501
0.2375812 -0.37673908 -0.19781975 -0.20053968 0.67008036 0.23197527 -0.09735266 0.0051635625
0.1512071 0.029521102 -0.04411859 -0.23994869 0.054288007 -0.057658244 -0.2984732 0.051832527
0.004904682 -0.033315852 0.31551784 -0.16841121 0.2834758 -0.07171486 -0.15002857 -0.5103346
1.3870113 -0.24347627 -0.38139734 -0.7000619 -0.5589436 0.26971945 -0.8282352 -0.7939273
-0.011492447 0.2021193 0.37453723 -0.038378764 0.49354008 -0.01405755 -0.23673338 0.22191137
-0.01776132 -0.055457465 -0.035449244 -0.33992913 0.15087536 -0.08918348 0.04320175 0.27283353
0.109518334 0.3561571 -0.13364893 0.3930316 -0.799976 -0.63365054 0.5668568 0.8014446
1.3774717 -0.62641007 1.3621358 -0.15478438 -0.054738566 -0.14591756 0.149042 0.69610053
0.044577673 0.08859938 0.2506708 0.15765488 0.308199 0.21977852 0.22997192 0.1878245

aa_net.0.bias f4 [150]
00000000: 73dc 1e3e a977 533e fea7 83be 9fe4 01be
00000010: a8b1 6abe 38c5 7d3e 4de7 073e 0da9 d8bc
00000020: 8da0 6fbd e217 68bd a799 85bd 0633 2dbe
00000030: c07f 633f 8654 91bd 6aca 0cbe a186 3abd
00000040: ebcf 0bbd e722 a8bd 1a88 163e d9b9 4cbe
00000050: 6bef 85bd b827 75bd d45d a43e 2ca5 e3bb
00000060: 2f18 20bd 3749 1ebe 1704 26bd 4f9e 053e
00000070: a9e9 5bbe 4240 75bc 3c17 693e 5fe1 a73d
00000080: f6a1 543c 2559 3d3d 002c 6abc 4b3b 8bbe
00000090: d335 91be d9df 55bc 86b7 93bd 8ade f83c
000000a0: 8051 863e f442 c73d 212a 843d 7676 643e
000000b0: 195b 113e 04ca fbbd 90c6 39be 9a61 bf3d
000000c0: a58b 5b3d 46a9 403e 5602 e4bd 3737 b3bd
000000d0: a29c 88be 0dff 42be 3a61 80be 0470 2fbd
000000e0: c3d3 173d 5ce7 063f a1b9 bd3e c2f6 21be
000000f0: dad6 743e 05c4 81be db1b 2cbe 5551 fe3e
00000100: 4499 443d 90d1 bdbd 5999 55bd dbf7 22bd
00000110: 1267 2fbd b0d0 80be c3c4 123e 6773 31be
00000120: e38b 6c3e 690d a33d 3d15 903e 32b3 2d3e
00000130: 9bbe 8a3e 1d24 4ebe 6371 2d3d 023c fcbb
00000140: 07fd 0dbd 0349 a23d 9056 143e 23f1 c53e
00000150: 921d 7b3d 9e7e 8c3b df70 01be 360d cab9
00000160: ec31 643e 3b94 913d 8fb7 2d3e 162d 42be
00000170: 7044 d6be f17d f6bc 8eed b2bc f78f dd3d
00000180: 8dfe 3f3e c792 ca3d 8fe4 3abe 93c7 24be
00000190: b7b7 16bd 6265 cdbd 9686 32bb afaa 25be
000001a0: 1edf 983d f57e 923e fdc1 d13d da47 923e
000001b0: a371 653e 70a2 8ebd 65f5 96bd 39aa ccbc
000001c0: 5295 b23e a439 023d 826f acbd bb08 66bd
000001d0: 4274 e0bd 4097 9d3e de7f c93d dbd0 45be
000001e0: 3a82 0e3e 350a a8bc a575 b9bd 2113 7d3e
000001f0: aa5a b6bd ea2f f9bd 50ac 00be 0c3f 8d3c
00000200: a9f1 f0bc 3505 8b3e d393 b4be 6be3 103e
00000210: 77e7 163e bde7 c63d b782 68be f5ce 6b3e
00000220: 158c 053c da89 9b3d 3b43 023e c360 4bbb
00000230: a7ec 7fbe bc74 34be 3ff2 c3be 60d8 f43d
00000240: deb9 7b3e 9f90 68bd a02c 5bbe 6213 d3bd
00000250: 4886 843e 2e3d 67be
0.15513782 0.20651115 -0.25714105 -0.12684868 -0.22919333 0.24782264 0.13271828 -0.026447797
-0.058502723 -0.0566634 -0.065234475 -0.16913995 0.88866806 -0.070962 -0.1374909 -0.04553855
-0.034133833 -0.08209782 0.14700356 -0.1999277 -0.06539806 -0.059852332 0.32102835 -0.0069471803
-0.039085563 -0.15457617 -0.040531244 0.13048671 -0.21475853 -0.014968934 0.2276277 0.08197283
0.012978068 0.046227593 -0.014292717 -0.27193674 -0.28361377 -0.013053858 -0.07212739 0.030379552
0.26234055 0.09729567 0.06453348 0.22310814 0.14194907 -0.12294391 -0.18142152 0.09344788
0.053599972 0.18814573 -0.11133258 -0.08750766 -0.26682 -0.19042607 -0.25074178 -0.042831436
0.037067186 0.52696776 0.37055686 -0.15816787 0.23910084 -0.25344864 -0.16807501 0.49671426
0.047997728 -0.092684865 -0.052148197 -0.039787155 -0.042822905 -0.25159216 0.14332871 -0.17329179
0.23100238 0.07961542 0.28141204 0.16962889 0.27098545 -0.20130964 0.042344462 -0.007697583
-0.034665134 0.07924082 0.14486146 0.38660535 0.061307497 0.004287555 -0.12640713 -0.00038538285
0.22284669 0.07108351 0.16964553 -0.18962511 -0.4184909 -0.03008935 -0.02184179 0.10818475
0.18749447 0.09891277 -0.1825125 -0.16091757 -0.036796298 -0.10029103 -0.0027240864 -0.16178392
0.07464431 0.28612486 0.102420785 0.28570443 0.2240663 -0.06964576 -0.07371024 -0.024983512
0.34879547 0.03179325 -0.08419706 -0.05616067 -0.109596744 0.30779457 0.09838842 -0.19317953
0.13916865 -0.02051268 -0.09055642 0.24714328 -0.089040115 -0.12167342 -0.12565732 0.017241977
-0.029412108 0.2715241 -0.3526903 0.14149253 0.14736734 0.09712169 -0.22706114 0.23028167
0.008151074 0.075946525 0.12720959 -0.0031033016 -0.2499262 -0.17622656 -0.38270757 0.11955333
0.24582621 -0.056778546 -0.21403742 -0.10306431 0.25883698 -0.22581932

aa_net.3.weight f4 [10, 150, 1, 1]
00000000: 8e5d aabd 9882 433d cfb0 c33c b612 e53d
00000010: e821 373c 524f 863e 9a83 893d 8e1b e3bd
00000020: 2f3c 80be 0708 13be 5abd 163d 380d 223b
00000030: 60e5 433e 103e 443d 97ff 743c 8e78 61bc
00000040: bacf 2b3e 3084 f53d b261 17be d755 4ac0
00000050: ed9f 253d d897 f13d b08d 9cbe 4f9f 7f3c
00000060: 4fd9 a03d f151 9fbb e131 193e dbfc 8a3d
00000070: bf4e 65be 9d61 b73e e90c 8bbd eb0c 90bf
00000080: 1083 fabd abe7 0940 72a9 3e3d 5901 c43d
00000090: bc18 ffbd 06f0 203d ea1d 4ebe cf51 f23d
000000a0: 72b5 f1bd 0802 dd3d 16dd db3d 4e63 e33d
000000b0: 1fb6 41bd b4f2 a53e 958e cbbe 644c a1be
000000c0: bb20 b6bc eb63 01bf c0de 843a b477 3f3c
000000d0: b412 e9bc 48cf 7e3d 04c4 49be 0cf9 86be
000000e0: e9b7 ac3d 342f a03d 4544 51bf b050 00bd
000000f0: dc10 ccbe 58ae c53c f4ea 083e 579c 06be
00000100: 67dd d4bc e3c1 9fbd d74e 873d f10f c7bd
00000110: 6353 393e 9702 023e 662f b33d 4bce b13e
00000120: 8c7e 66be bcc7 0abe 91ca 38bd 46ca dbbc
00000130: 4de9 65be 1fb9 b8be 2fab 1d3e 0ce1 633d
00000140: 48ce adbb be0f ff3d 3a7c 41be 080d f33d
00000150: eb5e 373e 2891 6a3d c20f be3d 572f 80bd
00000160: 39b0 1bbe ae0d 39be 2449 24be 738d 5a3d
00000170: db93 81bc 0b56 bbbc 702a 163e 3145 ebbc
00000180: 4488 0cbc 36ed eabd 464d da3d e4d9 073e
00000190: 790a 4e3d 0829 23be 893f 723e 2683 b93d
000001a0: 8436 593d c540 fbbe 7a74 08be 439a 843e
000001b0: 93ba f2bd 1ed3 de3d 8857 b33b f08b a23e
000001c0: c6bf cc3e 3367 dc3d d5f1 ac3b 80df d3bc
000001d0: 64b1 01bc 16fd a2be 8051 a9be c38e 603d
000001e0: 6462 b2bd f027 45bc 5006 e7bc af2b e73a
000001f0: c274 303d 2770 a7bd f54f 803d 4fe7 3bbd
00000200: 3b91 c73d c163 1dbd 7497 a9bb 6154 71be
00000210: 347c 123e 2871 b63d 77ba 2bbe 086e 013e
00000220: 815f 243e 6cc6 dcbc 76df 25bd d535 4c3b
00000230: 288f b83c 3afc 343d 93d7 0a3e 1ee3 023d
00000240: ad0a 06be 642e 86be 046c d3bd cacc 923d
00000250: 00c7 24bb 34a9 9b3d 779c eb3d 43f3 b13d
00000260: 5b3d debd 4d3a 9fbe 9070 ccbe 99c6 b6be
00000270: 0de7 f13e e87c 63bd d532 473e d513 74be
00000280: daf0 cd3d 47de f63b faac 96be f948 4c3d
00000290: 502a cf3a d100 f5be d3b0 2ebe 4fdb 83be
000002a0: 8e79 063e bd5d 0cbe 2291 563d 164b 8cbe
000002b0: 72cd 763e ad41 69bd daf6 383e 293a a2be
000002c0: 618a febd 5465 1ebf bc74 99bc 781a 1b3e
000002d0: ef65 edbe 4a94 36bf 64b0 6ab9 9126 47bd
000002e0: 917a c33c bf83 53be 9b46 a7bc 98ce de3d
000002f0: 4f9e 1a3e 388c b73d 519e 2bbe 0ab0 b6be
00000300: 2e67 4d3e fbed a3be caec 9ebe d694 0abf
00000310: 7d7c 703e 206d 28bd 3e64 8a3d 1435 a43d
00000320: 477f 84be 2e11 ee3d 8148 35be 458d 463e
00000330: 53f3 9bbd 675d 2d3d e9f8 63be 9ca1 ab3d
00000340: b662 86bd ed80 f3be 361b 073d f120 c63d
00000350: 8851 1d3e 8289 5fbe 27bf 283d f2d6 e53d
00000360: 5219 773d 53bc 053e 05b7 8fbc 87bf c3be
00000370: 603d 26bd d33f 25bf 0898 bf3c ac7b 5f3e
00000380: a87f 85bd b398 98be 27f4 243e 6484 833c
00000390: 0671 ba3e 907c 243d 0613 19be df90 dcbe
000003a0: 2b10 983e ad52 5bbe 2da5 813e 50a8 bb3e
000003b0: eb4f ef3c 0b8b 563d 55b1 883d ac45 263e
000003c0: 6e43 3fbe 7950 223e 4c48 d93c 1a94 fcbe
000003d0: 5eec bebe a098 aebe 5c75 fe3d 4b57 a73d
000003e0: f099 22bf fb92 43bd c606 ee3d c426 3b3e
000003f0: b226 5ebe 5198 fabd 0c9d 53be fa2c b23d
-0.083186254 0.047731966 0.02388802 0.111852095 0.0111775175 0.26232392 0.06714554 -0.1108924
-0.25045916 -0.14358531 0.036801673 0.0024727117 0.19130468 0.04791075 0.0149535155 -0.013761653
0.1677846 0.119881034 -0.14783362 -3.1614892 0.04043572 0.1179654 -0.3057685 0.015601947
0.07853948 -0.004862063 0.14960434 0.067865096 -0.2239332 0.3581666 -0.06789572 -1.1253942
-0.122320294 2.154765 0.046548314 0.095705695 -0.124558896 0.039291404 -0.20128599 0.1183201
-0.11802186 0.10791403 0.10735528 0.11102925 -0.047292825 0.3241173 -0.3975722 -0.31503594
-0.022232404 -0.5054309 0.0010137185 0.011686254 -0.028451301 0.062209398 -0.1970368 -0.26361883
0.084335156 0.07821503 -0.81744796 -0.03132695 -0.39856613 0.024130985 0.13370878 -0.13145576
-0.02598448 -0.07800653 0.066068344 -0.097198375 0.18098216 0.126963 0.08749275 0.34727702
-0.22509211 -0.13552755 -0.045115057 -0.02682985 -0.22452278 -0.36078736 0.15397333 0.055634543
-0.0053041317 0.124541745 -0.18895045 0.1186772 0.17907302 0.057267338 0.09280349 -0.06259029
-0.15203942 -0.18071625 -0.16043526 0.053357553 -0.015817573 -0.022868177 0.14664626 -0.028719516
-0.00857741 -0.11471026 0.1065927 0.13266712 0.050302956 -0.15933621 0.23657049 0.09058218
0.053030506 -0.49072853 -0.13325682 0.25898942 -0.118519925 0.10880111 0.005473081 0.3174739
0.39990062 0.10761871 0.005277852 -0.025863409 -0.007915828 -0.31833714 -0.33069992 0.05482365
-0.08710173 -0.012033448 -0.028201252 0.001763692 0.0430801 -0.08175688 0.062652506 -0.04587489
0.097444974 -0.03842521 -0.0051755253 -0.23567344 0.14305192 0.089083016 -0.1677035 0.1263963
0.16052057 -0.026950084 -0.040496312 0.0031160016 0.0225292 0.044185854 0.13558798 0.031954877
-0.1309001 -0.26207268 -0.10323337 0.07167967 -0.0025143027 0.07600632 0.11504453 0.086889766
-0.108515464 -0.31099167 -0.39929628 -0.35698393 0.4724659 -0.05553904 0.19452985 -0.2383569
0.100557044 0.0075338217 -0.29428846 0.04987428 0.0015805457 -0.47852185 -0.1705964 -0.25753257
0.13132307 -0.13707633 0.052384503 -0.27401036 0.24101809 -0.0569474 0.18062916 -0.31684998
-0.124287374 -0.61873364 -0.018732421 0.15146816 -0.46366832 -0.7132002 -0.0002238169 -0.048620764
0.023862155 -0.20655726 -0.02041941 0.108792484 0.15099452 0.089622915 -0.16759612 -0.35681182
0.20058891 -0.32017502 -0.3104003 -0.54133356 0.23484989 -0.041119695 0.06757401 0.08017936
-0.25878355 0.116243705 -0.1770344 0.19389828 -0.0761477 0.042325404 -0.2226292 0.08380434
-0.06561796 -0.475593 0.032984935 0.09674252 0.15363133 -0.21829799 0.041197922 0.11222638
0.06032688 0.13060121 -0.017543325 -0.3823206 -0.040585876 -0.64550513 0.023387924 0.21824521
-0.06518489 -0.29804 0.16108762 0.01605434 0.36414355 0.040157855 -0.14948663 -0.43079278
0.29699835 -0.21418257 0.25321332 0.3665185 0.029212913 0.052378695 0.066744484 0.16237515
-0.18678066 0.1585101 0.026523732 -0.49331743 -0.3728971 -0.3410082 0.12424728 0.08170947
-0.6351614 -0.047747593 0.11622386 0.18276507 -0.21694449 -0.12236083 -0.20665377 0.08699985

aa_net.3.bias f4 [10]
00000000: b3c7 953d 6763 74bd da73 1b3e fa82 c1bc
00000010: 91c8 813d b65c b6bd c7fe ee3d 989e fa3b
00000020: c613 9bbe f267 e0be
0.0731348 -0.05966511 0.15180913 -0.023622025 0.06337083 -0.08904402 0.11669689 0.0076483004
-0.30288523 -0.43829304

exp_avg f4 [9, 1, 3, 3]
00000000: 5252 e638 e0ea 8d2a 9572 3233 e66f 7726
00000010: 99f4 9e2d acc8 4532 2cc9 8e31 cd79 e6b8
00000020: 42b2 2432 5918 dc31 7642 ca2f ab1e 5d2e
00000030: 6cc7 8932 baa9 3c33 d430 142b 312c 552c
00000040: b876 9b31 2894 a6b3 585f 01bb bfdd 0fae
00000050: 3b87 1b32 5581 9e24 df4d 5632 9197 183b
00000060: fac0 b9b9 cf80 bbb3 620f 7f33 0359 8937
00000070: ceb2 9c2c c06b 89b7 e535 bb31 91cb b128
00000080: 1829 8331 f794 1524 af70 1725 437d 6f2c
00000090: 7e9a 4a30 3b87 e2b8 b69a d422 bc21 fd37
000000a0: ce1a 9a38 de53 0233 bd30 8436 22d2 3e32
000000b0: 371f ca34 6d8a b4b7 cccc f032 7eaa e632
000000c0: ef71 0b2d 6951 7134 da06 1937 1f5c 4b37
000000d0: f918 c621 6c7e 2f2f 2089 97b1 131e 2bae
000000e0: fe54 a4ba 11fe a03a cd68 3835 634f d437
000000f0: a74e 09b3 beb7 b0b2 2ac8 f8b4 4a7f 4838
00000100: 9067 5634 0004 fe2b ef73 6332 33bd 4434
00000110: 8ffa ca31 7551 4ab8 2b01 bf32 d98c 4c32
00000120: 1810 ec2f 2e29 2c2c fb65 1c31 cec6 d028
00000130: 6cca 26b7 68d8 ac30 1558 ee31 27a2 2637
00000140: 843f 9e2b
0.00010982588 2.520961e-13 4.1548066e-08 8.584699e-16 1.8071144e-11 1.1512537e-08 4.1556145e-09 -0.00010989942
9.5865875e-09 6.4056107e-09 3.679081e-10 5.027682e-11 1.6039586e-08 4.3926526e-08 5.2647925e-13 3.0293652e-12
4.5245905e-09 -7.756927e-08 -0.0019740667 -3.2711386e-11 9.052935e-09 6.8740674e-17 1.2474145e-08 0.00232837
-0.00035429728 -8.731296e-08 5.9385805e-08 1.6373122e-05 4.453638e-12 -1.6381848e-05 5.4485434e-09 1.973923e-14
3.8172736e-09 3.2435403e-17 1.3135341e-16 3.4033477e-12 7.370672e-10 -0.000108017084 5.762652e-18 3.0175659e-05
7.348285e-05 3.034426e-08 3.9395804e-06 1.1107234e-08 3.7648144e-07 -2.1522132e-05 2.8032808e-08 2.6853055e-08
7.9265336e-12 2.2474491e-07 9.121106e-06 1.21211915e-05 1.3423612e-18 1.5961071e-10 -4.4102677e-09 -3.890761e-11
-0.0012537537 0.0012282749 6.8697847e-07 2.5309337e-05 -3.1969332e-08 -2.0572653e-08 -4.6339238e-07 4.7802263e-05
1.9967979e-07 1.8048896e-12 1.3239499e-08 1.8322753e-07 5.907459e-09 -4.8236416e-05 2.2235858e-08 1.1906388e-08
4.2939585e-10 2.446553e-12 2.2758957e-09 2.3178857e-14 -9.941501e-06 1.2576153e-09 6.9367254e-09 9.932125e-06
1.1244204e-12

exp_avg_sq f4 [9, 1, 3, 3]
00000000: 6436 0538 5ef7 5a16 eaec 832b f42c 700f
00000010: f7a6 5c1c 4399 5b27 9154 9126 9641 0538
00000020: f327 0128 73ec 1629 2c65 b622 b641 961f
00000030: 842f 052b 044a 192d e024 8a18 57ce 311c
00000040: fe87 0f28 b82f 6c2d 5763 1a38 360b 5e1e
00000050: 26dd a42c 5322 f90a e042 8d27 47fc 0939
00000060: 95f3 6638 7208 b92e 297b 902a 93fe 3236
00000070: de7f 251b 7a12 3336 079c 162a b60f 3313
00000080: c149 f326 a499 150b da83 370c cfed 461b
00000090: 7df7 6823 c5d8 9f38 e25c 2908 d9b2 2737
000000a0: dcd2 ee37 0647 8c2c 6033 df33 2e5e 142a
000000b0: 430f 5b30 5a52 0c36 5bf6 192c 90ac b52c
000000c0: 5dd7 171c 1894 9a2f 3a81 1335 7189 0035
000000d0: 6720 7a05 1e01 4d20 706f 7925 efdd 6520
000000e0: be22 ac37 f32a c137 0ee1 e730 a7bf e435
000000f0: 0deb 062a e6f5 7c29 11c1 3c2b 4421 2c37
00000100: d1ec 222f 9aa1 7e19 faa2 092b 97d1 5b2f
00000110: 2b82 8127 84e9 2e37 7e71 8b2b 3396 f329
00000120: 560e b121 2f73 241a b81b bb24 1cbb 7113
00000130: e763 5635 d992 8223 612c 9729 2d44 5635
00000140: a8e5 0a19
3.1760326e-05 1.7687955e-25 9.373867e-13 1.1841571e-29 7.300769e-22 3.0475439e-15 1.0084318e-15 3.1770753e-05
7.169601e-15 3.3511778e-14 4.943832e-18 6.363618e-20 4.7317033e-13 8.713478e-12 3.57094e-24 5.8831075e-22
7.967583e-15 1.34256425e-11 3.680898e-05 1.17549005e-20 4.6857128e-12 2.3990739e-32 3.9207868e-15 0.00013159319
5.5063127e-05 8.414326e-11 2.5664998e-13 2.6672249e-06 1.3689796e-22 2.6683833e-06 1.3376809e-13 2.2600722e-27
1.6881503e-15 2.8811943e-32 1.4137485e-31 1.6455016e-22 1.2629153e-17 7.622087e-05 5.096577e-34 9.995617e-06
2.847e-05 3.9869245e-12 1.0393592e-07 1.3177716e-13 7.9693424e-10 2.090956e-06 2.1879362e-12 5.1634877e-12
5.024006e-22 2.8117664e-10 5.4949817e-07 4.788372e-07 1.1760895e-35 1.7364545e-19 2.1635064e-16 1.9470486e-19
2.0520176e-05 2.3027393e-05 1.6871426e-09 1.7043102e-06 1.198314e-13 5.6168523e-14 6.705895e-13 1.0259744e-05
1.4817948e-10 1.31641274e-23 4.8898353e-13 1.9992395e-10 3.594582e-15 1.0425578e-05 9.908044e-13 1.0817423e-13
1.1997781e-18 3.400745e-23 8.114528e-17 3.0510729e-27 7.986659e-07 1.415682e-17 6.7134456e-14 7.982042e-07
7.1808115e-24

exp_avg f4 [9, 1, 3, 3]
00000000: ed1a 44b5 bea2 b6a6 f568 42af b40e 10a3
00000010: b152 eba9 5fd7 6cae 5776 76ae fba4 66ba
00000020: e05e 9eae 0726 5b2b d54e a629 a230 3428
00000030: f854 032c a3a6 bd2c e0a3 9824 9ef1 1926
00000040: f60b 272b 9b9e 4137 24d0 f137 b1c3 d62a
00000050: 3f69 6431 dcde 9a21 177f 042f a3fb 9a3a
00000060: 1a58 e737 dd22 9432 c3b0 8231 198a e433
00000070: a22e b528 3063 ab39 b15e 5c2e 296b f124
00000080: ce33 b42d 0b48 9920 a58a 3321 698e c328
00000090: f0c2 b62c 379f ca39 cc76 131f 0855 3f34
000000a0: e56e 4a34 d809 112f fb8f 8332 3bdf f22d
000000b0: 6264 b430 5477 17b8 5c16 49ad 10fe bcad
000000c0: 7d09 97a7 c62c e0ae e933 b5b1 9022 c9b1
000000d0: afe3 439c 48d7 b3a9 c8a2 be2e b46c 342c
000000e0: ee15 e837 669c 023b 425c 3832 e048 ea34
000000f0: ee54 b130 8e06 3130 53ff 2b32 c835 2db3
00000100: 768c 1faf 73a9 a3a6 4aa1 46ad a620 21af
00000110: 9255 c4ac b827 81b8 b27b 80ad 8724 2bad
00000120: ab5a f7ab f863 34a8 9ee8 23ad a9c1 daa4
00000130: 693a 5db9 f51f b5ac 006b faad 52f4 31b3
00000140: 0dd0 a5a7
-7.305487e-07 -1.2672898e-15 -1.7681485e-10 -7.809369e-18 -1.0450441e-13 -5.3851475e-11 -5.603903e-11 -0.0008798388
-7.201861e-11 7.7857203e-13 7.385556e-14 1.0002553e-14 1.8663387e-12 5.3902035e-12 6.619711e-17 5.340999e-16
5.934692e-13 1.1540625e-05 2.8826362e-05 3.8149825e-13 3.3238192e-09 1.0494436e-18 1.2050481e-10 0.0011824261
2.7578371e-05 1.7245322e-08 3.8035934e-09 1.0642197e-07 2.011526e-14 0.00032689562 5.010631e-11 1.04698626e-16
2.0486637e-11 2.5966882e-19 6.0831054e-19 2.171111e-14 5.1943935e-12 0.00038647067 3.1226727e-20 1.7819195e-07
1.8853059e-07 1.319117e-10 1.5315882e-08 2.7611349e-11 1.3125254e-09 -3.611234e-05 -1.1430492e-11 -2.1485952e-11
-4.1921206e-15 -1.0194294e-10 -5.273695e-09 -5.8537992e-09 -6.481436e-22 -7.986542e-14 8.6691154e-11 2.563988e-12
2.7666767e-05 0.0019929647 1.0731187e-08 4.363892e-07 1.2902583e-09 6.440154e-10 1.0011564e-08 -4.0328615e-08
-1.4510868e-10 -1.1356326e-15 -1.129081e-11 -1.4654464e-10 -5.5801553e-12 -6.1585975e-05 -1.4606847e-11 -9.728335e-12
-1.7575571e-12 -1.00136845e-14 -9.317129e-12 -9.48705e-17 -0.00021097962 -5.1478774e-12 -2.8469227e-11 -4.1433232e-08
-4.602227e-15

exp_avg_sq f4 [9, 1, 3, 3]
00000000: b5a8 6135 2651 ba10 fee7 c827 68d6 6709
00000010: 4a20 1b17 929f ef21 d422 8221 d427 1437
00000020: 2d4b 2923 886b 8525 e497 941f e8b7 8c1c
00000030: adb3 4327 c84c 482a c951 4515 a0eb 4818
00000040: dd8f 0525 a7d1 4d36 8c15 a332 6fad 9618
00000050: a69c b327 79bb 1c06 7a69 9723 c712 1438
00000060: cb7a a333 da65 8e2a fe8e c025 9529 8432
00000070: 3e5d 7116 8734 f935 75ba 2226 77e0 d50e
00000080: 56ba 4e23 0670 2c06 1095 6c07 4286 8c16
00000090: 63d1 f81d ada9 db36 faf4 8602 f395 ba33
000000a0: 8b2c b334 5860 ba28 239f 2130 ec23 0825
000000b0: 0840 a42c e2f8 ce35 ef6c 3227 4918 0628
000000c0: 661f f816 a51c c82a 05f4 3730 50ab 1e30
000000d0: da08 6800 1652 381b 0fde 3921 17cf 2d1c
000000e0: 621b f331 a49e 1d38 4794 7d2f 702b 8b34
000000f0: 90c5 3b27 17ae f426 f331 9525 aca4 4234
00000100: dc4a 242b 7403 4514 a2d0 6526 fcdf 542c
00000110: ba83 d823 06d4 d635 c790 ea27 0e33 1b27
00000120: 2f1b 441d 9e9c aa15 7264 9420 85b3 fa0e
00000130: 686c b234 2cd1 261f 76b3 b625 3844 7631
00000140: e711 9014
8.406453e-07 7.3489093e-29 5.5762678e-15 2.7906427e-33 5.0123956e-25 1.6237508e-18 8.818362e-19 8.830761e-06
9.1774274e-18 2.3144688e-16 6.293172e-20 9.311962e-22 2.7159089e-15 1.7790207e-13 3.984835e-26 2.5968354e-24
1.1584654e-16 3.0669414e-06 1.8985496e-08 3.8949214e-24 4.985232e-15 2.9478072e-35 1.6416124e-17 3.5303437e-05
7.612615e-08 2.529494e-13 3.3403586e-16 1.5385732e-08 1.9497247e-25 1.8567233e-06 5.6457737e-16 5.2724706e-30
1.12067405e-17 3.2431906e-35 1.7798472e-34 2.2702948e-25 6.5861554e-21 6.5464615e-06 1.983014e-37 8.6885755e-08
3.3373757e-07 2.069193e-14 5.8797606e-10 1.180829e-16 4.6682692e-12 1.542063e-06 2.4761515e-15 7.44376e-15
4.0086376e-25 3.5547013e-13 6.6921785e-10 5.7723515e-10 9.554067e-39 1.5246647e-22 6.297433e-19 5.7508556e-22
7.075344e-09 3.7579463e-05 2.3062895e-10 2.5922373e-07 2.6058562e-15 1.6978088e-15 2.5881227e-16 1.8127565e-07
5.836839e-13 9.946639e-27 7.9733085e-16 3.0251348e-12 2.3474555e-17 1.6005949e-06 6.5105015e-15 2.1538248e-15
2.5954438e-21 6.890955e-26 2.5138644e-19 6.180263e-30 3.323396e-07 3.532489e-20 3.1693575e-16 3.583649e-09
1.4547345e-26

exp_avg f4 [150, 3, 3, 3]
00000000: 8037 ddb9 42a8 63b8 85df b1b9 8624 b6b9
00000010: 7cfa c536 70dd d7b9 9a37 beb8 09fb c0b8
00000020: 4f67 84b9 e9e7 e638 968e 36b9 2295 e0b8
00000030: 793f 9bb8 6306 e3b9 394e d0b8 bf83 8db9
00000040: 4ae0 b2b9 bd57 63b9 e4fc 92b5 b40f 43b5
00000050: 50df 7f36 4ec2 e82f 1bf5 c135 0400 0080
00000060: 441c 9934 d945 0533 2fdf d236 05a8 b4b8
00000070: 9c53 9e35 77e5 09b9 208d 19b9 40be 9436
00000080: 89c3 2db9 d5e7 ed37 9f60 aeb7 5224 5ab8
00000090: 5515 9938 3b30 bd38 0c21 43b8 b6c5 8db7
000000a0: 35e0 18b9 79a6 5b36 7cb9 30b9 30d6 71b9
000000b0: 8de0 15b9 6706 60b5 4ce9 1faf ea9a 18af
000000c0: 7a0b 2bb3 6bb3 3db6 691b 79b0 cadb 9726
000000d0: 640a 20b4 2b00 812a 4643 0000 be27 0000
000000e0: d5e5 0200 6de3 1d80 8430 0000 37b4 3700
000000f0: d0b0 0301 0400 0080 5b1f 1c01 0000 0000
00000100: ff17 0000 51d9 8614 5843 3900 a1cf 1400
00000110: 51d9 8614 0000 0000 5d82 1801 51d9 8614
00000120: 0000 0000 0400 0000 0000 0000 0000 0000
00000130: 0400 0000 0400 0000 0000 0000 ab80 0180
00000140: 51d9 8614 b11a 6eb9 6d0a e6b9 41e8 84b8
00000150: 90ee e1b9 05fe a735 bc25 feb9 8f05 85ba
00000160: e929 1aba 0b2d 30ba db63 34ba 9548 09ba
00000170: 6e22 3fba 1577 eab9 0188 69ba 18ba d9b9
00000180: 15c5 2939 9998 d6b9 32a5 86b9 49f3 3eb6
00000190: 91fb 86b4 77b4 2636 f2ee bf32 77d2 00b7
000001a0: 4908 66b5 3144 7032 e588 d132 95fb 8b35
000001b0: 8c83 ee39 3a26 c237 0141 15b9 c36c dbb8
000001c0: f2a8 0fb6 77dd 9db8 f40d adb9 6dc6 1737
000001d0: 904b ad38 d318 cfb9 cb6f 77b8 d980 1539
000001e0: 2849 7539 aa46 e9b7 5856 3038 6288 c839
000001f0: 40e3 07b9 d785 3cb9 19c6 c232 4d1b 2b33
00000200: 9648 b136 6e12 0934 cafa 95b6 a0de fab4
00000210: ec02 b9b1 ca4a 96b4 4968 d636 dbca 7e39
00000220: 278c 7939 e9e2 aeb9 8342 a5b5 6f2f 3432
00000230: f30d 8138 4da2 25b7 8a74 0d3a 1139 183a
00000240: 8a22 7d37 905d 0fb9 7ed4 a939 377e c239
00000250: ae7c 9239 7b79 4839 0d1f e739 94dd c4b8
00000260: 845e 6fb9 93b9 9434 ff46 5b30 7bda e3b5
00000270: 97d5 d5b4 d0b5 0135 d092 0d35 dbfa d6b5
00000280: 7998 0635 2887 6d33 83c2 ab39 1308 e739
00000290: 4213 b938 6cde 00b9 1994 eab6 44ae ccb5
000002a0: ec51 8339 72e9 203a a6f0 bdb6 c4e1 6838
000002b0: c331 78b8 152c b8b7 2655 1d3a 047e c539
000002c0: f856 9539 1fa6 cb39 b730 8a36 c973 b239
000002d0: d91b 2f31 893f 70b5 e927 8230 67e9 deb6
000002e0: 43ac 3937 fa50 f934 729d bab5 cfd6 efa6
000002f0: fafa 00b7 9663 56b9 ac18 04b8 ad22 edb9
00000300: 76bd d2b8 c3df 0335 f291 5db9 8f44 30b8
00000310: 0451 e0b8 c1fc ebb8 df16 2a38 1bfe b3b8
00000320: a76a 2039 b6c5 55b9 00e2 8cb9 ad34 c1b8
00000330: 0182 5bb9 e568 07b9 73ec 0bb9 18fe 3c25
00000340: fa9d 1ab5 70b3 2135 e06a e331 f4c3 6535
00000350: 73c2 ad23 05a5 aa35 8a7a 3eb0 f0ce db25
00000360: 6571 fbb8 3537 66b9 0cee a439 15f1 8e39
00000370: d357 a3b6 fd59 2c39 cd05 2e38 3a04 72b9
00000380: 41e7 1339 1f64 8139 4224 a239 b49a 3db9
00000390: 93e8 48b9 475d 8838 c389 b5b8 bc0c 53b9
000003a0: dae7 1739 df84 79b9 f9e7 0a36 3b5e 2134
000003b0: 53a2 cdb3 7f5e dd33 aa45 a2b6 2fdf c5b4
000003c0: 1245 4034 282d 8933 478b 43b4 232d 013a
000003d0: 7d90 7bb9 73e3 8a37 cf97 7f39 0df5 9fb6
000003e0: 99fb 8d39 5103 8a39 35ba 8bb9 b96a 45b8
000003f0: eddf ddb9 8a57 8c39 5b78 0139 1af6 4ab9
-0.00042193756 -5.427772e-05 -0.00033926606 -0.00034740957 5.9002177e-06 -0.0004117298 -9.0702626e-05 -9.2020324e-05
-0.00025253973 0.00011010451 -0.0001740999 -0.000107089305 -7.402799e-05 -0.00043301572 -9.932783e-05 -0.00026991774
-0.00034117914 -0.00021681092 -1.0951449e-06 -7.266601e-07 3.8127946e-06 4.2338616e-10 1.4450956e-06 -6e-45
2.8519037e-07 3.103e-08 6.2844697e-06 -8.614365e-05 1.1796251e-06 -0.0001315082 -0.0001464379 4.4328917e-06
-0.00016571408 2.8360557e-05 -2.0787409e-05 -5.2009076e-05 7.299582e-05 9.021206e-05 -4.65224e-05 -1.6900576e-05
-0.00014579373 3.2730443e-06 -0.00016853766 -0.00023063342 -0.00014293399 -8.345582e-07 -1.454385e-10 -1.3879356e-10
-3.9824478e-08 -2.826763e-06 -9.0624624e-10 1.0537304e-15 -1.4904941e-07 2.291512e-13 2.4133e-41 1.4257e-41
2.66119e-40 -2.744814e-39 1.7404e-41 5.115601e-39 2.4187757e-38 -6e-45 2.867517e-38 0.0
8.608e-42 1.3616258e-26 5.258782e-39 1.911193e-39 1.3616258e-26 0.0 2.8011522e-38 1.3616258e-26
0.0 6e-45 0.0 0.0 6e-45 6e-45 0.0 -1.37993e-40
1.3616258e-26 -0.00022707392 -0.00043876786 -6.337511e-05 -0.00043093087 1.2516399e-06 -0.0004847477 -0.0010148751
-0.0005880879 -0.0006720579 -0.00068813347 -0.0005236951 -0.0007291202 -0.0004472068 -0.0008908511 -0.00041528116
0.00016190515 -0.00040930955 -0.00025681552 -2.8453817e-06 -2.5142484e-07 2.4840972e-06 2.2343986e-08 -7.678397e-06
-8.5693733e-07 1.39853435e-08 2.4393055e-08 1.0429527e-06 0.00045492908 2.3144403e-05 -0.00014233963 -0.00010462992
-2.1407e-06 -7.5275944e-05 -0.00033007527 9.046501e-06 8.2633574e-05 -0.00039500612 -5.8993504e-05 0.00014257747
0.00023392274 -2.780867e-05 4.2042084e-05 0.00038248586 -0.0001295926 -0.00017978936 2.2674657e-08 3.983887e-08
5.283461e-06 1.2765824e-07 -4.4697417e-06 -4.672811e-07 -5.384541e-09 -2.7994093e-07 6.3898374e-06 0.00024298897
0.00023798701 -0.00033356927 -1.2312815e-06 1.0488164e-08 6.1537976e-05 -9.872555e-06 0.0005396089 0.00058068434
1.5088017e-05 -0.00013672397 0.0003239251 0.000370966 0.00027940184 0.00019118741 0.00044082888 -9.3872804e-05
-0.00022828026 2.770217e-07 7.977263e-10 -1.6976404e-06 -3.982975e-07 4.8320817e-07 5.2740234e-07 -1.6017251e-06
5.0140767e-07 5.5303786e-08 0.00032760584 0.0004406577 8.8250745e-05 -0.0001228989 -6.9909843e-06 -1.5249902e-06
0.00025047304 0.00061383017 -5.660654e-06 5.552337e-05 -5.9174152e-05 -2.1955037e-05 0.0006001763 0.00037668657
0.0002848429 0.00038842947 4.1183916e-06 0.00034037072 2.5481681e-09 -8.9499423e-07 9.470088e-10 -6.643287e-06
1.1066967e-05 4.6438782e-07 -1.3903903e-06 -1.664218e-15 -7.68783e-06 -0.00020445729 -3.149423e-05 -0.00045229998
-0.0001004887 4.912692e-07 -0.00021130571 -4.202552e-05 -0.00010696243 -0.00011252752 4.055246e-05 -8.582716e-05
0.0001529852 -0.00020386916 -0.00026871264 -9.212769e-05 -0.00020933898 -0.0001291368 -0.00013344157 1.6392491e-16
-5.7599357e-07 6.023829e-07 6.61872e-09 8.55943e-07 1.883905e-17 1.2714014e-06 -6.9295736e-10 3.813067e-16
-0.00011989734 -0.00021955075 0.00031457876 0.0002726397 -4.8680026e-06 0.00016436721 4.1490235e-05 -0.00023080493
0.00014105161 0.00024679393 0.00030926062 -0.00018082076 -0.00019160127 6.5023596e-05 -8.656413e-05 -0.00020127272
0.00014486854 -0.00023795989 2.0698628e-06 1.5028574e-07 -9.575583e-08 1.0308303e-07 -4.836086e-06 -3.6856497e-07
1.7906521e-07 6.3877735e-08 -1.8211459e-07 0.00049276854 -0.00023991051 1.6556796e-05 0.00024375248 -4.767097e-06
0.0002708107 0.00026323882 -0.0002665088 -4.7067853e-05 -0.00042319242 0.00026768103 0.00012347235 -0.00019355901

exp_avg_sq f4 [150, 3, 3, 3]
00000000: cea3 a835 258b f034 ce3b a635 2e0d 1736
00000010: 035f 3f30 91e5 1736 bf58 a635 c7cb 0a35
00000020: bacd c235 491b 1a35 0ee3 b035 0371 2035
00000030: 2e8a 0535 e937 4d36 643a f934 ca42 dc35
00000040: bf1b 3a36 d07f b335 343c 962e 1637 032e
00000050: 9d1c 892e 27fc c82c e67b 1e30 14a0 6e2d
00000060: 33dd d630 b7d1 402d e134 2630 0ad3 1d35
00000070: d110 9434 2230 8035 4153 2136 ff42 e130
00000080: 364d 1b36 f46c 8535 ab83 8a34 d67e 5235
00000090: f5fa 7935 3feb c335 881a 0e35 787d 8434
000000a0: f25f 1f36 9d26 6134 4658 a135 b3aa 2b36
000000b0: 4bb3 c735 e1e5 9d2f 79c4 282f 3906 bd2e
000000c0: 311a ac2f d592 4f31 dd9e 332e ba2e a42d
000000d0: edcc 802f 698d f92e e6f3 192c 5906 ea2a
000000e0: 06a2 102c f4d5 882b dc68 bb23 98ee 252c
000000f0: ecf1 392e e782 1a29 722a 562e 0000 0000
00000100: 0039 902b e772 8e29 72da 232c ddfd 812c
00000110: 8388 ae2b 0000 0000 3264 5a2e 8a38 122b
00000120: 0000 0000 4094 3829 0000 0000 0000 0000
00000130: d426 8028 9e1f 8b24 0000 0000 497a 1629
00000140: 18e3 2f26 6934 ad35 1be6 4936 a075 6d36
00000150: 86c6 3236 ff66 4d2f d8d7 2d36 d38c 4336
00000160: 5101 4536 8a32 4f36 0443 8936 c88a 2e36
00000170: 99a8 0536 5d78 3336 e94a c136 3604 4936
00000180: 3ab2 1436 9e11 3336 68dc 1336 081c d72e
00000190: 0eda a12d 39c2 3430 a14e 9a2d 5a48 8b30
000001a0: 4cd0 042f bac8 222e bda9 2a2d 631a 0c2d
000001b0: cdce 6535 13f5 e435 633a 9335 beee 9134
000001c0: 8e2c a62f a89c 6134 0a60 5635 1d1e e335
000001d0: e70a ce35 011f 6935 b1ce 7334 ea34 8235
000001e0: 068a b835 5917 0536 570f ec35 7473 8535
000001f0: 1348 9334 27da 4435 9b55 462d 69d5 0b2e
00000200: b4a4 2230 0217 292e aba3 7930 2fd3 a32e
00000210: 9f7a 8c2c 93ad c12d e0dc 2b30 7166 4936
00000220: c2e4 a336 e12b 4136 0dbd 4c34 ae9e 282e
00000230: 5d74 1b34 7429 4136 7803 ab36 9553 8536
00000240: d53a 6735 a76d fe34 aaa8 3135 f832 a436
00000250: 08a5 ab36 daf1 8e36 42c0 8335 3a64 0a35
00000260: 486d 8533 7d42 302f be7b a82d 56c3 a42d
00000270: 052a 3530 72bb 7d30 b051 5d2f 570a f12d
00000280: de86 822f b038 402d 2cc8 1636 97ca 8736
00000290: 344a e635 3dc2 a834 5e62 dc2f d4be 6134
000002a0: bcbd c935 5e88 7536 6267 c634 ac43 ec35
000002b0: 8602 2635 d759 0634 43e0 9c36 22df 6736
000002c0: ead3 8d35 dd2d 2836 ee4f 7831 aa98 4c35
000002d0: bed8 532d f841 832f b73c 242d 82a6 8630
000002e0: 0dc5 c231 7e35 132e e4bd 0830 9c32 1e2b
000002f0: 3695 e330 c0c3 8435 1b8e 2735 e861 8a35
00000300: 8e09 cc35 00bc ab2f 8f4e d035 3c41 f234
00000310: 5d4b 2d35 8841 9035 d7cc 3035 0771 9935
00000320: 8c1b 4035 8fc7 2335 fd6c 1336 67bc 1935
00000330: 180e e635 a407 df35 fe35 7835 1642 c72c
00000340: 1973 2e2e 210e 032e 9b30 172d ba65 632f
00000350: 5c4b eb2c d17f 9830 181d 322d 3aab 182d
00000360: 2cc3 2536 5c66 3736 fc96 3936 5aab 3136
00000370: a913 ad30 b80d 3336 acc8 cb35 2a91 3936
00000380: b48a fa35 0cc4 de35 d63b 4f36 e449 2836
00000390: 8757 1736 3e80 9c36 91cc 3d36 a768 5c36
000003a0: dda6 1036 054e 3b36 4977 b82e c97e 402f
000003b0: 1633 4c2f eec7 522e e437 ef30 e340 ad2e
000003c0: df8f ec2e 8f1e 3d2e 4cff 1e2e 580d 8b35
000003d0: f4c9 3d36 c362 b435 b896 ff35 f46c 4b30
000003e0: 92f3 f735 7c57 0836 c399 3f36 daac 0836
000003f0: f244 6436 305f fe35 b41a 4b36 1a99 2236
1.2564649e-06 4.4804725e-07 1.2385369e-06 2.2508425e-06 6.9620415e-10 2.2634379e-06 1.2393792e-06 5.170554e-07
1.4514001e-06 5.7409176e-07 1.3179103e-06 5.97691e-07 4.974744e-07 3.0579924e-06 4.642235e-07 1.6410715e-06
2.773231e-06 1.3373738e-06 6.8319045e-11 2.9834878e-11 6.2351214e-11 5.7123364e-12 5.7656135e-10 1.3564278e-11
1.5633418e-09 1.09605025e-11 6.0465594e-10 5.879416e-07 2.7579384e-07 9.550752e-07 2.403933e-06 1.6389946e-09
2.3141743e-06 9.940982e-07 2.5800304e-07 7.8415667e-07 9.312492e-07 1.4597098e-06 5.293773e-07 2.4678207e-07
2.3748694e-06 2.0968805e-07 1.2021126e-06 2.5580346e-06 1.4878837e-06 2.8721472e-10 1.5349312e-10 8.59583e-11
3.1305228e-10 3.0205929e-09 4.0840987e-11 1.8665392e-11 2.3428673e-10 1.13483285e-10 2.1877999e-12 4.1571155e-13
2.0553572e-12 9.722765e-13 2.031899e-17 2.3580356e-12 4.2279e-11 3.430841e-14 4.8695666e-11 0.0
1.0247636e-12 6.325999e-14 2.3284955e-12 3.694585e-12 1.2401333e-12 0.0 4.9656453e-11 5.1948083e-13
0.0 4.0984794e-14 0.0 0.0 1.4227694e-14 6.03352e-17 0.0 3.3412756e-14
6.102309e-16 1.2904758e-06 3.0085273e-06 3.5384219e-06 2.6639623e-06 1.8681233e-10 2.5904646e-06 2.9139235e-06
2.9356054e-06 3.0874821e-06 4.09072e-06 2.6008802e-06 1.9916681e-06 2.674314e-06 5.760569e-06 2.9953785e-06
2.215746e-06 2.6683333e-06 2.2033e-06 9.7820474e-11 1.8400417e-11 6.5759626e-10 1.7542691e-11 1.0134145e-09
1.2079332e-10 3.7012816e-11 9.701071e-12 7.963938e-12 8.561008e-07 1.705865e-06 1.0969346e-06 2.7182062e-07
3.0226882e-10 2.1011749e-07 7.986097e-07 1.6921582e-06 1.5351369e-06 8.684438e-07 2.2706332e-07 9.701155e-07
1.3749238e-06 1.9832135e-06 1.7587835e-06 9.942873e-07 2.7433325e-07 7.3333143e-07 1.1274005e-11 3.1794487e-11
5.9169314e-10 3.8446586e-11 9.081826e-10 7.4498956e-11 3.992653e-12 2.2018642e-11 6.252332e-10 3.0010963e-06
4.8844095e-06 2.8784782e-06 1.9067757e-07 3.8339713e-11 1.4477833e-07 2.878337e-06 5.096601e-06 3.973439e-06
8.613982e-07 4.739097e-07 6.6183077e-07 4.8935144e-06 5.1154093e-06 4.260085e-06 9.816215e-07 5.1554855e-07
6.213173e-08 1.6030728e-10 1.9154341e-11 1.8731388e-11 6.590713e-10 9.230724e-10 2.0128854e-10 2.740312e-11
2.374269e-10 1.0926524e-11 2.2468257e-06 4.046898e-06 1.7157931e-06 3.1433765e-07 4.008766e-10 2.1024181e-07
1.5030887e-06 3.658722e-06 3.6955595e-07 1.7603065e-06 6.184349e-07 1.2512406e-07 4.67527e-06 3.4551563e-06
1.0566994e-06 2.5060647e-06 3.6134185e-09 7.621808e-07 1.2042088e-11 2.3875635e-10 9.335802e-12 9.797108e-10
5.668545e-09 3.347144e-11 4.974636e-10 5.620311e-13 1.6558832e-09 9.891737e-07 6.241914e-07 1.0310296e-06
1.5201965e-06 3.12383e-10 1.5520071e-06 4.5123477e-07 6.455719e-07 1.0747908e-06 6.586319e-07 1.1432284e-06
7.156566e-07 6.101263e-07 2.1968146e-06 5.7271103e-07 1.7140437e-06 1.6617018e-06 9.246577e-07 5.663257e-12
3.9665247e-11 2.97985e-11 8.594149e-12 2.068167e-10 6.6874683e-12 1.1095783e-09 1.0124589e-11 8.67822e-12
2.470052e-06 2.7328706e-06 2.7655033e-06 2.6474795e-06 1.2592994e-09 2.6681064e-06 1.5183082e-06 2.7651645e-06
1.8666819e-06 1.6597346e-06 3.0880233e-06 2.507696e-06 2.25517e-06 4.6640916e-06 2.8282268e-06 3.284347e-06
2.15548e-06 2.7910585e-06 8.3885406e-11 1.7507341e-10 1.8571841e-10 4.7926045e-11 1.7405424e-09 7.8786554e-11
1.0757594e-10 4.3000766e-11 3.615179e-11 1.0360191e-06 2.8280747e-06 1.3439789e-06 1.9042845e-06 7.40058e-10
1.8473822e-06 2.0316502e-06 2.855072e-06 2.0366192e-06 3.401478e-06 1.8952178e-06 3.02649e-06 2.4228998e-06

exp_avg f4 [150]
00000000: 40bb 2aba 5eb4 99b9 51d9 8614 a81c 73ba
00000010: 6683 dab7 2a1b f139 e484 b939 3ba4 85b9
00000020: 0a17 0f39 f1c2 1d36 8c66 acb9 f4cf d6b9
00000030: 4306 463a c371 ebb9 add4 c2b7 05ae 12b9
00000040: 5014 07b9 646d 483a 9721 fab7 9c55 b239
00000050: f9f1 c0b9 8485 82ba 1a5a 223a f1fb e738
00000060: 8510 61b8 e974 e8b8 cc5d d5b9 d8d1 8c39
00000070: f26e 463a 23f0 3039 9a6d 2d3a cc40 3e39
00000080: 3c6c 9b38 fb86 2cba f727 7cba 1e95 5db8
00000090: 72c2 37b8 0374 8ab8 d0e9 69b7 8e33 f4b8
000000a0: 38d5 933a 139f 4b38 3422 05ba 690f f7b9
000000b0: d985 1439 0809 df38 8bf8 f239 e09a 9438
000000c0: b866 333a 563c 313a 732c fa36 222c 8b38
000000d0: d76c f739 60a3 2bb7 6664 30b9 15a6 49b9
000000e0: 8991 8d39 af9d 133a 675a ab3a 6626 9839
000000f0: 1798 043a 490d 5f39 408d 9fb9 ea23 5639
00000100: dacf 99b8 5e34 35b9 08b1 6439 368a e8b8
00000110: 2b1b e9b8 e91e 97b9 291d 4ab9 9acf d038
00000120: eab0 623a 76f6 0138 6a87 af39 96d3 5d39
00000130: b645 e839 0c36 4039 f111 8bba 26ac d5b8
00000140: 683a 0c39 eb07 36ba ceba 953a 60a3 6a38
00000150: 23b9 1cba 1676 33ba 6fa5 50b9 a670 1638
00000160: 3534 b939 02f7 2739 38fa e339 93c1 413a
00000170: 99d1 c538 80f6 c6b7 b6ab cd39 083b 8ab9
00000180: 0439 85b9 6674 9f37 398d d9b9 c9d5 0ab9
00000190: eecd c9b9 5c1c d9b9 3f1c e238 46ce 4bb9
000001a0: 35fe c7b9 6d00 863a f5b3 2138 8223 c3ba
000001b0: 27d9 5039 9985 0939 0398 7cb8 fbaa 6a39
000001c0: 868d a139 0fb1 6db9 2a7f 26b9 c6d9 90b9
000001d0: 3f66 8938 f539 283a ad6a 413a 1840 02b9
000001e0: cbcf d039 e1e2 21b9 cfe3 2b3a 4b4d 9eb9
000001f0: 648f 31ba 9d4c c839 26f4 52ba 2a70 a2b9
00000200: e857 21b9 10f4 ddb8 6bf2 d538 ad3a cb39
00000210: 2d35 13b9 38d9 11ba e90c 52b8 85eb 5cba
00000220: 23bd 8cba ef77 9a39 6578 79b9 2cdb f338
00000230: 23e9 0139 d6e0 c539 1f8d 9bb8 338b 81b8
00000240: 7041 d139 3f4e 5739 ab11 2c39 f072 c1b9
00000250: f8fa 3b39 9040 a5b8
-0.0006512888 -0.00029316818 1.3616258e-26 -0.00092739845 -2.6048812e-05 0.0004598734 0.0003538496 -0.00025490098
0.00013646125 2.3508294e-06 -0.000328828 -0.00040972198 0.00075540337 -0.00044907452 -2.3225637e-05 -0.00013988472
-0.0001288217 0.0007645695 -2.9817964e-05 0.0003401459 -0.00036801377 -0.0009958004 0.0006193236 0.00011061866
-5.3659565e-05 -0.00011084398 -0.0004069641 0.00026859227 0.0007569633 0.00016874126 0.0006615758 0.00018143951
7.411136e-05 -0.0006581393 -0.00096189923 -5.2829382e-05 -4.381169e-05 -6.601962e-05 -1.3942321e-05 -0.000116444295
0.0011278754 4.854712e-05 -0.0005078644 -0.00047122993 0.00014164242 0.00010635151 0.00046343016 7.086038e-05
0.00068436144 0.0006761005 7.455755e-06 6.636257e-05 0.00047192603 -1.0230433e-05 -0.0001682207 -0.00019230724
0.00027002048 0.00056311017 0.0013073207 0.00029020308 0.00050580635 0.00021271886 -0.00030432083 0.0002042201
-7.334324e-05 -0.00017281013 0.00021809724 -0.00011088366 -0.00011115366 -0.00028823994 -0.00019275084 9.956882e-05
0.0008647578 3.098553e-05 0.00033479492 0.00021155024 0.00044302427 0.00018330681 -0.0010610205 -0.000101886966
0.00013373198 -0.0006943929 0.001142347 5.5942102e-05 -0.0005978515 -0.0006845904 -0.00019898055 3.58677e-05
0.00035324847 0.00016018379 0.00043483241 0.00073912105 9.4327326e-05 -2.3718225e-05 0.00039228582 -0.00026365393
-0.00025410217 1.900848e-05 -0.00041494684 -0.00013240347 -0.00038491137 -0.00041410595 0.00010781781 -0.00019436431
-0.00038145637 0.0010223516 3.855299e-05 -0.0014887901 0.00019917321 0.00013115107 -6.0223054e-05 0.00022379674
0.00030813756 -0.00022668041 -0.00015878366 -0.00027628074 6.551714e-05 0.00064173277 0.00073782617 -0.00012421643
0.0003982767 -0.00015438675 0.00065570784 -0.00030193696 -0.0006773381 0.00038204054 -0.0008047245 -0.00030982617
-0.00015386904 -0.000105835614 0.00010201785 0.00038762894 -0.00014038822 -0.0005563679 -5.0079925e-05 -0.0008427429
-0.001073752 0.00029462526 -0.00023791341 0.00011627967 0.00012389249 0.00037742284 -7.417262e-05 -6.177127e-05
0.0003991234 0.00020533147 0.0001640978 -0.00036897464 0.00017927203 -7.879839e-05

exp_avg_sq f4 [150]
00000000: a7a8 6636 fdb7 3336 e513 442e de87 c736
00000010: eb29 0b36 9295 a936 2227 9d36 eaa9 1236
00000020: bf75 9636 6bb2 9436 ace8 0236 7ef0 9936
00000030: e6bd 3337 9a2e 2836 f3af 2a35 a602 ac35
00000040: a6c8 2a36 6841 8936 3854 c435 730f 8b36
00000050: 1d4b c335 99cd a936 68e3 6736 8616 5435
00000060: ecb0 b535 8938 b034 1174 c235 8509 dd34
00000070: c94d 5436 1306 be35 1bb6 9d36 d289 c434
00000080: b258 9f35 9124 2936 eb83 4836 0dc1 e635
00000090: 2ab9 2a36 d4b4 1535 16f4 0936 35a6 0b36
000000a0: b8e8 4b36 a2c9 6b36 6725 b036 8102 6336
000000b0: b8fd 7034 e3c6 5735 bdb2 2536 9625 d434
000000c0: 63c1 d035 328c 3636 ab4b c433 69ce 8336
000000d0: aa62 0136 e1f1 c435 2eee 0f36 166c 4d35
000000e0: 55b6 6b36 0878 a836 9ac6 d236 95be 8f36
000000f0: 4e02 2036 9fcf 7a36 18f5 6935 3c10 0e37
00000100: 11f4 6a35 fab8 9c35 10fa 0536 f95a c135
00000110: 2f3d a335 b05b 0b36 c408 5835 46f1 0235
00000120: 31d0 c136 17cc 3336 afa1 b935 a34b df36
00000130: 34d1 0e36 45d0 a335 6ded af36 3f57 c235
00000140: 1d92 d333 a58b 6836 c2e2 9d36 64be 7736
00000150: cb47 b836 c2f8 a136 ca67 3735 ec50 9734
00000160: f8b3 7e36 066d ed35 3ee5 a235 beb4 b536
00000170: e866 ab34 df0b b334 4164 9a36 6b8b cb35
00000180: a9bf 1236 5392 9334 a1c1 4036 41dc a335
00000190: 9c23 d335 d869 2436 1d27 0836 6483 c035
000001a0: 2b22 8236 7f72 7336 ba5f 8e34 eae5 fe36
000001b0: 553e 9736 42f7 3d36 c672 ca35 a724 6635
000001c0: 2eef 0337 7f77 4b35 9a41 9535 8b7c 2e36
000001d0: 17df 3534 250b 2636 6459 1b36 5678 8236
000001e0: 94bc 5736 aad5 f035 8999 9136 fe7d 2236
000001f0: 280a 8b36 1474 0836 fdd2 8136 54c4 2036
00000200: f6a1 3536 5d5a 7c35 3bea 5235 81f3 3736
00000210: 11dd e335 94c2 c935 d4a5 0735 8711 5536
00000220: cc9f b736 b190 9535 369a 3136 a143 8635
00000230: 3c09 5a35 587e 2235 689f 4534 0e3a a334
00000240: 78c4 0a36 cbe3 6f35 d45b d535 98db 4435
00000250: ad6b 9f35 1b1c cb34
3.437084e-06 2.6780174e-06 4.458291e-11 5.946479e-06 2.0737014e-06 5.0540048e-06 4.6835203e-06 2.1854598e-06
4.484056e-06 4.4315143e-06 1.9506942e-06 4.5877523e-06 1.0713446e-05 2.5061076e-06 6.3585975e-07 1.2815769e-06
2.5448767e-06 4.0905325e-06 1.4627649e-06 4.1443213e-06 1.4550493e-06 5.060527e-06 3.455405e-06 7.900893e-07
1.3537042e-06 3.282369e-07 1.4487906e-06 4.1171384e-07 3.1635739e-06 1.4157871e-06 4.7001645e-06 3.6608122e-07
1.1872237e-06 2.5204247e-06 2.9879109e-06 1.719252e-06 2.5439754e-06 5.5769965e-07 2.0556668e-06 2.080936e-06
3.0384817e-06 3.5135095e-06 5.249563e-06 3.3827093e-06 2.2444044e-07 8.038316e-07 2.4690955e-06 3.9515425e-07
1.5553491e-06 2.7201718e-06 9.140725e-08 3.9281335e-06 1.9279928e-06 1.4673534e-06 2.14473e-06 7.6525737e-07
3.512386e-06 5.0207636e-06 6.281608e-06 4.2839188e-06 2.38432e-06 3.7373754e-06 8.715592e-07 8.467639e-06
8.7526956e-07 1.1676741e-06 1.99641e-06 1.4406097e-06 1.2162253e-06 2.0765983e-06 8.0479026e-07 4.8779873e-07
5.776085e-06 2.6791874e-06 1.383063e-06 6.654723e-06 2.1281421e-06 1.2205061e-06 5.2430464e-06 1.4479518e-06
9.852031e-08 3.4651978e-06 4.7053627e-06 3.691669e-06 5.491985e-06 4.827133e-06 6.8323845e-07 2.818482e-07
3.7953705e-06 1.7689606e-06 1.2136659e-06 5.4152615e-06 3.1926106e-07 3.3349986e-07 4.6012287e-06 1.5165255e-06
2.1867256e-06 2.7487349e-07 2.8722936e-06 1.2208549e-06 1.5731089e-06 2.4499514e-06 2.0288346e-06 1.4343354e-06
3.8782796e-06 3.6276467e-06 2.651921e-07 7.5965554e-06 4.507407e-06 2.8307118e-06 1.5083576e-06 8.5735013e-07
7.863897e-06 7.579728e-07 1.1120458e-06 2.6000514e-06 1.6938098e-07 2.4742415e-06 2.3148832e-06 3.888311e-06
3.2147263e-06 1.7943578e-06 4.3392106e-06 2.4213218e-06 4.143705e-06 2.0333146e-06 3.869062e-06 2.3956136e-06
2.7065375e-06 9.400881e-07 7.8571946e-07 2.7410863e-06 1.6977157e-06 1.5032297e-06 5.053273e-07 3.1749676e-06
5.472428e-06 1.1143476e-06 2.6464818e-06 1.0003461e-06 8.1224766e-07 6.053356e-07 1.8405046e-07 3.0403356e-07
2.0677962e-06 8.936592e-07 1.5896462e-06 7.333524e-07 1.1877761e-06 3.7832146e-07
