calvin/data/gridworld/MazeMap_15x15_vr_2_4000_15_500/models/CALVINConv2d_k_60_i_3_h_150_adam_0.005_0.1_0.25_0207_205400_936487/epoch_001/checkpoint.pt (torch, 78251 bytes, 18 tensors)

w_motion f4 [9, 1, 3, 3]
00000000: 64a0 a53f 7141 42bf 0334 ea3e 5f45 a2bf
00000010: a891 a2be a578 a63e b8a4 a53e 5654 f73f
00000020: 7742 b73e 54d0 453e cdd9 7cbd d4c2 86be
00000030: 68a3 933e c0bf d13e f6e5 43bf 1a72 0ebf
00000040: a4a4 263e 7242 e23f 3569 db3e 4f5a acbf
00000050: 19bb bbbe 691e 28c0 5f1d 38bf f7c2 593f
00000060: c2ff f13e aba8 5cbe 69b9 f0be d0a7 833f
00000070: 8c5c 10bf 3a16 df3f 85e7 7a3e 987c 8bbf
00000080: 62af 163e 8a47 d8bf 1262 cdbf 7368 0ebf
00000090: c3c6 a8bf 9b5a e53e 48bf 4dc0 1de3 73be
000000a0: afbe 69be 4071 76bf c177 f5be 6aef 8fbf
000000b0: f40d 39bf 8467 c13f 0915 d33d 193c 2b3e
000000c0: 5785 3abf 485d a73e 586d 393f 27be 3b3f
000000d0: fdff 12c0 72d8 ddbe d8a2 37bf 3c83 88bf
000000e0: 3471 0b3f 75aa 743f 8677 2cbe 56c7 5d3e
000000f0: b527 e0be 8997 fabe 1bc8 c8be 0c22 0c3e
00000100: 5884 dbbe 14bd d2bf 9bd2 31bf fa91 d9be
00000110: bad1 45bf 2ace 473f ea22 2abf 4846 35bf
00000120: 0c33 a0be eed3 54bf 62de 0dbe 370d a6bf
00000130: 0dc2 c03f c5ee 4ebe a398 5cbc 7264 3b3f
00000140: c8ba 68bf
1.2939572 -0.75881106 0.45742807 -1.267742 -0.31751752 0.3251392 0.32352233 1.9322612
0.35792896 0.19317752 -0.06173115 -0.26320517 0.28835607 0.40966606 -0.7652277 -0.55642855
0.16273743 1.7676528 0.42853704 -1.346506 -0.36666182 -2.626856 -0.71919817 0.8506312
0.4726544 -0.21548717 -0.47016457 1.0285587 -0.56391215 1.7428658 0.2450238 -1.0897398
0.1471534 -1.6896832 -1.6045554 -0.55628127 -1.3185657 0.4479569 -3.2148 -0.23817106
-0.22826646 -0.96266556 -0.47942927 -1.1244938 -0.72286916 1.5109715 0.103067465 0.16722144
-0.7285971 0.32688355 0.7243247 0.73337024 -2.2968743 -0.43329197 -0.71732855 -1.066505
0.5446961 0.95572597 -0.1684247 0.21658072 -0.43780294 -0.48943737 -0.39215168 0.13684863
-0.42874408 -1.6463952 -0.69461983 -0.42494184 -0.7727314 0.78048956 -0.66459525 -0.70810366
-0.31288946 -0.8313588 -0.13854364 -1.2972783 1.505922 -0.20208271 -0.013464126 0.7320014
-0.90910006

r_motion f4 [9, 1, 3, 3]
00000000: d3b3 7f3e 3d22 3ab0 40aa 873d 37d1 92ac
00000010: ed10 6fb3 c1cf fa39 2ff5 8539 e697 5cbe
00000020: f9ba d23a ea1c d03c 262a 093a 43b0 8538
00000030: 48fe 7f3d 9aaa 193e 98dd df34 30e5 6136
00000040: d384 9c3c 9af3 3bbe e861 3d3e 9a69 f334
00000050: a23c 513c aa97 af2b 04d9 aa3b 12fc e03e
00000060: 9306 a73e 425f 7f3e b802 a23c d9fb 163e
00000070: cc94 4435 d0da b3be 2a7e 0d3d 09d3 8231
00000080: 9d6c d83b 5920 262d 2f96 c22d ab1d 5435
00000090: 010e b6b7 6a38 97be e401 0daa d10f 793e
000000a0: 45d9 743e c66f f23d b811 773e d71c 523b
000000b0: a3f8 643e 0eeb f4be 5ce0 853c a3c9 dc3c
000000c0: ba9f 2735 1159 443d 6ad0 253d 205e 0d3d
000000d0: 3be7 d829 41b7 4e37 a1f7 d63a 053b 5238
000000e0: 024f 563d dba6 7b3d 4f1a 533e d313 6b3e
000000f0: e015 853d 8049 6c3d 123c 7f3c 472d 9b3e
00000100: 2522 803e a71a ad33 34a5 473d f6de 923e
00000110: 5aa3 f43b c52e f2be 81ea d83d 6f64 943d
00000120: af97 bb39 947d fa35 5276 533b 2ed5 9732
00000130: acdb 8840 ebe1 a73a 7d62 7d3d b7e4 e53e
00000140: 3531 6635
0.24970941 -6.771506e-10 0.066242695 -4.172797e-12 -5.5661918e-08 0.00047838505 0.00025550413 -0.2154232
0.0016077451 0.025404412 0.0005232416 6.3747655e-05 0.06249836 0.15006486 4.1698218e-07 3.3661017e-06
0.019106304 -0.18354645 0.1849438 4.5339112e-07 0.012770804 1.2476593e-12 0.0052138586 0.43942314
0.32622203 0.24938682 0.019776687 0.1474451 7.323222e-07 -0.35127878 0.034544148 3.80749e-09
0.0066047446 9.44319e-12 2.2121941e-11 7.9019327e-07 -2.1702612e-05 -0.29535228 -1.2523972e-13 0.2432244
0.23911007 0.11837725 0.24127853 0.0032060647 0.22360472 -0.47835582 0.016342334 0.026951617
6.244478e-07 0.047936503 0.040481962 0.034513593 9.632439e-14 1.2321224e-05 0.0016400703 5.0122868e-05
0.05232144 0.061438423 0.20615505 0.22956781 0.06498313 0.057687283 0.015578287 0.3030798
0.2502605 8.060788e-08 0.048741534 0.2868573 0.007465762 -0.47301307 0.10591603 0.07245719
0.00035780433 1.8663e-06 0.003226657 1.7675656e-08 4.2768154 0.0012808418 0.061861504 0.44901058
8.575328e-07

aa_net.0.weight f4 [150, 3, 3, 3]
00000000: 6a61 523e 1f87 a4be fb71 793e 8c32 123e
00000010: f0d4 9dbd 386d a23d d237 3fbe 2dbf 9bbd
00000020: 7877 afbd 348c e33c afea 46be e6e9 eebc
00000030: e668 70be da1c 183d 9b0b b6be 68b0 8f3e
00000040: a473 363e b399 ed3d 5c0e 0abe 201e a23f
00000050: 4219 35be ad8a b4be 5aa3 98bd 7958 14bf
00000060: a17c 543e c0b1 73bf 3c4b e7bd de17 38be
00000070: a651 c8be 027a aabd 77da 463e 3531 f3bd
00000080: bcc0 11be c75e bfbd 501a 80be 246b 92be
00000090: 5f15 bfbc 7abc 38be 9418 76be 2205 9e3d
000000a0: 0700 313e d05f 753e 5034 373d 57a2 9f3e
000000b0: 18b2 013b e964 1b3e 119d a0be 4c7b 27bd
000000c0: 637c f43d 9a5e c03c 63de d0be 3403 71bf
000000d0: e703 343e 301d 6ebf 238c 47bd 6543 2bbe
000000e0: a27e 82bd ee2e f7bd a794 39be 428b 8cbe
000000f0: b615 2cba d3fd 35be a3b3 eebd 2fbd e9bd
00000100: 1f9e fcbd a90b e83c 3ce0 00be 2950 a63d
00000110: d23b 9e3c 130e 2bbe 2cfa fbbc 325e 5a3d
00000120: 94db 9ebd c8e4 2b3d 7944 3b3b f687 3abe
00000130: 3b83 00be e693 5c3d 373f 29be 397b 5b3e
00000140: 6bb7 293e ae45 cabd 7afd 933c f048 9b3e
00000150: 0249 a13e f27a 4f3e a9b5 703d 6935 3dbd
00000160: 797e 293e 4b07 fd3b 079a dc3e c823 9a3e
00000170: 1ad5 98be 0a6d 1e3e 2a4b 39bb 6f04 123e
00000180: 4c71 94be 3e8d 273e 6a52 c0be 71de 913f
00000190: 4ba0 a03f eacf 57be 2ab6 08bf 6490 473e
000001a0: b71b 803f 9510 6fbf 634f 253f 2b42 61bf
000001b0: 2fc3 1dbe 2050 af3d 8e0c 293d 86ea 893e
000001c0: a7c7 893e 103f 8abe 397f 193e 78b9 953d
000001d0: 0a0f cf3d 9b7a 47be 8d2d e13d 6c82 143d
000001e0: d296 08be c12b 1b3e 5406 023f 2e89 72be
000001f0: 6ea6 de3d 3bfc 83be e0ae 18bf 9654 723f
00000200: 9a09 103f 19cc 0c3e e6ae 763f 8ac9 633f
00000210: 81e5 cbbe ee4d 213f 9849 293e 72dc 923e
00000220: a0a9 bdbd 8631 d53c ae20 26bf 5305 56bf
00000230: 4c43 31bf a6f7 743d b88d e7bd 7d66 9c3e
00000240: 1a95 c3be 728d d23d 3ba8 83be b416 173e
00000250: 5dc9 fbbd 9c8f 06be 7bf4 9cbe 67f7 2a3e
00000260: 6dbe f2be 5212 8a3e 497a 82bf 833d a6bd
00000270: 4e97 3cbe 3368 88bf 38a5 3abf 923c 0c3e
00000280: dcee 993e a44b 0cbc 9cca e23e 0f1b 35be
00000290: ef92 403e 0770 88bc 5f40 e4bd 99c1 d5be
000002a0: e4e7 47be 9c5f fb3d d6f1 06bf 4868 70be
000002b0: be37 6b3e 82d7 eebe d1d7 b23e 76b8 a6bd
000002c0: 10c7 d0be 65eb 6fbd 6b9e 26bf da67 b9bb
000002d0: b7b2 41be a8ae 623f 0134 21be eb1b 923f
000002e0: adf3 a23e c8af 90be 5e1b 2ebe 855b 4dbe
000002f0: d867 1c3f d0b7 623e 5134 c1bd 6980 853c
00000300: b62a 163e fbd4 22bd 7812 39bd 98d2 90be
00000310: 0b8f c83d 05ee 4ebd 0058 81be 2b1f c73d
00000320: ec5a 0c3d 8216 abbb 9420 a43e d830 eebd
00000330: 956a a13e 85fc a5bd bf81 2bbe 88b5 f6be
00000340: 22eb 953f f26a a2be 8ea0 d7be 8013 0dbf
00000350: cc98 0cbf 305a 743e 8cde 4abf 2e64 47bf
00000360: c4d3 963c 89a9 5a3e b6d5 c03e c01d f5bb
00000370: 414b bf3e 04ef a33c e5f8 3abe 495d 7e3e
00000380: 51f1 c63c a861 83bd 2bbd c1bc 76df a7be
00000390: d5ba 023e 02c1 7dbd 93eb bb3c 91ae 803e
000003a0: aac6 cf3d 81f8 ba3e e164 08bd 37fa a73e
000003b0: 6ba4 4cbf 4601 f0be 3521 f73e 0e50 2f3f
000003c0: d3dd 993f 3e47 0cbf 3114 7f3f df0f 4fbe
000003d0: d23b 3abc 7c30 11be 63e9 2a3e 97f5 083f
000003e0: 776d 2e3d 303d 9d3d ad50 803e 7a23 013e
000003f0: 8c1f ad3e 53cd 4c3e 5e9a 7b3e 0fda 433e
0.20544973 -0.3213434 0.24359886 0.14277095 -0.0770663 0.07930988 -0.18673638 -0.07604823
-0.08567709 0.027776815 -0.19425462 -0.029164266 -0.23477516 0.03713689 -0.3555573 0.28064275
0.17817551 0.116015814 -0.1348204 1.2665443 -0.17685416 -0.3526205 -0.07453032 -0.579475
0.20750667 -0.951931 -0.11293647 -0.17977855 -0.39124793 -0.083240524 0.19419275 -0.1187462
-0.14233679 -0.09344249 -0.25020075 -0.28597367 -0.02332562 -0.18040648 -0.24032813 0.07715823
0.17285167 0.23962331 0.044727623 0.31178543 0.001978999 0.15175213 -0.31369832 -0.04088907
0.119377874 0.02348261 -0.40794668 -0.9414551 0.17579614 -0.93013287 -0.04871763 -0.16724928
-0.063718095 -0.12069498 -0.18123113 -0.27449995 -0.00065645145 -0.17772608 -0.11655357 -0.11413037
-0.12334847 0.028325872 -0.12585539 0.08120758 0.019315634 -0.16704588 -0.03075894 0.053312488
-0.07756725 0.04196623 0.0028574748 -0.18215927 -0.1255006 0.053851984 -0.16528021 0.21433724
0.16573875 -0.098765716 0.018065203 0.30329084 0.31501013 0.20261744 0.058766995 -0.046193514
0.16552152 0.0077218167 0.43086264 0.30105424 -0.29850084 0.15471283 -0.002827356 0.14259504
-0.2899269 0.16362473 -0.37562877 1.1396009 1.2548918 -0.21075407 -0.5340296 0.19488674
1.0008458 -0.9338468 0.6457426 -0.8799159 -0.15406488 0.085602045 0.04127174 0.2693674
0.26910135 -0.27001238 0.14989938 0.07310766 0.1011029 -0.19480364 0.10995016 0.036257192
-0.13338783 0.1515341 0.50790906 -0.23685142 0.10871588 -0.25778374 -0.5964184 0.9466032
0.5626465 0.13749732 0.96360624 0.889794 -0.39823535 0.63009536 0.1653198 0.2868381
-0.09260869 0.026024591 -0.64893615 -0.83601874 -0.6924331 0.05980649 -0.113063276 0.30546942
-0.38199693 0.10280885 -0.25714287 0.14754754 -0.122942664 -0.1314072 -0.30655274 0.16695939
-0.47410908 0.26967102 -1.0193568 -0.08117201 -0.18417093 -1.0656799 -0.72908354 0.1369498
0.30065048 -0.008562956 0.44295204 -0.17686103 0.1880605 -0.016654981 -0.1114509 -0.41749266
-0.19522053 0.122740954 -0.5271276 -0.2347728 0.22970483 -0.46648794 0.3493028 -0.08140652
-0.40776873 -0.0585741 -0.65085477 -0.005658132 -0.1891583 0.88547754 -0.15742494 1.141477
0.31826535 -0.2825911 -0.17002627 -0.20054443 0.61095953 0.22140431 -0.09433807 0.016296582
0.1466473 -0.039753895 -0.04518363 -0.2828567 0.09792908 -0.050519962 -0.2526245 0.09722742
0.034266397 -0.005221189 0.32056105 -0.1163041 0.31526628 -0.08104805 -0.16748713 -0.48185372
1.1712382 -0.31722218 -0.4211468 -0.5510788 -0.5492065 0.23862529 -0.7924583 -0.7788724
0.018411525 0.21353735 0.37663049 -0.007480353 0.37362102 0.020011432 -0.18259008 0.24840273
0.02428499 -0.06415111 -0.023649773 -0.32787675 0.12766583 -0.061951645 0.022939479 0.25133184
0.10145314 0.36517718 -0.03329933 0.32808086 -0.7993838 -0.46875972 0.48267522 0.6848153
1.202082 -0.54796207 0.99640185 -0.20220898 -0.011366801 -0.14178652 0.16690592 0.5349974
0.042584863 0.07677686 0.2506155 0.1261119 0.3381313 0.200002 0.24570605 0.19126152

aa_net.0.bias f4 [150]
00000000: 8b8e 153e fc1e 943e 7560 83be 6b2f d6bd
00000010: 4a5b 74be 0174 793e 374d 3c3e e8e5 b5bc
00000020: 3042 fabb eacb 28bd 933a 2abd ed9b 07be
00000030: 2cbe 2e3f 53f9 87bd 3fdb a5bd c3c2 93bd
00000040: 7eca a0bc a312 d5bd c0da 563e 4d02 32be
00000050: 08b5 50bd b4c9 4bbd 6af0 ab3e 5e2d 253d
00000060: 0b24 08bc c204 03be 1f62 cabc 0052 ee3d
00000070: d7e2 54be ef6a 48bd 2d89 7f3e 2f05 55bd
00000080: 8868 b23c 3d06 783d f999 e2bc 6d43 76be
00000090: 5ee4 5ebe e0a6 483c bff3 6cbd 988f a53d
000000a0: e67b 853e b643 de3d c3f6 493d 948d 803e
000000b0: 44ab 0a3e e5c0 f7bc b968 27be 05d4 043e
000000c0: e5c0 293d 6357 653e 3678 d9bd 254e 7fbd
000000d0: 6e48 51be caaa 3bbe 9f6e 31be 62da febc
000000e0: 3415 6a3d b3b4 103f 7c25 b53e 3eb6 07be
000000f0: bd64 8f3e 9e82 52be 08ff 0ebe 2759 e93e
00000100: 1e1c 943d f117 b3bd e033 23bd 7cdd dabc
00000110: 1108 88bd 21f3 54be 4548 2a3e 098f 1cbe
00000120: 2a2f 773e d1c3 ae3d 0a69 9e3e fa0d 403e
00000130: c1f1 8d3e 7736 32be f6e6 973d 9cec 033c
00000140: 732f a5bb be4c 883d 1179 1b3e 7b79 ba3e
00000150: a521 2a3d bf67 e43c ae83 e8bd 4b5e 3f3c
00000160: 8b6c 813e fbce cd3d dae9 323e 9739 37be
00000170: a05f c2be 30d6 4dbd 7062 17bc 5aec 0b3e
00000180: e811 503e 557a e53d e55e 3cbe 79ac 8abd
00000190: e2c4 46bd 59d9 ccbd fcf4 3b3b 2a08 fbbd
000001a0: d5fd d63d c248 963e 9462 b13d f7d9 943e
000001b0: d899 5d3e ac58 71bd dbd0 56bd 05a9 b8bc
000001c0: a178 cf3e 2515 a53b a218 16be 7cca f2bc
000001d0: 0529 8abd 9df6 a53e 4eaf de3d b9e3 28be
000001e0: f6fe 163e 0a39 843b 4cbd a3bd e1f9 883e
000001f0: 9249 81bd debd a8bd d3c2 91bd dde3 e63c
00000200: 7c74 46bc a93c a23e 5d2c 9ebe 9304 2c3e
00000210: 5d6c 123e a68e c43d 7e1b 13be 33dc 573e
00000220: d26c 5fbb 6527 c33d bfb6 123e 3096 ee3b
00000230: 5335 5ebe 48dd 35be 2fda 7ebe 58e7 073e
00000240: 5394 7b3e e168 7dbd 5d0e 3cbe 369a 48bd
00000250: 00ea 743e 576f 4cbe
0.14605157 0.2892989 -0.25659528 -0.10458263 -0.23862949 0.24360658 0.1838883 -0.022204354
-0.0076372847 -0.041210093 -0.041559767 -0.13243075 0.6825893 -0.06639352 -0.080984585 -0.07214882
-0.019627806 -0.10403945 0.20981884 -0.1738369 -0.050953895 -0.049752906 0.3358186 0.04032647
-0.008309375 -0.12794784 -0.02470499 0.11636734 -0.20789658 -0.048930105 0.24954672 -0.052006897
0.02177836 0.060552824 -0.02766131 -0.24049158 -0.21766803 0.012246817 -0.057849642 0.08084029
0.2607109 0.108527586 0.049307596 0.25108016 0.13541895 -0.030243346 -0.16348542 0.12971504
0.041443724 0.22396617 -0.106186315 -0.062330384 -0.20437786 -0.1832687 -0.17327355 -0.031109992
0.057149127 0.56525725 0.3538016 -0.13253114 0.28006545 -0.20557639 -0.13964474 0.4557583
0.072319254 -0.08744801 -0.039844394 -0.02671694 -0.066421635 -0.20795871 0.16629131 -0.15288939
0.24139085 0.08533443 0.30939513 0.18755332 0.27723506 -0.17403589 0.07417099 0.008052018
-0.005041057 0.066552624 0.15182902 0.36420807 0.041535992 0.027881501 -0.11353241 0.011680196
0.25278124 0.10049244 0.1747202 -0.17893063 -0.3796358 -0.050253093 -0.009239778 0.1366438
0.2031933 0.112049736 -0.18395574 -0.06771178 -0.048527606 -0.10002393 0.0028679958 -0.122574165
0.10497633 0.29352385 0.086613804 0.29072544 0.21640718 -0.058922455 -0.052445274 -0.022541532
0.4052172 0.005037921 -0.14657834 -0.029637568 -0.06746105 0.32414714 0.108732805 -0.1649312
0.14745697 0.00403512 -0.0799509 0.26753142 -0.063128605 -0.08239339 -0.07117238 0.028184826
-0.012112733 0.31686905 -0.30893221 0.1679862 0.1429915 0.095975205 -0.14365956 0.21080093
-0.0034091962 0.09528998 0.14327525 0.0072810873 -0.21700029 -0.17760193 -0.24887918 0.13271844
0.245683 -0.0618676 -0.18364854 -0.048975192 0.23917389 -0.19964348

aa_net.3.weight f4 [10, 150, 1, 1]
00000000: 4bb5 a5bd bdab 343d cfb0 c33c 3030 e43d
00000010: 5202 debb ad22 7a3e f935 cf3d d786 e7bd
00000020: 088c 66be a9a7 26be 69f8 443d 066f c13c
00000030: 3579 023e 10a1 783c 831f cf3c d912 a23c
00000040: d698 283e 41d6 073e c722 35be d529 17c0
00000050: 6479 ee3c c953 0f3e d695 8cbe a3a8 f83c
00000060: 8f0e be3d a511 02bb efde 0b3e eeff a13d
00000070: 1bb6 7ebe b9ec d23a f1c9 afbd f1b0 44bf
00000080: 8de3 65bd 07f4 e23f 1fbf 2b3d 757a d13d
00000090: 9321 04be 717e 123d 488b 80be a0b4 123e
000000a0: 3919 10be 4bd8 cf3d a8ae d83d 78ab a53d
000000b0: aa7d 2fbd 7f54 9a3e 0460 c6be 8084 7abe
000000c0: a719 02bc 8e50 e5be 38d0 6abb 97b7 043a
000000d0: 46b1 80bd bc7f bb3c 3ab5 58be 6926 6dbe
000000e0: cfd8 fb3d c1c6 9a3d 1d3c 3dbf f56f 69bd
000000f0: d93e b8be 9fab bb3c c83a 0b3e 8c88 f7bb
00000100: c384 91bd ba7e a0bd e120 b83d c6b1 e1bd
00000110: a137 003e 9d86 193e beed 0b3e 46e5 bf3e
00000120: 230c 6cbe 77cc febd d808 1cbd 624b 80bd
00000130: 956f 41be 8c63 f8be ba86 2c3e 3ace 5e3d
00000140: 0c2f 5bbc e088 103e 50e1 43be 09c6 0d3e
00000150: 945f 353e 058c db3d 912b e23d be91 71bd
00000160: ebf8 0ebe e5f7 3fbe dcdf 3dbe e6ef 6f3d
00000170: b75f 8dbb 202a 49bd 5c61 353d 45c5 3abd
00000180: 2ca2 513c 0afb c5bd bb86 e13d a6c6 023e
00000190: 172b a43c 5170 03be 429f 603e ecbd d33d
000001a0: c5ea 873d 6f81 e6be 44da a9bd 05b6 8e3e
000001b0: fdf6 00be ce03 d63d df99 4dbb 3505 803e
000001c0: 6956 b83e 79d8 b93d bd6d 6b3c f265 03bd
000001d0: a793 17bd 37ee a0be 18d1 aebe 8ecc fa3c
000001e0: 373a b7bd f444 9ebc d59a 0cbd c0a2 5c3c
000001f0: 75b8 0a3d df41 bebd ac0b 193d 379f 14bd
00000200: 1c7c cc3d fa31 a4bc d525 97bc 8a0b 6bbe
00000210: 19bd 1e3e 1b9b d53d 29bf 28be 7b7b 113e
00000220: efb9 293e 78ab 84bd de81 e5bc 9691 053c
00000230: 42ce fdbc 081e 4d3d a262 fe3d 5f80 373d
00000240: 539f e2bd 944b 9fbe 0f0f 97bd cf9f 9b3d
00000250: 006a 2e3d 1828 d63c e811 a93d e622 553d
00000260: 3c7a debd b834 9fbe c75f b5be f815 45be
00000270: df7f b83e cfc3 93bd 0dc9 303e f774 83be
00000280: d838 c13d 6444 dcbb 1474 82be 51b8 ea3c
00000290: 2886 84bc 8052 9ebe ead5 38be 351c 50be
000002a0: ed36 3d3e 10af 43be c915 a8bb 5a86 91be
000002b0: 140a 663e 1a5e 2bbd 7e26 173e 3602 89be
000002c0: a17c 29be 16dd b3be 29cc 2abd e9dc 013e
000002d0: a8fc b2be f682 2cbf 29c3 0fbd a9eb 3dbd
000002e0: e841 523a 1c24 2ebe 7fda a1bc 6c51 e33d
000002f0: 5873 0b3e 7c93 983d 95be b8bd bb38 91be
00000300: 8a62 373e 9147 80be 06d4 a0be fd04 d4be
00000310: 8040 4f3e 4f6b f9bc 9949 2d3d a4fb 433d
00000320: 0a73 67be 6779 e93d 012f 46be 9920 2f3e
00000330: 1402 a2bd 58ef e63c ed0b 6dbe 49a3 163e
00000340: 12fc bcbd 6ece efbe 908d 453b 02e3 bd3d
00000350: f9eb 193e db4b 26be bb4f 7a3c d4a5 d33d
00000360: 9d1d 3e3d 30f6 023e 3c3f 49bc 17d6 a9be
00000370: 5e69 9fbd b2c6 87be 12d4 7e3a f809 403e
00000380: 82cf e5bc 352b a0be 6634 123e acdd 27bc
00000390: 06b2 9f3e 31c0 9e3a 4ab1 1bbe 34b7 a1be
000003a0: 2553 823e 46ba 4abe 0228 703e 90f8 ac3e
000003b0: cc4b 06bd d372 f23c b93d 4e3d b3ee 2f3e
000003c0: 6a96 29be 6f99 073e a3b1 db3c 5b05 bcbe
000003d0: 3348 9fbe a055 aabe b376 063e 6509 a73d
000003e0: f6b7 eebe 5172 8ebd db49 eb3d 8c19 3f3e
000003f0: 4105 883c 2f9c 10be f284 4bbe 915b 763d
-0.080912195 0.044109095 0.02388802 0.111420035 -0.006775179 0.2442729 0.10117716 -0.113050155
-0.22514355 -0.16274895 0.048088465 0.02361251 0.1274155 0.015175119 0.02528358 0.019784378
0.16464552 0.13265325 -0.17689048 -2.3619282 0.029110618 0.13996805 -0.27458066 0.03035385
0.092801206 -0.0019846943 0.13659261 0.07910143 -0.24874155 0.0016092277 -0.08583439 -0.7683249
-0.056125212 1.7730721 0.041930314 0.10228435 -0.12903433 0.035765115 -0.25106263 0.14326715
-0.14072122 0.101486765 0.10580188 0.08089346 -0.042844452 0.3014259 -0.3874513 -0.24464607
-0.007940686 -0.4478802 -0.0035829674 0.00050627574 -0.06283812 0.022888057 -0.21162882 -0.23159184
0.12297212 0.075574405 -0.7391985 -0.056991536 -0.3598545 0.022908984 0.13596642 -0.0075541195
-0.071054004 -0.07836671 0.08990646 -0.11020236 0.1252122 0.14992757 0.1366491 0.3747961
-0.23051505 -0.12441342 -0.03809437 -0.06264378 -0.18890221 -0.48513448 0.16848269 0.05439589
-0.013377916 0.14114714 -0.19128919 0.13845076 0.17712241 0.10720066 0.11043466 -0.05897688
-0.13962142 -0.18746908 -0.18542427 0.058578394 -0.0043143886 -0.04911244 0.044282302 -0.045598287
0.012795012 -0.096670225 0.11012026 0.12771091 0.020040078 -0.12835814 0.21935752 0.10338959
0.066365756 -0.45020625 -0.08293584 0.27873245 -0.12594219 0.104499444 -0.0031372232 0.25003973
0.36003426 0.09074492 0.014369425 -0.032079645 -0.037006047 -0.31431744 -0.341439 0.030615117
-0.089466505 -0.019319989 -0.034327347 0.013466537 0.03386732 -0.09289908 0.037364647 -0.03628465
0.099846095 -0.020043362 -0.018450657 -0.2295362 0.15501823 0.10429975 -0.16479172 0.1420726
0.16574834 -0.064780176 -0.028016027 0.008152386 -0.03098214 0.05007747 0.124211565 0.04480016
-0.11065545 -0.3111235 -0.07375919 0.075988404 0.04258156 0.026142165 0.082553685 0.052035235
-0.10863158 -0.3109491 -0.35424635 -0.19246662 0.36035058 -0.07215082 0.17264195 -0.25675175
0.0943467 -0.00672202 -0.25479186 0.028652342 -0.016177252 -0.30922318 -0.18050352 -0.2032326
0.18477984 -0.1910975 -0.00512955 -0.28422815 0.22464782 -0.04183779 0.14760777 -0.267595
-0.16551448 -0.35129613 -0.04169861 0.12681927 -0.34958386 -0.6738733 -0.03509823 -0.04636732
0.0008020685 -0.17005962 -0.019757507 0.11099514 0.13618219 0.074500054 -0.09020726 -0.28363594
0.17908683 -0.250546 -0.3141176 -0.41410056 0.20239449 -0.030446677 0.042306516 0.047847405
-0.22602478 0.11400109 -0.19353868 0.17102279 -0.079105526 0.0281903 -0.2314908 0.14710726
-0.09227766 -0.4683718 0.0030144192 0.09271814 0.15031423 -0.16239874 0.015277798 0.103343636
0.04641496 0.12789226 -0.012283143 -0.3317115 -0.07783769 -0.2651878 0.0009720932 0.18753803
-0.028053049 -0.31282964 0.14277801 -0.010245722 0.3119051 0.0012111721 -0.15204349 -0.31585085
0.2545406 -0.1979762 0.23452762 0.33783388 -0.03278713 0.029595768 0.050351832 0.171809
-0.16561285 0.13242124 0.026818102 -0.36722836 -0.3110977 -0.33268452 0.13131218 0.08156089
-0.46624726 -0.06955398 0.11488696 0.18662089 0.016604068 -0.1412208 -0.19874933 0.06014592

aa_net.3.bias f4 [10]
00000000: 82f9 973d e9a4 aabd 2682 1f3e e592 20bd
00000010: f335 823d fbff bdbd 9f06 f83d e6b3 0ebc
00000020: a4d4 43be f68c b5be
0.07420637 -0.08332235 0.15576991 -0.03920259 0.06357946 -0.0927734 0.12110638 -0.008709883
-0.19124085 -0.35459107

exp_avg f4 [9, 1, 3, 3]
00000000: c14f 1a39 abe1 a92a f632 8d33 719e cd26
00000010: 0389 cf2d 25bc 8d32 3957 1b32 c86d 1ab9
00000020: 05f8 8a32 bd75 7f32 cf6f 5530 36a5 b42e
00000030: b861 0333 5faa e033 1d6f 542b 64dc da2c
00000040: 60c4 e131 648b 28b4 0236 273a 1180 aa2a
00000050: 18d6 7634 2abe 0b25 c133 d532 b972 09bb
00000060: 6215 bf3a 61b6 ab35 0213 2d33 535b fd37
00000070: f80f c62c 047b fdb7 d1cd 0f32 bdfd 1929
00000080: 64b0 9031 91af b224 5776 de24 ef96 8c2b
00000090: fbf0 ce30 1620 8ab9 b3b9 8523 18b5 c838
000000a0: 7f18 2139 e923 bb33 5b5a 5837 0d30 cc32
000000b0: de08 9535 2627 25b8 6e23 8133 07a0 8b33
000000c0: 3ab5 5e2d 3791 0735 1a7a a337 3986 a137
000000d0: 364b 0922 844b 812f 77c7 95b1 831e a2ae
000000e0: 224c b0ba 7b35 a63a ccb8 ce35 a6bf 9d38
000000f0: 8a90 9d33 54bf 1d33 a80e cb33 2011 9338
00000100: ae71 7c34 020a 0a2c e137 b732 14c6 d634
00000110: b52d 0d32 8193 94b8 57f6 1e33 4d6e 9732
00000120: eb2f 4130 0f7a 8a2c 4e3c 8a31 b2ed 2729
00000130: c687 c6b7 fc59 1231 fa13 7132 0f57 c637
00000140: 7d92 fe2b
0.00014716295 3.017702e-13 6.575094e-08 1.4267678e-15 2.359402e-11 1.6500119e-08 9.04202e-09 -0.00014727481
1.61781e-08 1.4869724e-08 7.764784e-10 8.2148e-11 3.058969e-08 1.0461803e-07 7.547173e-13 6.220401e-12
6.570687e-09 -1.5696929e-07 0.0006378592 3.028693e-13 2.2988422e-07 1.2120758e-16 2.4819999e-08 -0.002097292
0.0014578516 1.2793572e-06 4.029699e-08 3.0202476e-05 5.6292714e-12 -3.0217234e-05 8.370493e-09 3.4192907e-14
4.211005e-09 7.7492616e-17 9.647763e-17 9.989491e-13 1.5056963e-09 -0.00026345317 1.4498536e-17 9.5704745e-05
0.00015363282 8.714398e-08 1.2895641e-05 2.3770577e-08 1.1103946e-06 -3.9375525e-05 6.013475e-08 6.501801e-08
1.2659479e-11 5.0502734e-07 1.9487972e-05 1.9255198e-05 1.8606779e-18 2.351862e-10 -4.3591473e-09 -7.372327e-11
-0.0013450424 0.0012680733 1.5401979e-06 7.522041e-05 7.337174e-08 3.6728423e-08 9.45559e-08 7.012696e-05
2.3510685e-07 1.9616535e-12 2.1329415e-08 4.0004727e-07 8.217673e-09 -7.084665e-05 3.7011286e-08 1.7628873e-08
7.0281087e-10 3.935747e-12 4.0231845e-09 3.7287617e-14 -2.3666664e-05 2.1296946e-09 1.4032588e-08 2.364398e-05
1.8088444e-12

exp_avg_sq f4 [9, 1, 3, 3]
00000000: 9f7e 7c38 2def 9816 e54d f92b 7482 970f
00000010: 58a5 9a1c 7f38 b727 b4a5 f426 b593 7c38
00000020: abeb 6928 a2fc 8e29 6e17 1c23 b72d f31f
00000030: 27aa 7c2b 9883 912d 330f e618 4814 a21c
00000040: 15d5 8728 bc2a e02d f034 bb37 9bcc cd1d
00000050: c0ac 0b2d d12c aa0a a80e 0028 9273 cc38
00000060: 3cf6 4438 1fb3 122f a6af fb29 ecde a936
00000070: bc14 771b def1 a936 6bad 8e2a 4da6 8713
00000080: 26a5 6027 6f17 530b 3402 830c 8445 871b
00000090: 5716 aa23 92b7 1739 2e1b 5f08 460d 9f37
000000a0: f0b7 6238 07f0 042d cbb3 5334 4bb9 8c2a
000000b0: 56be cf30 0327 8536 d016 922c 955c 2c2d
000000c0: 6c14 611c c9bd 1230 fbf5 8b35 92ec 7335
000000d0: 6d0c b305 54a2 9320 c360 3325 49a1 6820
000000e0: 2f52 f036 a889 3e37 1912 5c31 acaf 5836
000000f0: d653 5e2a 3e66 d329 1bb2 c929 445d a337
00000100: e99d 9a2f d5b7 b219 6791 822b 8aac d02f
00000110: 8f95 ee27 4a01 a637 474c 042c e19a 662a
00000120: 4bee 1322 7002 871a dc27 2825 1071 c613
00000130: 2e88 cb35 d2a2 e123 7070 0f2a 206a cb35
00000140: e80c 6419
6.0199407e-05 2.4707866e-25 1.7714134e-12 1.4939998e-29 1.0233606e-21 5.0853957e-15 1.6975815e-15 6.0219045e-05
1.2985201e-14 6.3498916e-14 8.461738e-18 1.0299013e-19 8.976452e-13 1.654303e-11 5.9468954e-24 1.0725503e-21
1.508042e-14 2.548483e-11 2.2316788e-05 5.4474605e-21 7.939593e-12 1.6387263e-32 7.1086054e-15 9.749005e-05
4.6959365e-05 1.3342259e-10 1.1177109e-13 5.062544e-06 2.0438061e-22 5.0647495e-06 2.53446e-13 3.4242776e-27
3.1175772e-15 4.065475e-32 2.0185072e-31 2.23788e-22 1.8440898e-17 0.00014468867 6.713857e-34 1.8960458e-05
5.4053904e-05 7.556628e-12 1.9716315e-07 2.4997569e-13 1.5115329e-09 3.9682504e-06 4.1521023e-12 9.797625e-12
7.447265e-22 5.338419e-10 1.0427897e-06 9.086881e-07 1.6837644e-35 2.5010188e-19 1.5558559e-16 1.9704529e-19
7.162125e-06 1.1356933e-05 3.20245e-09 3.2288763e-06 1.9746647e-13 9.3880185e-14 8.9570895e-14 1.9474544e-05
2.812464e-10 1.8479018e-23 9.277413e-13 3.7957576e-10 6.622042e-15 1.9789342e-05 1.880067e-12 2.0481838e-13
2.0048366e-18 5.583863e-23 1.4585182e-16 5.0093715e-27 1.5164312e-06 2.4463506e-17 1.2739961e-13 1.5155565e-06
1.178993e-23

exp_avg f4 [9, 1, 3, 3]
00000000: 4676 b0b4 ba1e e4a5 d006 a8ae e2ee 33a2
00000010: 390d 13a9 0868 b2ad 6686 afad d8e9 47b9
00000020: 4a95 f7ad 67f1 aaab b829 e3a9 65b1 73a8
00000030: 98ea 5cac c786 2bad 0418 cea4 04dd 4fa6
00000040: 993c 7fab 03b4 2cb7 7978 d8b7 2e77 06ab
00000050: 3f2c 16b2 3bf3 c1a1 27db 8baf 98f3 ccba
00000060: 15d2 29b8 fd62 2bb3 4667 53b1 382e 0235
00000070: fe46 8429 ea4f 203a feb1 522f 703b b025
00000080: bd57 9e2e 6ac9 5f21 1f10 0322 34c4 8e29
00000090: 02d7 9aac cb0f 5ab9 64d8 f19e 03d7 67b4
000000a0: 8ada 7eb4 c2f3 29af 394b a6b2 8f23 06ae
000000b0: 4157 e9b0 a052 b339 5ada 912f 6c72 0a30
000000c0: 805a 9129 5420 2b31 a53f 0e34 c89c 1b34
000000d0: 9a70 3c1e 781c ae2b ae03 65ae 1811 dfab
000000e0: 7ad4 8ab7 3f31 71ba 6746 5ab2 ddf0 20b5
000000f0: aa01 6cb0 aa63 0cb0 bc9e bbb0 ea38 4235
00000100: aee0 2d31 b9d7 6928 74b3 422f 6405 3531
00000110: 4d30 b22e 9000 eb39 fc9a 832f bb3d 2a2f
00000120: f551 b0ac 74c4 fca8 5f61 fcad 6e43 99a5
00000130: 5ea2 ceb9 df94 85ad 3cfd dcae 81fd 3ab4
00000140: 3257 68a8
-3.286861e-07 -3.9572516e-16 -7.6409656e-11 -2.4385487e-18 -3.2652026e-14 -2.0282456e-11 -1.9954881e-11 -0.00019065232
-2.8146947e-11 -1.2146229e-12 -1.0088062e-13 -1.3527676e-14 -3.1394106e-12 -9.750151e-12 -8.937894e-17 -7.2117084e-16
-9.0678295e-13 -1.0293911e-05 -2.5805306e-05 -4.777176e-13 -8.7412095e-09 -1.3142571e-18 -2.543967e-10 -0.0015636561
-4.0488394e-05 -3.990407e-08 -3.0763245e-09 4.849603e-07 5.874293e-14 0.0006115424 1.9162624e-10 3.057141e-16
7.2005936e-11 7.582191e-19 1.7762345e-18 6.3401026e-14 -4.400814e-12 -0.00020795983 -2.5606365e-20 -2.1591772e-07
-2.3735097e-07 -1.545706e-10 -1.935915e-08 -3.0499655e-11 -1.697778e-09 0.000342031 2.6530494e-10 5.036671e-10
6.454993e-14 2.4902151e-09 1.3247934e-07 1.4492537e-07 9.9759226e-21 1.2371345e-12 -5.207184e-11 -1.5849847e-12
-1.6549824e-05 -0.00092007586 -1.2705278e-08 -5.9955147e-07 -8.5858665e-10 -5.1073334e-10 -1.3651156e-09 7.235345e-07
2.530253e-09 1.2980876e-14 1.7707952e-10 2.634203e-09 8.103083e-11 0.00044823112 2.3938884e-10 1.5483341e-10
-5.01132e-12 -2.8062818e-14 -2.8692325e-11 -2.658696e-16 -0.00039412355 -1.5186461e-11 -1.0049425e-10 -1.7414824e-07
-1.28974946e-14

exp_avg_sq f4 [9, 1, 3, 3]
00000000: 4a42 d635 b933 0711 fbbd 3e28 f43b a809
00000010: 4d4e 6117 e344 5e22 9f77 ec21 8687 af36
00000020: d185 9f23 e858 fd25 c4df 0c20 475d 051d
00000030: 9acf b927 862e be2a 0c00 bb15 be69 be18
00000040: 769d 7d25 13c1 6536 95fc 6332 6843 6418
00000050: 2231 1f28 ee78 ed05 1ea3 0c24 d68f c337
00000060: 99a7 fe33 3f2f 032b 4e68 a225 f5f7 fa32
00000070: 72d5 dc16 2b84 9235 397e 9a26 f8ab 430f
00000080: eb21 c423 83c2 9d06 d471 d807 b891 0017
00000090: e011 431e 307f 8f36 5140 cc02 4128 3134
000000a0: 6c1f 2a35 24f4 3029 3574 9930 9837 8125
000000b0: 31f3 1b2d e9e1 9235 a365 a927 599d 7e28
000000c0: e1b7 5f17 67fe 3d2b cea5 ae30 30a3 9630
000000d0: 4894 bb00 298b a61b 2a9f a121 8272 971c
000000e0: 096f 3031 4b5d d137 04c5 f02f 8623 0435
000000f0: 2d7c b127 51d5 6727 9b5b 1825 84cf b834
00000100: 8dfd 9b2b 140e b114 e62f da26 261f ca2c
00000110: f06f 4d24 12ba 8235 abb6 5e28 4b5b 9327
00000120: 3fc2 b91d 3488 2116 b1ca 0c21 ea5b 6d0f
00000130: 93ee 0a35 4725 9e1f c678 2d26 8fd3 e931
00000140: 0767 0815
1.5963535e-06 1.066556e-28 1.0588314e-14 4.050091e-33 7.280025e-25 3.0123079e-18 1.6023645e-18 5.2311834e-06
1.7295488e-17 4.394875e-16 1.1932499e-19 1.7650627e-21 5.1572897e-15 3.3783062e-13 7.552877e-26 4.922062e-24
2.1997602e-16 3.4236043e-06 1.32705695e-08 2.950234e-24 8.836927e-15 2.2331795e-35 3.0495826e-17 2.331279e-05
1.18582825e-07 4.6606116e-13 2.81732e-16 2.9216588e-08 3.567762e-25 1.0916314e-06 1.0720109e-15 9.647362e-30
2.1264727e-17 5.9342645e-35 3.256697e-34 4.1542954e-25 1.03269105e-20 4.2765387e-06 3.0012022e-37 1.6499054e-07
6.337566e-07 3.929161e-14 1.1165243e-09 2.2415605e-16 8.864729e-12 1.0943596e-06 4.7017118e-15 1.4133952e-14
7.2287274e-25 6.749934e-13 1.2707291e-09 1.0960317e-09 1.7226431e-38 2.7552326e-22 1.0951915e-18 1.0021941e-21
2.5674487e-09 2.4958184e-05 4.3795734e-10 4.9225525e-07 4.9262e-15 3.2173329e-15 1.3214936e-16 3.4423658e-07
1.1083787e-12 1.7877986e-26 1.5139772e-15 5.7446435e-12 4.4547104e-17 9.739908e-07 1.2363085e-14 4.0899676e-15
4.916994e-21 1.3048455e-25 4.7702105e-19 1.1702704e-29 5.175618e-07 6.697727e-20 6.018511e-16 6.805244e-09
2.7546256e-26

exp_avg f4 [150, 3, 3, 3]
00000000: 09aa 82b8 cd8e 4b38 3fde 2eb9 13f1 5239
00000010: 1b63 66b1 f797 1339 318b f4b6 a3e7 a937
00000020: a77c b939 b17f 3039 347d 0838 b904 0c39
00000030: e597 9db7 92e9 2f39 858c 12b8 aca2 6639
00000040: 2213 8239 b97e 3ab8 0610 2cb5 d589 9eb5
00000050: af1e 78b5 4bba df2e 2d13 32b6 96e2 4693
00000060: 8ee9 cab3 453f 6fb3 ed6c abb6 934d 4fb9
00000070: c166 a2b8 c431 14ba 77bc 2fb9 f345 46b6
00000080: dc77 09b9 d82f 95b9 f787 a0b8 a740 4437
00000090: 9555 fbb8 bb1c 86b9 20ed 9139 396b 1bb9
000000a0: e5b5 8ab9 94cc dab8 055e 4f39 36a5 f838
000000b0: 6d88 e637 8476 20b6 c028 aab4 db7d 3335
000000c0: f751 0435 2c1c b2b6 f901 8cb1 aad6 892e
000000d0: f6ee 15b6 eb6d 7433 cbc8 b52c 97c0 562c
000000e0: e98c 7a2e ae83 21b0 a716 832c 8e82 9630
000000f0: 4fe9 b131 3aca 0880 26eb d231 0000 0000
00000100: 15b6 012c 6025 a22f 0ab9 9a30 2aec e02f
00000110: 4ef7 deaf 0000 0000 7a09 ce31 f4b1 cb2e
00000120: 0000 0000 0400 0000 0000 0000 0000 0000
00000130: 0400 0000 b5f7 7723 0000 0000 b0eb 01ae
00000140: 2967 952f ea47 bab8 cfbc 5bba c034 f1b9
00000150: e48c 24b7 d189 8335 1857 64b8 0d3a b7b9
00000160: 3344 3dba b8aa 87ba b833 aab9 c029 b737
00000170: fef1 f6b9 f353 d5b9 90eb 36ba 94a5 68ba
00000180: 5a17 cfb8 c7aa 8fb8 1349 3f39 b8ca 99b6
00000190: e15f 11b5 b9f7 acb6 9271 c434 77ac 6735
000001a0: 45d0 3bb5 20fe c534 4512 80b2 604b 0c34
000001b0: 099d ab37 cedc 6ab9 b4db 67b9 db4f 34b8
000001c0: 50f1 d135 7c12 acb8 3859 43b8 298d 85b8
000001d0: 6eae 2fb8 5d9c 37b8 d752 b837 884c 05b8
000001e0: cb1f 9738 e77c 25b9 0143 47b9 df2e 01b8
000001f0: fde1 3cb9 748c 66b9 a786 e9ae b6f4 13b4
00000200: 206d c7b6 1fda 2432 df35 0335 113f 02b5
00000210: ec91 1c31 2caa 3e35 c5d0 7ab6 6c36 e738
00000220: 8b22 0e3a 2b64 123a 5f9b f638 5eb4 f631
00000230: 860f f8b8 ca8b bf38 5158 cc39 bce3 3c3a
00000240: 1f6a 02b7 911b 05b9 d711 1439 a628 1eb9
00000250: d661 3b39 25b2 3d3a a7d1 2db7 16d4 8538
00000260: ddc4 c736 a756 1a35 0f20 9cb0 c401 01b3
00000270: eddf 5eb6 24e8 8a31 4f88 ba35 f4a1 9bb4
00000280: b6ce 25b6 707e 67ad 9288 6fb9 54ea 2db9
00000290: 19bc 1b38 84ce 7eb9 0027 9d36 f8ad e438
000002a0: c610 a6b9 113f ecb9 b48a 57b8 b90c acb9
000002b0: c9d0 4eb9 7602 0c38 0997 dfb9 935c d9b9
000002c0: 7b43 b338 b91a a9b9 8e00 0a37 9659 a337
000002d0: 1b91 1232 6c12 99b5 e473 3131 406d c1b6
000002e0: c808 a6b7 d513 ba34 3aa1 3836 f35d 2728
000002f0: e7a5 7c37 dab9 0fb9 c43c c136 2bb6 0bb9
00000300: d303 5939 b451 4d35 2e70 8739 0a7f c7b7
00000310: 5d9d 2db8 a60c 9d38 8669 2b39 600b ebb7
00000320: fbb0 ab38 8768 c4b8 af3e 2f39 fd60 ccb7
00000330: 3c19 0b39 33da 4139 8766 2a39 68a0 ff32
00000340: 08d1 a1b5 7c30 a9b3 90b1 26b2 ed9e 3b35
00000350: b89a 8ab2 7589 84b5 b923 aab2 41b9 8734
00000360: a070 ab38 996e 1ab9 d94f de39 4c39 d239
00000370: bfbc 76b6 dfe6 d639 cc12 de39 b9e6 31b8
00000380: 90a2 5937 1fd1 9839 d949 f039 c2e5 b8b8
00000390: 590c 8c38 3b1b ad39 ec39 48b9 50da a0b9
000003a0: 63ba 3338 99c4 a3b8 f9c5 e235 6a6b d733
000003b0: e6d0 c930 3011 e334 dc09 6ab5 ef9f d1b4
000003c0: 75da a6b5 f4dc e734 99cb 25b6 5c52 48b9
000003d0: 9faf b0b5 b359 2339 1ba5 d339 5d7d 41b6
000003e0: 25bd 9e39 1a6a 82b9 ee36 4738 f221 40b8
000003f0: efe1 373a adb6 ce39 114e 4138 4cc5 3639
-6.2305546e-05 4.8531965e-05 -0.00016676726 0.00020116968 -3.352574e-09 0.00014075624 -7.2879707e-06 2.0254234e-05
0.00035378823 0.00016832237 3.254153e-05 0.000133532 -1.878659e-05 0.00016776312 -3.493998e-05 0.0002199511
0.00024809787 -4.4463875e-05 -6.409831e-07 -1.1812032e-06 -9.243185e-07 1.0173958e-10 -2.6535229e-06 -2.5102829e-27
-9.448841e-08 -5.5704067e-08 -5.1088778e-06 -0.00019769957 -7.7439014e-05 -0.00056531676 -0.00016759509 -2.9545015e-06
-0.00013109989 -0.0002845514 -7.65472e-05 1.1697563e-05 -0.000119845536 -0.00025579878 0.00027833227 -0.00014821895
-0.00026456933 -0.00010433156 0.00019776083 0.000118563345 2.7481665e-05 -2.3910843e-06 -3.1694617e-07 6.686584e-07
4.9293106e-07 -5.308093e-06 -4.0747605e-09 6.268171e-11 -2.2341824e-06 5.6910647e-08 5.166622e-12 3.0518138e-12
5.6968572e-11 -5.8758587e-10 3.725759e-12 1.0951042e-09 5.177902e-09 -8.07229e-40 6.1385377e-09 0.0
1.8433078e-12 2.9494185e-10 1.1257566e-09 4.0913167e-10 -4.0557285e-10 0.0 5.9964664e-09 9.262982e-11
0.0 6e-45 0.0 0.0 6e-45 1.3442351e-17 0.0 -2.9540537e-11
2.7176242e-10 -8.882566e-05 -0.00083823217 -0.00046006404 -9.807965e-06 9.80037e-07 -5.444055e-05 -0.0003494773
-0.00072199403 -0.0010350561 -0.0003246346 2.1834741e-05 -0.00047101075 -0.00040689073 -0.00069778506 -0.0008874771
-9.874879e-05 -6.850581e-05 0.00018242402 -4.583355e-06 -5.415623e-07 -5.154838e-06 3.6590478e-07 8.6305175e-07
-6.9966e-07 3.687901e-07 -1.490947e-08 1.3065937e-07 2.0457914e-05 -0.00022398235 -0.00022111723 -4.2989715e-05
1.5641945e-06 -8.205042e-05 -4.6574714e-05 -6.368227e-05 -4.18857e-05 -4.3776225e-05 2.1973085e-05 -3.1780946e-05
7.206163e-05 -0.00015782156 -0.0001900308 -3.079965e-05 -0.00018013264 -0.00021986832 -1.0619532e-10 -1.3779467e-07
-5.943366e-06 9.595651e-09 4.8879696e-07 -4.852055e-07 2.2783935e-09 7.102815e-07 -3.7374423e-06 0.00011025075
0.00054220174 0.0005584384 0.00011759134 7.1800477e-09 -0.00011828453 9.1336275e-05 0.00038975713 0.0007205566
-7.773312e-06 -0.00012694138 0.00014121026 -0.00015083197 0.00017870156 0.00072363234 -1.0360417e-05 6.381438e-05
5.95358e-06 5.7495566e-07 -1.1359605e-09 -3.003676e-08 -3.321092e-06 4.04272e-09 1.3897751e-06 -2.8988836e-07
-2.4707238e-06 -1.31589045e-11 -0.00022843693 -0.0001658586 3.713006e-05 -0.0002430026 4.683505e-06 0.000109042914
-0.00031674484 -0.00045060416 -5.1389172e-05 -0.00032815876 -0.0001972347 3.3380893e-05 -0.00042646404 -0.00041458438
8.547954e-05 -0.00032254102 8.22557e-06 1.947283e-05 8.531312e-09 -1.140475e-06 2.5822766e-09 -5.7645666e-06
-1.9792831e-05 3.465963e-07 2.7511983e-06 9.290734e-15 1.5058998e-05 -0.00013706778 5.7589223e-06 -0.00013323936
0.00020696157 7.6487345e-07 0.00025832787 -2.3781806e-05 -4.139297e-05 7.488699e-05 0.00016347141 -2.801948e-05
8.1868806e-05 -9.365478e-05 0.00016712652 -2.4363859e-05 0.00013265474 0.000184872 0.00016250658 2.9758851e-08
-1.2056271e-06 -7.878495e-08 -9.702845e-09 6.9894196e-07 -1.6135672e-08 -9.874772e-07 -1.980685e-08 2.52805e-07
8.1748934e-05 -0.00014727785 0.0004240263 0.0004009701 -3.6766721e-06 0.00040989273 0.00042357144 -4.2414966e-05
1.2972057e-05 0.00029147507 0.00045831388 -8.8165994e-05 6.67802e-05 0.0003301742 -0.00019095064 -0.00030680234
4.285051e-05 -7.809065e-05 1.689593e-06 1.0031256e-07 1.4684047e-09 4.229455e-07 -8.718614e-07 -3.904565e-07
-1.2431543e-06 4.3187868e-07 -2.4705425e-06 -0.00019104168 -1.3164134e-06 0.00015578307 0.0004036807 -2.8832212e-06
0.00030277032 -0.00024874584 4.7496454e-05 -4.580798e-05 0.0007014563 0.00039427486 4.608749e-05 0.00017430371

exp_avg_sq f4 [150, 3, 3, 3]
00000000: 09b5 8235 7e50 f834 91da 7f35 9e1b e135
00000010: a341 1230 e94a de35 c674 8235 9e2f 0435
00000020: 067a 9b35 5cfb f734 c252 8335 a64e 0635
00000030: 8797 0235 a983 2536 cce0 f634 2e84 b235
00000040: e249 0d36 0cba 8035 b7de 332e 6d76 692e
00000050: a4cc 3e2e 3bc5 3e2d 3dcb 7530 3f92 e22d
00000060: 9346 8d30 343b b52d b2b4 a42f bfa0 4c35
00000070: 230c 0835 9b5d 9c35 a673 4036 e830 1831
00000080: 25b5 3936 0a1a 9d35 a714 f534 f275 8135
00000090: d103 a035 e723 0336 abda 4535 43be e834
000000a0: 88f3 3a36 fd98 bd34 bbfd b235 fed1 4136
000000b0: d71e dc35 d657 dd2f 9019 a02f f1d4 212f
000000c0: 14e9 1f30 9aab b531 65a7 a52e 91e3 1b2e
000000d0: 9537 e52f ecf1 6c2f 0f2d 922c 0834 5e2b
000000e0: ab53 892c 73ec 012c 66f1 3124 de8c 9d2c
000000f0: 538d b02e d2b4 9229 de58 cb2e 0000 0000
00000100: faef 082c ce1e 062a 8b93 9b2c b5d9 f62c
00000110: 72a5 252c 0000 0000 085c cf2e 65b1 8a2b
00000120: 0000 0000 5b41 af29 0000 0000 0000 0000
00000130: 335b f328 8718 0425 0000 0000 5ae0 8e29
00000140: 2712 3025 3cf9 5e35 49b7 0436 5a16 1c36
00000150: 3ad6 0336 5595 8d2f f4ae 0036 4d92 fc35
00000160: 159e 0336 0f77 0836 4ce0 4636 ab1e 0136
00000170: 7d7b c835 3b1a e935 fca1 8936 cf35 0a36
00000180: 81c0 e535 435c 0236 9625 de35 9eab 1a2f
00000190: 875c 122e f397 2030 79d7 f92d dea9 cc30
000001a0: 1d5d 692f 2a2b 942e 7203 942d 965f 4c2d
000001b0: 171f 0c35 ee67 8435 98ff 4235 a2ce 5e34
000001c0: d524 0830 8f30 4434 cb81 1135 a43f 8335
000001d0: 4cc1 8835 311a 2535 ff0f 4634 f669 2035
000001e0: ef2f 5635 4002 ab35 5d0d 8b35 d05a 2035
000001f0: b95d 5d34 1ece e934 f76a bb2d 5b2b 7d2e
00000200: f671 5330 10c6 842e 71e6 d330 b53f 132f
00000210: fa59 052d f311 1b2e 9a6f 2930 1b37 1436
00000220: 96aa 3436 5b0c b335 2472 1b34 2714 a02e
00000230: c855 f533 8bba a335 0074 3336 b743 0e36
00000240: 42ca 2734 8b7f be34 ca46 ea34 46bb 3436
00000250: 7002 3836 a7fc 1436 9dfd 5635 296a 9c34
00000260: 5b4d b132 ff35 a12f e0bc 002e 0782 f12d
00000270: 0552 a230 1287 cc30 a594 cb2f dadc d92c
00000280: ae33 b92f 0c2c b62d 2e60 bf35 66aa 2b36
00000290: fa04 8a35 0008 6534 cd9e 1330 ae02 3434
000002a0: 5823 7235 0aaa 2036 c3bd 9834 f6cd 8235
000002b0: 1abe f934 29f4 6434 5136 4636 2272 1436
000002c0: 73b4 7735 0a83 dc35 489a d231 8a8c 1b35
000002d0: b3a9 c42d 50dd dd2f 64ee 9b2d d76c d730
000002e0: dc17 ea31 a082 812e 28df 3430 d834 962b
000002f0: a882 7430 347d 6635 fc68 1135 f2db 6f35
00000300: 9b05 bc35 febe c62f 1051 bd35 70e8 ec34
00000310: 6d69 1635 8603 8735 b329 1735 968d 8835
00000320: 1ba3 2e35 665d 1335 7fce 0636 0544 0b35
00000330: 6366 c635 822b cb35 bd5e 5335 0f8c 3b2d
00000340: c516 a22e e730 222e 32b2 892d fa8d bf2f
00000350: 6ae8 5e2d 2c01 7930 756c a82d 9ff5 7f2d
00000360: bf82 ff35 ff90 1036 5640 0436 4c4b 1636
00000370: 1131 fa30 3d1f 1636 315e 9035 663e 1136
00000380: 3776 c135 dd7e a235 4bb9 2c36 6f41 0b36
00000390: 5ffc e535 d218 6e36 e8bf 1536 9499 2b36
000003a0: 4442 ee35 6a5b 0636 8bd4 082f f7e8 ab2f
000003b0: f305 b72f 500b b52e d031 4631 f1f7 202f
000003c0: b152 be2e 359a b12e 94b5 232e 1241 3b35
000003d0: c5ff 0936 116d 8d35 2338 c735 4240 4430
000003e0: 1b11 c235 14e3 cc35 6ac7 0a36 e48a cb35
000003f0: 1f3f 2d36 8283 c635 5710 0f36 b1f0 ed35
9.738443e-07 4.6252165e-07 9.531296e-07 1.6771844e-06 5.3207766e-10 1.6562091e-06 9.71974e-07 4.9243124e-07
1.1583913e-06 4.6190223e-07 9.784346e-07 5.003334e-07 4.8649275e-07 2.4663552e-06 4.5984632e-07 1.3300503e-06
2.1053643e-06 9.59089e-07 4.08977e-11 5.308325e-11 4.3382756e-11 1.08440435e-11 8.94193e-10 2.5758172e-11
1.0279159e-09 2.0603609e-11 2.9959818e-10 7.622984e-07 5.068161e-07 1.1650149e-06 2.8677546e-06 2.2146711e-09
2.7672588e-06 1.170499e-06 4.5649833e-07 9.645576e-07 1.192204e-06 1.954142e-06 7.370642e-07 4.33518e-07
2.7857914e-06 3.5315307e-07 1.3335879e-06 2.8881473e-06 1.6400253e-06 4.0262077e-10 2.9121994e-10 1.4718517e-10
5.8175087e-10 5.287302e-09 7.5330665e-11 3.544504e-11 4.169435e-10 2.1550023e-10 4.154572e-12 7.894245e-13
3.903063e-12 1.8463258e-12 3.858523e-17 4.4778478e-12 8.0286576e-11 6.51507e-14 9.247157e-11 0.0
1.9459976e-12 1.1912278e-13 4.4217455e-12 7.015911e-12 2.353975e-12 0.0 9.429618e-11 9.854727e-13
0.0 7.7828985e-14 0.0 0.0 2.7017971e-14 1.1457485e-16 0.0 6.3449856e-14
1.5271717e-16 8.306413e-07 1.9776219e-06 2.3258822e-06 1.9645217e-06 2.5753857e-10 1.9175322e-06 1.8818042e-06
1.9612537e-06 2.033488e-06 2.9634857e-06 1.924035e-06 1.4937101e-06 1.7367487e-06 4.1017756e-06 2.0594923e-06
1.7117856e-06 1.9425213e-06 1.6551228e-06 1.4067189e-10 3.3278737e-11 5.8423594e-10 2.8403712e-11 1.4891233e-09
2.1224307e-10 6.737928e-11 1.6827182e-11 1.1617282e-11 5.2199306e-07 9.865014e-07 7.264257e-07 2.0750534e-07
4.9528853e-10 1.8271588e-07 5.4205583e-07 9.778782e-07 1.0189046e-06 6.1505403e-07 1.8446006e-07 5.975884e-07
7.9790965e-07 1.2741148e-06 1.0360196e-06 5.9736794e-07 2.0616325e-07 4.3549602e-07 2.130694e-11 5.7564047e-11
7.69233e-10 6.037848e-11 1.5417766e-09 1.3392205e-10 7.5801535e-12 3.5258862e-11 6.1640437e-10 2.2085794e-06
2.6921384e-06 1.3340135e-06 1.4477024e-07 7.2795374e-11 1.1424305e-07 1.2198738e-06 2.67406e-06 2.1199064e-06
1.5626668e-07 3.5483058e-07 4.3637402e-07 2.6931098e-06 2.7419555e-06 2.2200782e-06 8.009027e-07 2.9134506e-07
2.064069e-08 2.9324096e-10 2.9271585e-11 2.7456272e-11 1.1810363e-09 1.4881343e-09 3.7031103e-10 6.1920304e-12
3.3688025e-10 2.0710565e-11 1.4258601e-06 2.558017e-06 1.028325e-06 2.1330197e-07 5.370396e-10 1.6764781e-07
9.0203457e-07 2.3940834e-06 2.8450276e-07 9.745697e-07 4.651818e-07 2.132298e-07 2.9535915e-06 2.2120153e-06
9.227726e-07 1.6429415e-06 6.129344e-09 5.794651e-07 2.2357982e-11 4.0356918e-10 1.7727327e-11 1.5674243e-09
6.813009e-09 5.8894445e-11 6.580074e-10 1.0672808e-12 8.8952357e-10 8.586387e-07 5.416948e-07 8.93545e-07
1.4008723e-06 3.6151698e-10 1.410519e-06 4.4127546e-07 5.603277e-07 1.0059309e-06 5.6312564e-07 1.0173997e-06
6.50574e-07 5.489768e-07 2.0087753e-06 5.1880517e-07 1.4781948e-06 1.5137341e-06 7.874149e-07 1.0660819e-11
7.370952e-11 3.687797e-11 1.5654231e-11 3.4843578e-10 1.2670845e-11 9.058734e-10 1.9147553e-11 1.4549611e-11
1.9037033e-06 2.154207e-06 1.9706981e-06 2.239557e-06 1.820384e-09 2.2369925e-06 1.0756249e-06 2.1643004e-06
1.4414026e-06 1.2106863e-06 2.5737852e-06 2.0750701e-06 1.7135279e-06 3.547921e-06 2.2314434e-06 2.557038e-06
1.7751668e-06 2.0020766e-06 1.2444638e-10 3.127025e-10 3.3291733e-10 8.2329366e-11 2.8841107e-09 1.4640002e-10
8.6548886e-11 8.076421e-11 3.7223183e-11 6.975762e-07 2.0563468e-06 1.0537061e-06 1.4842993e-06 7.13957e-10
1.4459105e-06 1.5265273e-06 2.0679677e-06 1.5165101e-06 2.581575e-06 1.4790423e-06 2.1318172e-06 1.7727926e-06

exp_avg f4 [150]
00000000: 4e4f 4f39 de94 54b9 b2c0 c731 4705 5aba
00000010: c434 67b9 73d3 3c3a 2fbf f7b9 a391 1c39
00000020: d373 5839 0902 d339 8347 1cb9 5247 f1b8
00000030: dc36 4f3a f6b7 7039 2db9 eeb8 b72f ccb7
00000040: 3baf 043a 77ca c139 c57a 0eb9 d139 cab8
00000050: 1442 083a d555 40b9 a7ba 71b8 59df 61b8
00000060: 970b 72b9 62c5 a6b8 7f28 aab8 d406 9938
00000070: 8054 b733 0da5 0e39 4df2 6939 2bf8 36b6
00000080: f02f de38 38a4 9b38 be6d 33b6 9795 bf39
00000090: cd01 12b8 4628 99b8 c050 ccb9 d6c6 1b39
000000a0: 11e1 4439 b761 343a ac98 4cb9 5998 1c3a
000000b0: c5fd 0f38 cb16 d339 bc95 3cb8 23e7 0638
000000c0: 3dc3 1039 2be4 c4b8 13d7 c837 f041 d138
000000d0: da69 04ba 3a09 0fb8 e555 f338 ef17 2939
000000e0: d0b5 fb39 2233 8439 2303 b0b9 84d0 6438
000000f0: ff3d 1fba 23d2 643a 097d eab8 85eb ae3a
00000100: 795d 9839 5d83 9539 4982 52b9 f820 e238
00000110: 2500 0339 73a1 14ba e08f 9e37 25d6 98b9
00000120: 71bb 09ba 6760 f739 4891 f6b8 bc67 9db9
00000130: dd08 fb38 6bce b0b9 14ae 093a b4ca 60b9
00000140: 3275 4b35 11be aab9 7f51 98b9 94f5 273a
00000150: c31d 0c3a 756e 2dba c4cc bb38 f1d4 ee37
00000160: 8206 c039 27da 3f39 fc0d 0039 ec1a b1b9
00000170: ae44 6538 6b17 2c39 a8b1 33ba d22e 8139
00000180: 1b0a 233a 229c 7cb8 e1db eeb7 67e0 aab9
00000190: e8ea 9139 8382 a439 d698 1e39 8814 3db9
000001a0: fd25 97b9 0eb5 85b8 d6c7 8437 65b5 17ba
000001b0: 3a00 d939 0e33 56b9 f787 94b8 d8a2 5337
000001c0: 5411 8d38 fc86 8d38 d8c3 ee39 1df5 c638
000001d0: 1f45 dd38 7fae 02b9 8922 82b9 819e 7eba
000001e0: 1fb2 09b9 ed25 c1b8 0c6e 36ba 105d 80b9
000001f0: 051d 00ba ca98 80b9 dd91 74b9 559f 2a39
00000200: 6072 dfb8 f171 c0b9 c538 4bb9 b469 0639
00000210: fde4 3139 447f 10b9 8d80 63b9 2700 d4b8
00000220: 8bf4 0eba 77e6 8939 0488 30b8 0623 d338
00000230: bb58 feb8 5a42 afb8 eb16 cbb8 bfd0 8e38
00000240: 64cf f338 5111 9739 da11 d739 31f7 beb8
00000250: 42ae 4bb7 1311 0db9
0.00019770602 -0.00020273353 5.813569e-09 -0.00083168264 -0.00022049533 0.0007203139 -0.00047253954 0.00014931573
0.00020642513 0.00040246572 -0.0001490396 -0.0001150506 0.0007904598 0.00022956714 -0.00011383216 -2.4340914e-05
0.0005061512 0.00036962677 -0.0001358791 -9.64288e-05 0.00051978347 -0.00018342522 -5.763271e-05 -5.385219e-05
-0.00023083236 -7.952262e-05 -8.113775e-05 7.29688e-05 8.536972e-08 0.00013603662 0.00022310876 -2.7264566e-06
0.00010594714 7.421564e-05 -2.6736957e-06 0.00036541812 -3.481079e-05 -7.30311e-05 -0.00038970076 0.00014856024
0.0001877586 0.0006881016 -0.00019511831 0.00059736293 3.4330198e-05 0.00040262038 -4.4962144e-05 3.2163352e-05
0.00013805642 -9.388508e-05 2.394201e-05 9.9781784e-05 -0.00050511735 -3.410245e-05 0.00011603142 0.00016126012
0.00048009912 0.000252151 -0.00033571673 5.455363e-05 -0.0006074607 0.00087288226 -0.00011181279 0.0013345337
0.00029061342 0.00028517368 -0.00020075696 0.00010782661 0.00012493187 -0.000566981 1.8902065e-05 -0.0002915125
-0.0005254066 0.00047183337 -0.00011757255 -0.00030022662 0.000119702636 -0.0003372313 0.0005252075 -0.00021437817
7.5793935e-07 -0.00032566537 -0.00029052419 0.00064071384 0.0005345011 -0.00066158856 8.9549954e-05 2.847097e-05
0.00036625942 0.00018296448 0.00012212241 -0.0003378013 5.4661818e-05 0.00016411922 -0.0006854781 0.0002463968
0.00062194624 -6.0226892e-05 -2.84742e-05 -0.0003259212 0.00027831574 0.00031377756 0.0001512499 -0.00018032093
-0.00028829268 -6.375658e-05 1.5828682e-05 -0.0005787223 0.00041389634 -0.0002042765 -7.0825154e-05 1.2614495e-05
6.7266315e-05 6.748547e-05 0.00045540812 9.487032e-05 0.00010550976 -0.00012462771 -0.00024821263 -0.000971295
-0.00013131693 -9.2100214e-05 -0.0006959147 -0.000244834 -0.0004887137 -0.000245279 -0.00023323992 0.00016271819
-0.000106547726 -0.00036705987 -0.00019380737 0.00012818613 0.0001696534 -0.0001378032 -0.00021696296 -0.00010108976
-0.000545331 0.00026302386 -4.2088344e-05 0.00010067788 -0.00012128191 -8.357009e-05 -9.684063e-05 6.80997e-05
0.000116257725 0.00028813866 0.00041021296 -9.105949e-05 -1.2140315e-05 -0.00013453169
